examples/es/rl/logs_cartpole/0/209652396/trained_param.npy (npy, 1936 bytes, 1 tensors)

array f8 [226]
0	0xbfd3378e3338ba8b	-0.3002658367358115
1	0x3fe1a7f035e58b7a	0.5517502834958201
2	0x3fcc90d6b3085573	0.22317012540649336
3	0x3fb0390f572c6793	0.06337066534288587
4	0x3fd23a7159331f23	0.284817063435627
5	0x3fdf0ec8bb6a0682	0.48527735044636
6	0x3fd305e899c3353d	0.2972356320941179
7	0x3fdbc52514b79d0c	0.43390776656311014
8	0x3fbe9d16c314df60	0.11958448660595655
9	0x3fc847d76d864c43	0.1896924290454952
10	0x3fd3e4e3cb1506b2	0.3108453257774314
11	0xbfe648e2e4871341	-0.6963972533636494
12	0x3fdafefa8f40596c	0.42181266774550497
13	0x3fd3c4216e94adf0	0.3088458614244862
14	0x3fe9565c7eaa87a0	0.791792151827611
15	0xbfc2a6c8ed5f3062	-0.14571487036153302
16	0xbf8830e310d46980	-0.01181199450598025
17	0xbfd27f1b15b27171	-0.28900792235233214
18	0x3fd560ec82846968	0.3340407633383138
19	0x3fd4df9a23101576	0.3261475889597344
20	0xbfd55af6b3c88c1c	-0.3336769824692867
21	0x3fe63fe6bd6d7b82	0.6953004550704096
22	0x3f48c2a0cf0bcc00	0.0007556233595934492
23	0xbfd1ddb7485e812e	-0.2791574675302567
24	0x3fe03b7b28709590	0.507260874732923
25	0xbfe0af201df4ae65	-0.5213776192735621
26	0x3fe2836effcb4a1a	0.5785441394785409
27	0x3fe69e579d33afb3	0.7068288870191196
28	0x3fb0515a3821afc2	0.06374133940124607
29	0xbf9fdd9ddfbd44d0	-0.031118838101353685
30	0x3fcf69d65d8cf676	0.2454174000539983
31	0xbfc32457e03e62c8	-0.1495466084422985
32	0x3fe143da65d5ddd3	0.539532851121232
33	0xbfce08bc7c58d07a	-0.23464160987498756
34	0xbff338dfd749ef44	-1.2013853463858633
35	0xbfeec6a63a2513c3	-0.9617491851464525
36	0xbfd3c12971b0cd52	-0.30866466620064614
37	0xbfceb47e41ce1d64	-0.23988321507588772
38	0xbfe44b6f132081aa	-0.6342082379888343
39	0xbfd8999873adee7e	-0.38437472626512903
40	0xbfd3a662f7666af6	-0.30703043136752173
41	0x3fdb68f2b376bfb2	0.4282805206848891
42	0x3fd39d541eec1059	0.3064775754903671
43	0xbfc21a7603a0df50	-0.1414325254170259
44	0x3fe143b75384952e	0.5395161277016649
45	0x3ff160f79c44e7c8	1.0861736397041444
46	0x3feea35c41c0617e	0.9574414524277441
47	0x3fea2a3d1840fb72	0.8176560853679418
48	0xbfe16bb721a7c398	-0.5443988473253851
49	0xbfab58dd6103ea0e	-0.053412359326063905
50	0xbfd2b2e2b5b2aa80	-0.29216830963074614
51	0xbfd8273b5e84e51f	-0.3773945258177082
52	0xbfdc5a13944a11a0	-0.44299783212070487
53	0xbfbdddeaa2e53f23	-0.1166674277967528
54	0x3fdafa085894115b	0.4215107789061869
55	0xbfce59fa5da75f9c	-0.237120910386463
56	0x3fd8ef5d61c82791	0.3896096663380542
57	0x3fe27c1bca8be602	0.577649970625487
58	0xbfcb8a1f6a414700	-0.21515267074806133
59	0x3ffac4e596bab9ef	1.6730705154292271
60	0x3fd4fb0c6d24ead2	0.3278227868901641
61	0xbfee90c8445fe252	-0.9551736197891592
62	0x3fd7747316d77d9a	0.36648251753464367
63	0xbfb60d02a85c8054	-0.08613602266677961
64	0x3fdc1ab89e4ec4d6	0.43913093051658103
65	0xbfc426dcd08c85b6	-0.15743599112560752
66	0xbff08055040a2cea	-1.031331077366128
67	0xbfe3fe93e0fcf6ff	-0.6248263735103307
68	0xbfade31fafb1d0e2	-0.05837344188413042
69	0x3fdb3a3e9af07c72	0.4254299653129642
70	0xbfe04c5e9630b9af	-0.5093224461941669
71	0xbfdcddd4509f4dfa	-0.45103938935537224
72	0x3fc36b8e74491f90	0.15171986272821103
73	0x3fd006b90788b8ad	0.25041032539128133
74	0xbfe70b7f17ed50e8	-0.7201533763241317
75	0xbff2c2de9f6bd9f7	-1.1725755908388444
76	0xbfe3bf8675fb18d2	-0.6171295456231525
77	0x3fdceb0cfa045ed7	0.45184635558824254
78	0xbfd8ddc45329f7ab	-0.3885355770252043
79	0x3fa4c4e32b123abe	0.040564631469455645
80	0xbfe02c42894dcb4a	-0.5054028207508534
81	0x3fc757d71084d874	0.1823681669863536
82	0xbfa7d8fd864819d5	-0.04657737983875491
83	0xbfdc9ed06f6269fa	-0.44719324948678685
84	0xbfd6658d7bd9d6fc	-0.3499482831460765
85	0xbfc10c24e99090da	-0.13318311123396748
86	0xbfceaa8d14103cd9	-0.23957980613383859
87	0xbfb34b3cfb52d7d0	-0.07536679397421087
88	0xbfbeed6e76b2cbb4	-0.1208104171553675
89	0x3ff5ac059780452d	1.3544975202569944
90	0x3fd1f514eab1d372	0.28058360022924156
91	0x3ff11a44d1f8f5f6	1.0689132883120442
92	0xbfdaedb51aa4fb71	-0.42075851060865604
93	0x3fd53f839d6cb894	0.33200159429078124
94	0x3f3f81568a92c600	0.00048073160958059247
95	0x3fe34f1578156a19	0.6034037919410508
96	0xbfda22f69381af78	-0.4083839836591703
97	0xbfc11c019a47117a	-0.13366718323790022
98	0x3feb6a8e00edd6d2	0.8567571657319724
99	0x3ff01e5b6f6a35ad	1.0074114181655702
100	0xbfaedd743e38b9b8	-0.06028331050434893
101	0xbfd8c727e1e02d68	-0.38715550478146676
102	0xbff700f62da8e2df	-1.4377347739775173
103	0xbfe5a4ea52432faa	-0.6763812643707656
104	0xbfd808dc18e70f3d	-0.3755407565297338
105	0xbfd86de12dff88b1	-0.3817065190506908
106	0x3fae11d32e602ac4	0.05872974339589157
107	0xbff10a78fbd22b22	-1.0650567852741877
108	0x3fdb02fece3b440a	0.4220578206996498
109	0xbfe79450323c8a2d	-0.7368546467953984
110	0xbfa4c9458635aa6f	-0.040598080285083486
111	0xbff24f87a5db2f87	-1.1444164732701851
112	0x3fe0018b96f5058e	0.5001886318570301
113	0x3fdc6fece4f77337	0.44433138237018305
114	0xbfd0d7e99e1731aa	-0.26317825735602673
115	0x3fe750efa722afd0	0.7286299003949299
116	0xbfe99d62f99622b2	-0.8004622339950258
117	0x3fc3b89122ff7afb	0.15407003601918476
118	0xbfbaa5bd2425a2d8	-0.10409147388930806
119	0x3fe6add38478e500	0.708719023451664
120	0x3fe7253d2a82dba2	0.7232957678123635
121	0x3fb6f6f4afda7dd8	0.08970574658677977
122	0x3fa71d7a3e094f9e	0.04514677054672166
123	0xbfe7fd6adb6f12a5	-0.7496847425287184
124	0x3fc1e6057aa08838	0.139832196117881
125	0xbfe01645d261ad5d	-0.5027188405050925
126	0xbfdfa503398376df	-0.49444656960063854
127	0xbfcb4b3e76977536	-0.21323376455885928
128	0xbfc8ee220c143604	-0.19476724233429377
129	0x3fbd5be193e16cea	0.11468324528088983
130	0x3fd01758c326caaa	0.2514249711777362
131	0xbfa9cff3bfeb7568	-0.05041467397470961
132	0xbf951160c794d890	-0.020574104482158406
133	0x3fcad3342c3ca878	0.2095704284668647
134	0x3fdefbcb1d691be8	0.4841182505810466
135	0x3fe44c15b4b1cf3f	0.6342876939001839
136	0x3f9818c0ae6f32ec	0.023531923910740923
137	0x3f0563fb010f7400	4.0799233950152e-05
138	0x3fc723fcccff7c97	0.18078575143497197
139	0x3fcf3c3f65354485	0.24402611200142502
140	0x3fb0433e8fd5e007	0.0635260678444639
141	0xbfd814cf47ca7342	-0.37627012263128645
142	0xbfc90222d27c4c3b	-0.1953776862870614
143	0xbfafa8c4504e0af4	-0.061834463885153484
144	0xbfd701ad557caf3d	-0.35947736118645307
145	0xbfe06e8068da5b58	-0.5134889648351004
146	0x3fc9715d4a91d166	0.1987721075162298
147	0xbfc732774133ec22	-0.1812275951741365
148	0xbfce59f0751a7f10	-0.23711972921318436
149	0x3fcab059fb258c7b	0.20850682032605392
150	0xbfd6c9da03e4238c	-0.3560700452804262
151	0x3fb1917fe6c88598	0.06862639793737058
152	0x3fc9cd776d8a2b34	0.20158284042948937
153	0xbfcdded49ebf7896	-0.23336274863590195
154	0xbfbe93465c811f82	-0.11943473585517775
155	0xbfc71dfe83a5af2b	-0.18060285022817743
156	0xbfc935366d2df641	-0.19693641978294532
157	0x3f98fb24deee1a48	0.024395538431713853
158	0xbfaff8ba4ddcf370	-0.06244451714017074
159	0x3fbba081ec97b79a	0.10791790033519391
160	0xbfd50cda69112a88	-0.3289094949765645
161	0x3fe18c399aed8f29	0.5483673120438414
162	0x3fe917387b7b9252	0.7840845500728142
163	0xbfe2df4778eecc1c	-0.5897557603806294
164	0x3f9a6063aacb37c8	0.025758321093966946
165	0xbf940d12e2101a62	-0.019581122443947392
166	0xbfd028ac70ad66cf	-0.25248251918456516
167	0x3fdc3469e609ac7a	0.4406990763151907
168	0x3fe29de2bcb9a813	0.5817731557883711
169	0x3fcb26a2b5632412	0.21211656433868648
170	0xbf8b76f4a837ff4c	-0.013410483726147192
171	0xbfed9ee1a2f4f3c9	-0.9256447012663723
172	0xbfd350c1506d69ea	-0.3018039021896174
173	0x3fd096bc080d6fe7	0.25920010362983564
174	0xbfe7a7fc3e054eae	-0.7392560206739824
175	0x3fd6dec40df6cc04	0.3573465477340394
176	0x3fed6e41e6636f9f	0.9197091579221598
177	0x3fd9e9d89ca08d66	0.4048978356897436
178	0x3feab7b6ad3fd27a	0.8349259742522712
179	0x3feae9f7c4b62804	0.841060527994387
180	0x3ff31dab89137e53	1.1947436670815434
181	0x3fe89f3ab137e43c	0.7694371663375317
182	0xbfeefbbb94d90d47	-0.9682290942368262
183	0xbfeb9b779d3563e8	-0.8627279348830799
184	0xbfeea3258545a6d8	-0.9574153521509414
185	0x3fbf33d8f5efdff0	0.1218848801071315
186	0x3fde519277fb245e	0.4737287685098347
187	0xbfa150f477714780	-0.033820762234099355
188	0xbfdebceeacbf6281	-0.4802815138805628
189	0xbfe3e3bf216ff096	-0.6215510991164759
190	0x3fe2f61db558f8a0	0.5925434629387105
191	0x3ff1a29b6ff10c1e	1.1021990177839665
192	0xbfd19558c61ac6d6	-0.2747404036154938
193	0x3fdbfe001a4b3414	0.4373779541754754
194	0xbfe581e2dfed0351	-0.6721052526046184
195	0xbfe3311825e21078	-0.5997429599670019
196	0xbfe165e045353828	-0.5436860419956746
197	0xbfb84d2d6cbbb0e4	-0.09492763428324086
198	0xbfc545b7c487b811	-0.16619011970709655
199	0xbfd80cc9dccba642	-0.3757805496412382
200	0xbfe4d542118c15aa	-0.6510324804991587
201	0xbfe33d40282e5417	-0.601226881483515
202	0xbfe46a37787d111d	-0.6379659035961002
203	0x3ff00551e34052a6	1.0012987973215473
204	0x3fca9dab6ec1dfcc	0.20793669612953491
205	0xbfb00133d34d5fa2	-0.0625183478235827
206	0x3ff560f98cd7e285	1.3361754895869649
207	0xbfcdbf17a7dbd439	-0.23239417740083626
208	0xbfd6e0a35e7913aa	-0.35746082521319045
209	0x3fe29075f509ae12	0.5801343713660023
210	0xbff272278ee462a1	-1.1528697568630053
211	0x3fdc05c17ec1417d	0.43785130861672156
212	0xbfd0aa357caf45c9	-0.26038872886882963
213	0x3fbfd89a172439cc	0.12439883294084736
214	0x3fe7692d78d5bd13	0.7315890655571898
215	0x3fd773ced5880b84	0.3664433560626821
216	0x3fbf9bb1bafa48ac	0.12346945586094432
217	0xbfe7dfa681cfb091	-0.7460510764481275
218	0xbfe0afa0b0cbd6a7	-0.521438927941479
219	0xbff7b2ee2ffcf3ab	-1.4811841845068823
220	0x3fcbc07ba6453726	0.21681161516829056
221	0x3fc5f581bf51343d	0.17155477372799224
222	0xbfc92a3f279f2c42	-0.1966017669168157
223	0x3fc95152bcacb111	0.1977942868483145
224	0xbfe0938187473a1e	-0.5180060999062481
225	0xbfbd6c0745711cfe	-0.11492963261945374
