examples/es/rl/logs_cartpole/0/441365315/trained_param.npy (npy, 1936 bytes, 1 tensors)

array f8 [226]
000000 00 2c 9e cf 0f c5 a2 3f 74 b3 7f ee c4 4b eb bf
       0.036659711927391925 -0.8529991777592003
000010 43 17 b2 af a3 8e f1 bf 59 1a e7 d1 11 a9 e2 bf
       -1.0973240721809396 -0.5831383800185207
000020 46 a5 92 c0 b3 c5 d5 bf 1d 12 95 ba 4e 09 cb bf
       -0.3401917820543371 -0.21122154341186752
000030 e8 e5 4b b0 3e 6d e4 bf 38 ca 5f 25 e8 93 a5 bf
       -0.638335556344086 -0.042144064485814814
000040 f1 c7 4e e0 31 06 b8 bf 08 96 33 7e 04 66 cf 3f
       -0.0938445255876841 0.2453008285730649
000050 68 23 a3 0d 6f cf a0 bf 98 4b 4a 21 ed a3 bb 3f
       -0.03283259431333968 0.10797006666898168
000060 6c 1a e1 96 37 ce bc bf 78 fd ff f6 98 67 e4 3f
       -0.11252162393166437 0.6376461815088268
000070 22 09 3b 8b e0 ca e5 3f f5 65 31 09 dc 0a c3 3f
       0.6810152739856543 0.1487689061057577
000080 b7 93 ad 2d c9 21 da bf 12 f0 30 6b 2a 82 e0 bf
       -0.40831212483163476 -0.5158893674447447
000090 86 3c 46 6f 9f 51 cb bf 13 3b 0a 29 cd 07 e8 bf
       -0.21342842992132577 -0.7509523202478213
0000a0 52 b4 cc 13 fa 56 d1 bf ac 85 4c 5c 41 97 e4 3f
       -0.2709336465221145 0.6434637835229089
0000b0 01 d5 54 2b b9 5e c9 3f f9 87 9d d5 03 db ef 3f
       0.19820322624006084 0.9954852268385813
0000c0 ae 4b 39 d8 bd cc e1 bf 4e 96 7f e3 9d 31 da 3f
       -0.5562428687211332 0.40927836624755265
0000d0 a4 11 25 0c e2 55 e5 bf 05 fa 06 e9 01 f0 c9 bf
       -0.6667337643817075 -0.20263694647105993
0000e0 26 f3 c6 d8 fd d9 ea 3f f5 00 12 0a 01 a5 e5 3f
       0.8391103013924279 0.6763920971571041
0000f0 06 ce ac c7 9a be d8 3f 24 8d cc 08 1f f7 dc 3f
       0.3866335821105341 0.45258308276443615
000100 9a 54 70 4d 64 bf c9 bf 08 41 16 dd 05 e8 ea 3f
       -0.20115331441107714 0.8408231084922884
000110 90 8a bb 63 96 1a ef 3f 71 f9 3e 62 2f e9 f4 3f
       0.9719955394651425 1.3069299543127182
000120 d5 e2 27 f3 62 5d d4 3f 3e c3 1a 9b 0c a1 c3 3f
       0.31819986100849224 0.15335233281578015
000130 13 1a ac b0 83 73 d7 bf 70 54 8c af 1e 69 e7 3f
       -0.36642544034148833 0.7315820149111811
000140 f4 2c ba ed f7 1d c0 bf 40 49 fd bc 6c 48 be 3f
       -0.12591456516052058 0.11829261411665914
000150 3f a8 3f c1 3a c7 b6 bf ae c7 aa 29 79 26 e3 bf
       -0.0889775010870446 -0.5984464467821817
000160 e9 6a 5d dd 01 f1 d4 3f 5c ed 8e ff a6 38 cc bf
       0.3272099172369694 -0.22047889212067673
000170 da 1b a1 36 d2 13 d9 bf 84 1c a2 b5 2d d3 eb bf
       -0.39183478674789074 -0.8695286319279067
000180 ec 69 65 95 55 94 e7 bf 9e 08 3d a4 a9 08 b2 3f
       -0.7368572156804567 0.07044468173720239
000190 59 60 91 5c 73 9d d2 bf 52 68 b3 30 5c c9 ea bf
       -0.29086002387839965 -0.8370800925433832
0001a0 3a a9 f2 b1 6d 13 e0 3f df c3 13 ab cf 9b a5 3f
       0.502371642641527 0.04220437014908617
0001b0 80 e4 5a 57 53 62 dd bf b2 00 e6 33 54 d0 e1 bf
       -0.4591263154102947 -0.5566807759896817
0001c0 63 ca 5e 46 78 06 b6 bf 5a dc 1b cc b8 9e e8 3f
       -0.08603622167610463 0.7693752275944334
0001d0 79 53 10 4f e9 40 eb 3f 88 71 d6 97 66 0f ec 3f
       0.8516737503256159 0.8768799748973359
0001e0 fc cf a1 8b 75 de dd 3f ef e5 29 b2 7b 37 bd 3f
       0.466702829703763 0.11412785625170561
0001f0 a1 b1 06 d8 23 84 d4 bf 5c ea 1f 9d da 53 c9 3f
       -0.3205651864652968 0.19787151977637307
000200 fa ad 30 af 69 a7 c1 3f be 1d 99 e4 8e 7d e3 bf
       0.13792153410155078 -0.6090769257361257
000210 16 7f 25 75 a5 03 cb 3f a8 ef 05 e8 64 81 e0 3f
       0.2110487768177271 0.5157951862051862
000220 2b b3 c2 02 99 31 e2 3f c9 98 da 01 97 e1 d8 3f
       0.5685544065396234 0.3887689130882675
000230 a6 3f 75 7a 01 4a e2 3f 63 c4 e2 bb ab 2d f5 3f
       0.5715339080579624 1.3236501063622874
000240 52 19 5c db 8a d5 c1 3f 60 f8 c7 fb 1f da b1 bf
       0.13932929716993186 -0.06973457238197645
000250 dd 6b f2 7d d7 e0 d7 3f e3 38 90 d7 45 93 d6 3f
       0.37309825229175236 0.3527388196097389
000260 ba 8a 7a 98 51 1d e4 3f ab aa 59 b5 3a 6b f3 3f
       0.6285789468859868 1.2136790355677174
000270 b0 03 51 ee 2b eb d0 3f 82 5d b1 4f 6a 51 f1 3f
       0.2643537356671528 1.082376776981477
000280 38 1a 40 15 75 ca cc bf f6 08 81 23 b6 43 e2 bf
       -0.2249285081636161 -0.5707655614317264
000290 10 7b 09 50 8f 2a cd 3f 23 d4 4c aa 2d d9 ea bf
       0.22786132247980406 -0.8390110326932966
0002a0 62 30 1a 2b 71 3e ef 3f d6 67 6b ab 6f eb e0 3f
       0.9763723222581684 0.5287397716558597
0002b0 a2 44 a4 f6 c2 2e bd bf 3c 4d 93 c9 10 7c e4 3f
       -0.11399477502370073 0.6401447236079671
0002c0 88 0a 48 f0 c0 cc e4 3f 75 fe 56 88 02 56 e4 bf
       0.6499943440433791 -0.6354992545020212
0002d0 99 e5 41 8c 99 42 e1 bf 2c 27 e5 a7 f7 0e df bf
       -0.5393798579599888 -0.48528853794106186
0002e0 d7 88 78 72 65 4f e7 bf 8a f4 93 fd ad 6f b0 bf
       -0.7284419284590297 -0.06420409623020099
0002f0 8d 0f 92 e8 fc 11 ce 3f 4c fc 02 8c 4f 0b ee 3f
       0.2349239478681934 0.9388807043650416
000300 12 1d 24 63 f0 42 e6 bf 8e e0 01 eb 36 d9 b9 bf
       -0.6956712662075992 -0.1009706805942889
000310 02 8d c0 e4 17 06 e5 3f a9 48 e6 87 72 2b e0 3f
       0.6569938152137242 0.5053036360061657
000320 2f ce c7 83 8e cb e7 3f 98 df d1 63 c2 d4 cd bf
       0.743598229774255 -0.2330553996468978
000330 a9 87 1a 0b 84 0a c5 bf 4d c2 21 63 24 55 c8 3f
       -0.1643834165780025 0.1900983318369235
000340 8b 5d 42 c8 6d bb e3 3f aa a2 49 1f a4 d6 be bf
       0.6166294966996458 -0.12046266330583913
000350 98 17 50 8d 88 17 fd bf 29 7f cd b5 6a c9 f4 bf
       -1.8182454605134577 -1.299174032370454
000360 c6 f0 15 bf bd f9 b3 3f 66 da f0 f6 74 0e b1 bf
       0.07802949824503277 -0.06662684468106192
000370 c9 43 3b 9a ce 5d d0 bf e0 a1 f7 bf 1f 1c e0 bf
       -0.25572552739782545 -0.5034331082688901
000380 de c3 d0 e8 10 2d bb 3f e2 4c 14 e0 95 45 e6 bf
       0.10615640338870899 -0.69599431767929
000390 6b 95 5c 50 bf 34 f0 bf 3b 60 95 b4 29 ec f3 bf
       -1.012877763664927 -1.2451569608729318
0003a0 f1 58 80 07 38 ec c5 3f a0 80 a2 8b ea 02 af 3f
       0.17127132765080647 0.06056912378812851
0003b0 90 0c f8 2a 96 5a e7 3f 2e 81 90 d5 7c 9c bc 3f
       0.7298079337346213 0.11176281179405542
0003c0 9c d2 60 c1 36 7b d5 bf da 1a 6e 52 08 90 d3 bf
       -0.3356453789195173 -0.3056660466176432
0003d0 7b a8 d7 57 96 f7 c0 3f 25 f7 72 e0 3f 8a cd 3f
       0.13255576409511946 0.23078154048374092
0003e0 12 9f 0f 0f 1e 83 bf 3f 77 ac f6 57 2f 9b b5 bf
       0.12309444301319797 -0.08439918420360636
0003f0 3c c3 19 52 90 de bf 3f 24 29 fb b7 c5 01 be 3f
       0.12448980335626642 0.11721454374052037
000400 a2 14 1f cb d8 1a d8 3f 60 5b 09 63 73 95 e2 3f
       0.37663860164713914 0.5807434973056438
000410 c9 97 f6 0e a4 9a d6 bf fb 99 13 2a 1e 16 c8 3f
       -0.3531885286450885 0.18817498259086549
000420 bc 07 11 c7 7e 9f e0 bf 68 d6 67 b4 04 85 c0 3f
       -0.5194696319597294 0.12905939873569428
000430 52 e9 32 02 2f 36 d5 3f ca d6 d1 c7 52 53 df 3f
       0.33143210615857754 0.4894606543888186
000440 8c 4f 50 90 c5 09 c5 bf 98 5e e4 8e 78 85 c1 bf
       -0.16436070963447624 -0.1368857095446756
000450 b4 2a 48 f2 51 94 99 bf b0 ac 2c 6f 35 15 ce 3f
       -0.024979858792031975 0.23502223900263663
000460 2c e3 38 99 70 3c d2 3f b0 64 8f f5 53 a6 f3 3f
       0.2849389549551684 1.2281074135010321
000470 1a bf 74 d1 10 d4 b4 3f 9d e6 3e 4a c5 f8 e2 bf
       0.08136086572335124 -0.5928675127135709
000480 79 c1 40 5c d2 08 f1 3f 90 ab 47 68 72 d2 d1 3f
       1.064653740275473 0.2784696596487999
000490 56 d0 29 e1 90 8f e1 3f 50 18 a4 8a b3 42 b9 bf
       0.5487751386376754 -0.09867403158941213
0004a0 3f 45 16 77 d3 3f e0 bf c9 73 88 bb e4 e3 d0 3f
       -0.5077912641446928 0.26390951455851713
0004b0 94 fc 82 f8 f2 db d4 bf 6c e8 38 13 5d bc cf bf
       -0.3259246279594177 -0.24793590010250754
0004c0 ed 05 26 10 ed 4d d8 bf f0 65 bd 44 80 f0 f1 3f
       -0.37975622727398567 1.1212160763883467
0004d0 d4 df dd 05 8f 94 d3 bf e8 ec 38 5e 37 73 d9 bf
       -0.3059423024455985 -0.39765724374201605
0004e0 fe 79 57 66 33 fc cc 3f b1 52 41 81 83 29 c6 bf
       0.22644655701783728 -0.17314189730918408
0004f0 a9 20 68 d4 cc b4 c4 3f 7b d6 40 11 de a8 c1 bf
       0.16176758166716823 -0.13796592562146145
000500 bc a3 6f 68 ba 47 eb 3f 1a 5f d4 b4 cb 79 c5 3f
       0.8525058784263062 0.16777941064423701
000510 f9 42 28 fd 45 c1 b1 3f 6b 5f c4 df d9 11 e4 bf
       0.06935536795232257 -0.627179085774498
000520 1c 82 51 11 d1 b8 e9 3f c0 3d a3 ae 03 c1 ed bf
       0.8038106287240825 -0.9298113261119667
000530 41 f6 cb 4a 93 98 a3 bf ad 56 fa 4f cf b8 dd bf
       -0.03827343261762595 -0.46440489588108386
000540 34 d3 f1 26 47 f2 d1 bf 31 ae de 84 ab 4b c6 bf
       -0.2804124718016283 -0.17418426502023146
000550 6c 24 56 95 99 fb e6 3f 29 15 a5 a6 e7 2d d7 3f
       0.7182128826835998 0.36217681192313705
000560 0e b6 87 c7 d0 03 e7 3f a2 b7 2d 9d ee 1e d1 3f
       0.7192157647202195 0.267512944693289
000570 da e4 fd 80 25 99 e5 bf cc 46 d4 4e 81 9d c8 3f
       -0.6749446410532542 0.19230667447168626
000580 da 62 45 be 84 17 cd 3f f6 09 95 15 6c 19 ed bf
       0.22728022852495294 -0.9093532964255349
000590 d9 72 b6 c7 35 13 d4 3f 4a 14 f2 e0 9b 25 f1 bf
       0.31367249015037896 -1.0716818606317866
0005a0 96 7d c7 2c 23 42 da 3f 00 8b 13 90 d0 14 64 bf
       0.4102867066667043 -0.0024513314716484436
0005b0 99 de 2c 29 29 48 e1 3f db a4 4a b1 8b 6d c9 bf
       0.5400586895184062 -0.198655568664697
0005c0 76 77 90 f8 22 35 d7 bf b8 2a a8 5c 27 b9 b6 3f
       -0.36261820100650455 0.08876272213107483
0005d0 e8 63 80 76 5c de f1 3f 3e d9 f9 14 15 c4 c0 bf
       1.1167873982396888 -0.13098395847527827
0005e0 68 5f 45 88 81 47 f2 3f 5a 8d ac 58 75 b9 b4 3f
       1.1424575160108024 0.08095487036603313
0005f0 00 20 07 97 9d dc 0f bf fc e9 1d 17 f4 29 d4 3f
       -6.077152181976908e-05 0.3150606370687965
000600 1d 50 20 f2 8e 29 f0 bf bb f5 2c 08 86 77 c1 bf
       -1.0101460893683971 -0.13646006964874666
000610 01 85 5a 3f 1d cc e4 bf 7b d6 66 9d 49 1b d3 bf
       -0.6499162900328487 -0.2985405003667904
000620 3f 9e 56 82 b4 cb e2 bf 43 2a ac fc 1c a8 e1 3f
       -0.5873663469000759 0.5517716345796732
000630 a4 02 8b e2 2d 33 cc 3f 05 e2 6c eb a1 4e d5 3f
       0.220311866394714 0.33292434683565403
000640 5b 46 01 ad 6e 4d f8 3f 7e cf 40 00 9c 61 da 3f
       1.5189043767935775 0.41220760369036913
000650 de a1 e9 9a fa 38 c1 3f 9a 1e e3 4d cc 3e e4 bf
       0.1345513588342006 -0.632665779231462
000660 68 34 d8 1e f8 87 ea bf be fe c8 5d 9d d9 cb bf
       -0.8290978052551852 -0.21757857398369213
000670 87 49 22 59 35 79 f0 3f 11 1b f7 d3 b1 af e0 3f
       1.0295918924135508 0.5214470996805592
000680 70 39 9b 9b f3 5f f1 3f 38 0a 0b 67 76 ef f1 3f
       1.0859256819126948 1.1209625268098886
000690 46 fb 7c 2d d2 20 ea 3f e5 a4 09 d6 4c e1 e2 3f
       0.8165064705316147 0.5900024586127556
0006a0 88 75 e9 f2 e7 74 b1 bf eb 0b 94 22 b5 1f d5 3f
       -0.0681900947615387 0.33006027581012515
0006b0 20 41 a3 c2 10 54 cf 3f 00 15 e1 00 1a ac f1 3f
       0.24475297454638056 1.1045169863076012
0006c0 24 1c a8 ea 7b e9 de 3f 50 9a 2f 90 75 60 dd bf
       0.4830007354325423 -0.45901240425738354
0006d0 57 c9 76 8d c9 36 f5 bf 6e e0 e4 fc 05 16 de bf
       -1.3258758092821006 -0.4700942010563328
0006e0 61 80 66 2e 8b 94 ee bf f6 11 bf 73 7a ab e0 3f
       -0.9556327730424635 0.5209324131652113
0006f0 bf 55 ea 60 98 70 e1 bf f8 cb ee 5d 8f 0c c3 3f
       -0.5449945347669923 0.14882080160677424
000700 a8 9c 87 24 40 9b db bf e0 d1 a5 f7 59 71 b3 bf
       -0.43135074202877854 -0.07594835563742874
