examples/es/rl/logs/0/1478610112/trained_param.npy (npy, 1424 bytes, 1 tensors)

array f8 [162]
0	0xbfe577512198a9a6	-0.6708150535753716
1	0xc003b3cfa119a4d0	-2.462798365206801
2	0xbfe52f6e4965e1d0	-0.6620398934892879
3	0xc00512c929782ae2	-2.6341727485463347
4	0x3feefbd435ba166e	0.9682408379891976
5	0x400831d15fbf926b	3.024325130494892
6	0xbfe0f529bdac3033	-0.5299271301787541
7	0xc000a86cedcaa6b8	-2.0822390153378727
8	0xbffaff78871d9b22	-1.6873708036379829
9	0xc0034528737da827	-2.4087685606691767
10	0x400f07483777fd0e	3.87855571112562
11	0xc014a133f0dbee97	-5.15742470114096
12	0x3fe4d5fac222e33e	0.6511205474590509
13	0x3fca95e948e9e7c8	0.20769992885817445
14	0x401944bf13fb8ace	6.3171351549414805
15	0x3fdf4375b8c82ece	0.4884924225341195
16	0x4005842bda045805	2.689536765344203
17	0xbff956177d432a96	-1.5835184948979637
18	0x3fb71eab209975aa	0.0903117136562829
19	0x3ff59fd7354696da	1.3515235978206221
20	0x3ffe1ef5dc3651dd	1.882558689311842
21	0xbfedc435aa22a8a1	-0.9302013705212354
22	0x4000ba5a4a8b0d2f	2.0909925292668485
23	0xbfea0c9916392a8d	-0.8140378412293373
24	0xbfd54773c964fe79	-0.33248610179359833
25	0x400868af7cd5776f	3.05111596609543
26	0x3ff81bc8fed7c90c	1.506783481102107
27	0x3ff5f4fa2168eb84	1.372308855540468
28	0x3fe9769a5fc935aa	0.7957279082126452
29	0xbff206bfa861849f	-1.1266476228122781
30	0x3ff7c4fa1900d4f1	1.4855900742234633
31	0x401f382a13a89d87	7.8048480102219235
32	0xc007c44f58897ff0	-2.9708544651948543
33	0xc000c44e6201f941	-2.0958526284076986
34	0x401247ff935a1e7a	4.570310881019049
35	0x3ff7fc71b9409b43	1.4991318928166073
36	0x40094b76c02bc983	3.1618475926745204
37	0xc012b008ae7f09e1	-4.671908117774792
38	0x40014a2093ef97ef	2.161194949864686
39	0x3ffdf7633863d41a	1.8728973582012771
40	0x3ff38f19124a1743	1.2224360193662995
41	0xc02049fc6800f35a	-8.144503831974067
42	0xbfef4c0462479b2e	-0.9780294341588609
43	0x3ff754a67260c861	1.4581665485279915
44	0x3ffe69f82fd3e5f7	1.9008714550276389
45	0x3ff965f9294927f8	1.5873958218312492
46	0xbfefa66f00de0fc1	-0.9890666024152709
47	0x3fe0ef9d4917dca2	0.5292498042680516
48	0x3fe414b30c111d19	0.6275267825775784
49	0x3fe2f5353b455c47	0.5924326093326123
50	0x3ff7e93eaf4d0168	1.4944445464789968
51	0xbfe518e5afd37a4c	-0.6592892107108326
52	0xc001ed34c7ac54f4	-2.240823326059962
53	0xc00d3a5942008a32	-3.6534905582823507
54	0x3fe261425f293e6d	0.5743724688163191
55	0x400a32f0132a8045	3.27487196896985
56	0xc00cdcab158aca86	-3.6077481921177563
57	0xbfebc0ab8b9f8ea8	-0.8672692992226603
58	0xc014d69a482c5f75	-5.209572913845354
59	0xc0071bcb9c8a973a	-2.888571951846555
60	0x4007ef701a6afbbe	2.9919130386255963
61	0x40204a2b6986cafd	8.144862458900656
62	0xc002b63c458d5916	-2.338982146621798
63	0xbffaae10bf8d60f0	-1.6674964411268398
64	0xbffcb86c42b28cde	-1.7950251202935799
65	0xc0147a1ab6ea6e32	-5.119242532785892
66	0x40182be1a029fe92	6.042852881014953
67	0xbff9dd82b7037beb	-1.616579737564957
68	0x3ff69817aa6da97c	1.412131944404421
69	0x400cc2b48e8c8aeb	3.5950709473266804
70	0xc01cc0b1ff04bc8b	-7.18817900148782
71	0xc01a3b96d8a090d3	-6.558192620086817
72	0xc005ee4f5992c003	-2.7413622854146538
73	0x4007d96d2f1a3d71	2.9811652831919493
74	0xbffedf4a357da60d	-1.9295141305432282
75	0x4008cc2bd73c2839	3.099692994616842
76	0x401799d5edbaf66f	5.9002301354754385
77	0x40087b25a1ffb7f7	3.0601303726352813
78	0x40094492e5f6b83a	3.1584833112638337
79	0x3fb47e89cf2607ef	0.08005582148874145
80	0x400bda79525ef892	3.4816767153961985
81	0xc0142c62684c2aab	-5.043344144486279
82	0xc0006b1f2ec33725	-2.052305569965841
83	0x3ff06450145d29ba	1.0244904323068185
84	0xc0142466098664ee	-5.03554549105432
85	0xbfe51de05972b0fe	-0.6598970171958454
86	0xbfc91075278a097c	-0.19581474714875557
87	0x40004099ef1057d5	2.0315436055052296
88	0x3faafccd81747f08	0.05270998196851734
89	0x3ff0bd44eba1970e	1.0462083057731806
90	0xc01a8a01529eb344	-6.634770670830054
91	0x400b6eff38b33866	3.429197733849878
92	0xc01020c6c21d58dd	-4.032008202592093
93	0x4010f7dfbe5b78e4	4.242064451535246
94	0x3fcf6c129c30e02e	0.24548561693677712
95	0x3ff26b72b50d99ef	1.1512324402225393
96	0xc01105002e41d337	-4.254883501784938
97	0x3fe32fca58708ae1	0.5995837905250846
98	0x3ffff41082603334	1.9970860569766957
99	0xbff439367fb635e0	-1.2639679898014649
100	0x3fc28549132a5668	0.14469254909333817
101	0xbff9f8da6b5e0eaa	-1.623255175975752
102	0x3feea60af776a58e	0.9577689011832022
103	0xbff0301ee435c315	-1.0117482103780209
104	0x4003e49181d7f93e	2.486605657962314
105	0x400e3e5015694084	3.7804261849160543
106	0xc011f7185330f9b0	-4.491303729881494
107	0xc0218c494f7ae3e2	-8.773996814490548
108	0xc01116d1e78bc8b1	-4.272285097033248
109	0x3feb79b120cfb02a	0.8586049691052768
110	0x3fc90cb0c7f11f1d	0.19569978487765463
111	0x3fd4ccfff17320d6	0.32501219348024557
112	0x3ffd55d679eba8fa	1.8334564936181423
113	0x4001e4a40c2e0ab7	2.2366410209227428
114	0xbff8b95205001bf0	-1.5452442355469849
115	0xc015c8d0e80d24d2	-5.4461094148657185
116	0xc0119be05772aa3f	-4.402222982762907
117	0x4017fa5d71afce03	5.9944970859101
118	0x40067305bcf62621	2.8061632883661933
119	0xc013aa0526c50a04	-4.91603527619964
120	0x4020ce8b0d6d5d2c	8.403404636001675
121	0xbfe934e913730b82	-0.7877087955351814
122	0xbfe1addc54ff9132	-0.5524732265589931
123	0xbfd351d99391842c	-0.3018707219217187
124	0x3fff4e061012d7df	1.9565487506747485
125	0x3feb4053c9c0a2b6	0.8516024532774142
126	0x3ff4e3a98d6fff01	1.3055816197301626
127	0x3fe1a35b562286c4	0.5511910135575921
128	0xc003e328885b4669	-2.485917153630727
129	0xc010d733bc689d44	-4.210158294568206
130	0xbfe4d83c9553fcea	-0.6513960758747122
131	0xc001f5c25a47dc25	-2.244999604528419
132	0x3ff37144ca19f186	1.2151534933646828
133	0xbfe2467551bea874	-0.5711008640839865
134	0xbfeff67e05e315ee	-0.998839389322425
135	0x3fd0b36f9ca217ce	0.26095190330704277
136	0x3fe68e96e26d4f3b	0.7049059317018654
137	0x3ff183e1e135d6de	1.0946978375699739
138	0xc00d93198c515dea	-3.696826072915191
139	0x40240251e285cab5	10.00453098185731
140	0xc00a154cfd9ec422	-3.2604007543636877
141	0xbfe37bc24649869a	-0.6088572857663224
142	0x3fdd81397ecd7fc1	0.46101224310950434
143	0x3fe249dfbcd94ffe	0.5715178192572237
144	0xbff6362e43b1ba8a	-1.3882277149492972
145	0x3ff5c804e9f5c6ba	1.3613328112664207
146	0xbfd88060bca31fe5	-0.38283556386568157
147	0x3ff9dc19769d2481	1.616235221228891
148	0x3ff571fe22ef6a58	1.34033025404519
149	0xc01af76e76b7ed40	-6.741632323242186
150	0x400ac3efbd3c7dcd	3.3456721099935067
151	0x400ef8cbc8d515d4	3.871482438090178
152	0x4024f6d40016f272	10.482086184312013
153	0x4004425013d0d176	2.532379298029066
154	0xc0062ab63d8e2855	-2.7708554085739174
155	0xc00737c37b0e7871	-2.902228318575958
156	0x3ff8d105465caab0	1.5510304211153816
157	0x3fe719f6ab3c47f3	0.7219193787043409
158	0xc0140e1d89967cae	-5.013784551439285
159	0xbfdcecf6c8fef29a	-0.4519631350374681
160	0x3fd5fcdc2cc845da	0.34355835316918404
161	0x400868759f14d6f6	3.051005595038869
