examples/es/rl/logs/0/1478610112/trained_param.npy (npy, 1424 bytes, 1 tensors)

array f8 [162]
0	0xc00c86994378b893	-3.5657220145431636
1	0x40068d092cf9391f	2.8188651574665893
2	0x401f34c44efd36a1	7.801530107693595
3	0x400a6ce1b9c536da	3.3031649125394837
4	0x3ff8202497f978b7	1.5078473984245144
5	0x3ff000a45e2d568b	1.0001567534249343
6	0xc021932cda84381c	-8.787451580657994
7	0xbff038db49d8cacc	-1.0138810047762261
8	0xbff877292a5759dc	-1.5290919927552897
9	0x400cf276dacd1c2e	3.618390759834731
10	0x401dec158af306a1	7.480550929148792
11	0x3ffb0d98c901aa4b	1.6908195354286757
12	0x400c26ec9e668acb	3.5190060019534477
13	0xc009ef037e4abab6	-3.2417058817439637
14	0xbfb477a3dd935423	-0.07995056304510277
15	0xc0224a5ae3b84e0a	-9.145224682090902
16	0xc01f1a7b5acc43d8	-7.775861185757968
17	0xc0072126567ceb30	-2.891186404883591
18	0xc002d9fa3d0b5c57	-2.3564343232242595
19	0x400e9f2895828c91	3.8277141266313
20	0xc00cd2b9ef221bf4	-3.602893703678541
21	0xc017b859d2f4cfdf	-5.930030151550425
22	0x40017ce64e427fd8	2.1859861482662204
23	0xc02164f42005f2a3	-8.697175026632356
24	0xc0088d845ef4dd50	-3.0691001337506023
25	0x3fd62c9965358dae	0.34647211917600884
26	0x400f50696dedc0cf	3.914263590639258
27	0xc0003ca4eeff7586	-2.029611460848801
28	0x3fffc8650bb0ef19	1.9864244896588785
29	0x401076e0b39fbe7d	4.116091543793684
30	0x40140ac4c7e45092	5.010516284284806
31	0xc0135a1e4bac59e7	-4.838006193537217
32	0xbfe83c50ba9b133f	-0.7573627133029744
33	0xc0010a5430dfa9c2	-2.1300433939224783
34	0xc01f9b68a81ac4b8	-7.901766420968833
35	0xbff804c324d2343c	-1.5011626661610213
36	0x401dcaca02d2fd7b	7.448036235931222
37	0xc00a0cb35cc091c7	-3.2562014814631968
38	0xc005cb6a5d124550	-2.7243239661408225
39	0x40119f95436854b0	4.405842831843231
40	0xc01ba50c85171124	-6.9111805720643
41	0xbffbc77e67ef669c	-1.7362045345275083
42	0xc01bda500ea44412	-6.9631960189590405
43	0x3f923a9c13b61b60	0.01780170316990437
44	0xc01c7b097a0b0238	-7.120153338357845
45	0xc002e40757808b7c	-2.3613421283820895
46	0xc0082d5233de8ff9	-3.0221294452949192
47	0xc006d171530e90e8	-2.852266930467625
48	0x4006d99364f550e4	2.856238163696718
49	0xc0074d7ce29d0ca8	-2.912835855882424
50	0x400ae78f126ebd6f	3.3630658569379004
51	0xbffc3b8b2a18a8e5	-1.7645370144260195
52	0xc00545c10576899b	-2.6590595652389317
53	0x3fffbe938df498da	1.9840274376997997
54	0x40171ba7741de164	5.777005972217328
55	0xc01399cc7069abfe	-4.900193935823152
56	0xc00c8ebed72f74fc	-3.5696999369962423
57	0x4011ade741255f8d	4.419827478319246
58	0x40055b60813c6dd5	2.6696176621023633
59	0xc0111b4ff04e595f	-4.276672129423189
60	0x4008d72347ad4d51	3.1050477599871233
61	0x3feca13d3d8f2db5	0.8946825220422655
62	0x401032b81832dc94	4.04953038988528
63	0x40144e1031cf801f	5.076233652391266
64	0x3fb4adbb2074fc54	0.08077592413336393
65	0x3feb1c5212d434c6	0.8472071044685883
66	0x40012e06a8ffb5b7	2.1474736407314725
67	0x401b6935648e5532	6.8527427398560565
68	0x3fcb3fd51e5e707a	0.21288551314217213
69	0xbfec7afd518b1e65	-0.8900133698125045
70	0xc01167b6fe625246	-4.351284003020345
71	0xbfb7fc01f82b44c4	-0.09368908222974698
72	0x3ff08a18bf220356	1.0337150064589955
73	0x3fa4b3ed94b0a244	0.04043524208129104
74	0xc016a775c180b663	-5.663535140496239
75	0xc0032d4727bf1e2c	-2.3971083741378347
76	0x40150520e89dac1f	5.2550083490596355
77	0xbfd0dce5015b6603	-0.2634823334934426
78	0x401676b29dd077df	5.615915742730038
79	0xc0018122e77562ed	-2.1880548556040282
80	0xc000056f1b330815	-2.0026533245991325
81	0x3ffa401a025cbc46	1.6406498043322855
82	0x3ff1c487d8144032	1.1104811134901067
83	0xc011ad8264850317	-4.419442721002972
84	0x40056b9b8a834fce	2.677542764789883
85	0x400c6b7d2c53233c	3.5524848425742714
86	0xc0160d5b541c9fad	-5.513043703314833
87	0xc01077d1dd3a3521	-4.117011505773264
88	0xc017c34a970a120c	-5.9407142257591765
89	0xbfedc1cf8974fb8f	-0.9299085316377943
90	0x401032b15c217c2f	4.049504699271934
91	0xbfcd5c9622794ad0	-0.22938801463404568
92	0xc004c646b9d9fa78	-2.5968145866057135
93	0x401f9ab4af1adbef	7.901079879774428
94	0x3ff19c871e71eed9	1.1007147969493671
95	0xc00135002b1982dd	-2.150879227367439
96	0xc0108d9cf2afaaa4	-4.138294021579586
97	0xbfe7ea6542d00d96	-0.7473627381263437
98	0x40233292d39b9453	9.598776448003411
99	0x40044adb4dc9d79d	2.536551101419674
100	0xbffdb8cc2540a96d	-1.8576165633372412
101	0x4022e4f9a587a8af	9.447217152414252
102	0x402234c93912fef5	9.103097709244574
103	0x4018dac02e134ddf	6.213623733452066
104	0x40007fc4c2db6ea4	2.0623870108809843
105	0x3fd6eed22c327eee	0.35832647625100733
106	0x4010526a8f6e9f90	4.08048462021533
107	0x400070faf0ba39c5	2.0551661307174265
108	0xc02623a4c7772de6	-11.069616540239576
109	0x3fde6c30a10d0bad	0.47535339095719104
110	0xc0066380f551b618	-2.798585812145358
111	0xbfc2375a5ed1e272	-0.14231423978687335
112	0xc0053dd09842a686	-2.65518301919366
113	0xc012f8fc7f64b24b	-4.743150702019714
114	0xc0133bb37cdd534d	-4.808301878937368
115	0x3ff675772d195d9d	1.403678108375835
116	0xbff103dadd922191	-1.0634411482916202
117	0x400cc51bbe5b6ce1	3.596244322934226
118	0x400c6fdaf4b832f1	3.554616844054515
119	0xbfd338dcfa628729	-0.30034565402648866
120	0xc000c6a4a1031956	-2.096993692309449
121	0x4009ec6281bbfd17	3.240422261762102
122	0xc0235a95f577102c	-9.676925345214919
123	0xbfc1de6bc7cb18d7	-0.13960025077375945
124	0xbff19a4dac87791a	-1.100171731893687
125	0xc0093485d2bcf4f9	-3.1506458724894597
126	0x3fef67800dd059a7	0.9813843030740842
127	0x3ff69d114210c2fa	1.4133465367014524
128	0xc0228b766b538511	-9.272387842126166
129	0x4017190fb5944868	5.7744739887003576
130	0x4006eb4efe8219ba	2.8648967631772537
131	0x40188c8dac06f9e6	6.137259185720245
132	0x400284ba9bdd6ec1	2.3148090531302334
133	0xbf950a6eeef45460	-0.020547612509364988
134	0x4022f68e10c6e3f7	9.481552624014496
135	0xc010a26da1998f4e	-4.158621335027261
136	0xc0084871c59653e6	-3.035373252534998
137	0x3fe4c022f93fed44	0.6484541767271499
138	0x401035de3f1ac645	4.052605615624604
139	0xc01819282e05b7fe	-6.024567336176913
140	0x4004b24a62a25df4	2.5870559411812284
141	0x401d21ecc2c26933	7.283129733196165
142	0xc015ca10025d2ba1	-5.447326695381805
143	0xc009c0253e53caa1	-3.2188210362740652
144	0x40047b6fc8c5f4f6	2.560271805325665
145	0x3fe389ffc84bedf9	0.610595599369332
146	0xc0071c8afd65a2ec	-2.888936977066228
147	0xc00678d17446c23e	-2.808993252190958
148	0x401e1b65dd4259a5	7.52675576894254
149	0x3ffbf1163e505f44	1.7463591035975279
150	0xbfc896e3aa2e597c	-0.1921047764742062
151	0x40246050d563623a	10.188116711026954
152	0xc0093bdd4ce72df8	-3.154230690770188
153	0xbff28548a673a545	-1.1575399877568355
154	0xbffd6c02583f924f	-1.8388694235992664
155	0x4004e2a6abce7856	2.6106694624313986
156	0x4008434e8b663390	3.032864655548515
157	0x4001f4f3b7e5c1bd	2.2446054808608253
158	0xc012eba3ccdb33e4	-4.730117035750457
159	0xc009fee0ae94544d	-3.2494519843117247
160	0x3fd499d46334b3a4	0.32188901603768216
161	0xc0120a89b1c2d37f	-4.510290887371297
