examples/es/rl/logs/0/1478610112/trained_param.npy (npy, 1680 bytes, 1 tensors)

array f8 [194]
0	0x3fec78b21c83c1ee	0.8897333676268866
1	0x400696f6827a1339	2.823712367392002
2	0xc0074b00f28c4f65	-2.911622900874067
3	0xc00b44403de39d25	-3.408325656422351
4	0xc00219defecec172	-2.2626323611113373
5	0x3fc9e8682771e455	0.20240499425907169
6	0xbffcca3081634130	-1.799362664623981
7	0xc01c15e574eec0e7	-7.021383120605811
8	0xbffae73d4b0a98c6	-1.6814549380592765
9	0xbfe6c363a4585f51	-0.7113512239329599
10	0x3fef085ba1440cb2	0.9697702550623915
11	0xc007afffab771a45	-2.9609368701669916
12	0x3ff0fa555e174563	1.0611165690828208
13	0x400cfca398f5d2da	3.6233589124698087
14	0xc0116b83fd4e9503	-4.354995687409658
15	0x3ffb55e90a159d8a	1.708474196808171
16	0xc0089ff6e5b9270a	-3.0781076380852754
17	0xbfea4e85062a37ad	-0.8220849152000845
18	0xc0110c72a53ae2c8	-4.262156087607487
19	0x3fdefbb1ace62288	0.48411218533195965
20	0xbfe6461077e91e49	-0.6960527746204629
21	0x4001ec86b3c6b0cc	2.2404912991533816
22	0x3fc6eb21893a7c0a	0.17905062866790927
23	0x40109bb1415fa20c	4.152043363058066
24	0x40105c0308e121a9	4.089855326405464
25	0x400c4bd3b93558dc	3.537024924221539
26	0xc000dc85ef100d15	-2.1076773335240753
27	0x400e509411ec813a	3.7893449211407217
28	0x3ff183fa76f02dcb	1.0947212835334195
29	0x4013bd463f7107b9	4.934838286660971
30	0xc001d525490ce523	-2.2290750224170934
31	0x3fd49feebc02c263	0.32226150856425856
32	0x3ffcb2e682b4cc3f	1.793676863261467
33	0xbff39c7f9febeb8d	-1.2257076498924306
34	0xbf903659e5a796d6	-0.015832333223349725
35	0xbffb754a670284d2	-1.7161354087659686
36	0xc010bcd7215ddc1e	-4.18441440711379
37	0xc00356e8251994de	-2.4174349687988146
38	0xc008a69e743ffa3d	-3.0813569147133237
39	0xc0029660f0a699b8	-2.323427085956805
40	0x4003f69c65ba3836	2.495415491815062
41	0x40094acd8b0469cf	3.161524854728874
42	0x3fff4c96a8f0dd5c	1.9561983680012736
43	0x3fe5aae132cc9ebf	0.6771093361066604
44	0xbff2a4ade77ff034	-1.1652049105605444
45	0x3fd1c10abcc1bd45	0.27740734513550463
46	0x3fc2953b1f5f1082	0.1451791670971297
47	0x4003bfe70d8d8897	2.468702417260896
48	0x3ffe38385632c2d7	1.8887256018753555
49	0x3fdaace095d18c8b	0.4168015921661172
50	0xc0022f426a277b89	-2.2730758946704026
51	0xbfe26ed9055e8016	-0.5760312180391363
52	0x40058f58d7c12dcd	2.694993672926762
53	0x3ff539208d181d45	1.3264470588199668
54	0xc011b7369783753f	-4.428919188879546
55	0xc01f87e3c75fb922	-7.882704844682197
56	0x4006cf60ccba7711	2.8512588495640405
57	0xbff7dcc39227e7db	-1.491397448464787
58	0xc00c000eead7d185	-3.500028452597862
59	0x3ff2dc23c53a6631	1.178745050833083
60	0x3ff192864b20d4f7	1.0982726034829378
61	0xbfd17d621645e850	-0.2732777802954205
62	0xc00b415c6dc63dbc	-3.4069145752070806
63	0xbfee58975014a705	-0.9483143390727667
64	0x3ff92ecb2cc287a8	1.5739242313797863
65	0xbff59b3bf88545bb	-1.3503989894710304
66	0x4020a5b39b992621	8.323635923809947
67	0x3fe5fb041560738a	0.6868915956034567
68	0x40077eaf5c552db0	2.9368579114431768
69	0xc007e8026003c35c	-2.988285780062524
70	0x3ffebbf63ecf07be	1.920889134737521
71	0xc00c9bd102d227a2	-3.576082250631729
72	0x401067e56230d06f	4.101460966328985
73	0x3fda428c215b9369	0.4103117299803701
74	0x3fb6fb57a09d004e	0.0897726790544777
75	0x400aaa279bdc727b	3.33308336035253
76	0x4000e2025024d70c	2.1103559743158993
77	0x401265e466f31950	4.599504097545221
78	0xbff5cd104ec5ed1c	-1.3625643803669112
79	0x3fe04037c01ee089	0.5078390838962302
80	0x3ffa2efa5890aed1	1.6364692172600608
81	0xc00ef1bf2cb7057c	-3.868040417991038
82	0xc00efd8102fbac26	-3.8737812264494265
83	0x3fe0b0147d9e3325	0.5214941457248626
84	0xbffc38cdafab6dcc	-1.7638680326552842
85	0xbffe401a9367349d	-1.8906503446517384
86	0xbfb05fa182a00a36	-0.06395921172228544
87	0x3fff5755ecf2f02b	1.9588221793956204
88	0x400120934a1999ce	2.140905932337069
89	0xbff4e31464ad6246	-1.3054393704134255
90	0x3feb2ed66b171bd7	0.8494674769980247
91	0x3ff3bc1f555b1e24	1.2334283193794215
92	0xc0038c169e39d42a	-2.443402515544695
93	0x402120e59cc0928f	8.564251802928338
94	0x4012ce8bbbde4ebd	4.701704917377069
95	0x40084a711da52f15	3.0363485637698298
96	0x3fd0f9c17e8aa0e4	0.26524388654298847
97	0x4017b5e92da9dc06	5.927647317402267
98	0x400d19162fba7869	3.6372493485242114
99	0xbfec4072c066b665	-0.8828672178112354
100	0xbff477a3dcf9c1ad	-1.279209006486876
101	0x3fe89fa375a41554	0.7694871232676328
102	0xbfdbb7094a8ec9e5	-0.4330466487982945
103	0x3fd5a43a892ab196	0.33814872164909937
104	0xbfc3157b72f19d60	-0.14909308540812116
105	0xbfef54fa33fbead1	-0.9791232123673926
106	0x400f44b662200f7d	3.9085509935411538
107	0x3fd628af95003d24	0.34623326826927525
108	0xc00bbd142a4907de	-3.4673236182725153
109	0xbffcb32b067cce60	-1.7937422040385158
110	0xbff00a09490a71e4	-1.0024502614170325
111	0x3ffda6c809253b77	1.853218112682695
112	0xc0061f9512cb1c98	-2.765421053718068
113	0xbff3c7f029177158	-1.2363130192889766
114	0x4009e03ed2ac8ec4	3.234494825259249
115	0xc001d8e984494df6	-2.230914147841527
116	0xc0158869969de7c0	-5.383215287578366
117	0xbffa83f08c11b0a2	-1.6572118255090023
118	0xc00e583d1b5cfa42	-3.793085302138281
119	0x3ff24bd56a5df5f0	1.1435140757524742
120	0xc0033e96fe466d90	-2.4055614342921174
121	0xbffbab8de3f1d16e	-1.7293833641134273
122	0x3ff756093b3bf2bf	1.4585048974833368
123	0x4011f8b586462941	4.492879961044594
124	0x400f88c49dca3628	3.9417812659583156
125	0xc0074ab503effe9e	-2.911478071939043
126	0xc00232eea5a88d32	-2.2748692457259034
127	0xc01adb5460e963b8	-6.7141890661668455
128	0x4000c048fa634f0a	2.0938891946369766
129	0xc0037bf668cb9c31	-2.4355285822998884
130	0xbfcee39b6c0dce60	-0.24132101799078765
131	0x400c1c9e76eb90c9	3.513974122108355
132	0xbfff152ae4e77b05	-1.9426678601809624
133	0x401050bca8f8a074	4.078844680953001
134	0xc011ef95910d6807	-4.483968988841304
135	0x3ff78432c99e45bd	1.469774997302337
136	0x3fe1c14a0ace9d09	0.554844876391969
137	0x3fefb61a826a5daa	0.9909794375588963
138	0x400aeaa89d3ae49f	3.3645794185254796
139	0xbfe97462515d4220	-0.7954570378443044
140	0xbff7a0d9bbdc9653	-1.4767701471659123
141	0x400065eb2b3941d5	2.049764955220079
142	0xbfe81e670a4977d2	-0.7537112427632968
143	0x3ff4fbf3b3199da7	1.3115117069336095
144	0x40059d3680f99d3f	2.701764114015219
145	0xbff738f1080a20fa	-1.45140174045997
146	0xc001d194f071d236	-2.2273348602996306
147	0x400156a6e284a660	2.167310495064882
148	0x40162e13475815d7	5.544995417357732
149	0xbff3741abfbd9420	-1.2158458223214055
150	0x40098b8d78bef431	3.1931409295343873
151	0xc00bd51b8144c88e	-3.479056367789844
152	0xbff5640b81fccb7e	-1.3369250371585788
153	0x4000669413534dd5	2.050087119083154
154	0x4010014071422933	4.001222390807288
155	0x40041f4010540788	2.5152589107173675
156	0x3ffa06420a17fb31	1.6265278238567584
157	0xc0042a4051d9ee34	-2.52063049265214
158	0x3ff33e95c364a3a9	1.2027795441192473
159	0x3fde726d729d6bab	0.4757341021810883
160	0x401293c94de44473	4.644322602326713
161	0x3fbcbb78e148e450	0.11223559856525012
162	0xbff7437ba34b7918	-1.4539753321365136
163	0xc0125b148536a7d2	-4.588945466481123
164	0x3fe66082aa98e53f	0.6992810565927029
165	0x3fa6a348469c07a8	0.04421449529583238
166	0xc010dbefb9cb7d0f	-4.214781668705895
167	0xc000ee3e95298532	-2.116330304460143
168	0x3ff849c7e8de6ed6	1.5180129143181396
169	0x4015a899086ac7de	5.414646274106387
170	0x401633265a913195	5.549950995551986
171	0xbff6dfb55a709550	-1.4296163113406983
172	0xbfe6779e4e268b4b	-0.7021018530252631
173	0x400b83ee85a26f4f	3.4394197883793036
174	0x3ffcc39864243bad	1.7977527534273847
175	0xbfe338cec0271a6f	-0.6006845238669721
176	0x3fe6004f37d92e6e	0.6875377741611837
177	0x4001a8bd001fb210	2.2073917398140637
178	0x3ffac0b651174e7e	1.672048870813256
179	0xc01a2379b68b1af9	-6.534643985977476
180	0x3fed9a300780e526	0.9250717302849452
181	0x3ff0a23998683b65	1.039605708446936
182	0x3fff89fe83dbb23e	1.9711899901113976
183	0x401d4a6ed72f2fbe	7.322688448195491
184	0xbfe5e9644df8f19b	-0.6847402117633011
185	0x400bd674507c0258	3.4797140395969954
186	0x4004ed8b8b879729	2.615988817286866
187	0xc0072251c0d28632	-2.891757494377793
188	0xc016a247169c41ba	-5.658474305426745
189	0xc009bcf37a0e5d35	-3.2172612701066563
190	0x400ec8bef8dc423e	3.848020500394596
191	0x400552693465b89f	2.665239724497112
192	0x401a1268b2c7df65	6.517977517556436
193	0xbfff84f759a4c975	-1.9699624540049545
