examples/es/trained_param.npy (npy, 1680 bytes, 1 tensors)

array f8 [194]
00000000: 0483 148d 7329 ea3f 0ced 995c 5f64 f43f
00000010: f4c5 12ea 81cd cbbf 3c87 c0c1 b8b5 f4bf
00000020: e7db 1fb8 47ce f0bf 87ee cf46 5a76 10c0
00000030: 0fa1 c422 2ed5 0f40 056b ca2e 5f6a 0240
00000040: 4d38 0e4a 4095 0140 4ffa ffec 7b30 05c0
00000050: 743f 239d 1d53 09c0 6142 d392 0ec8 ed3f
00000060: 82c0 aa9a f8f6 f2bf d22b 4d7e 439a 0140
00000070: d3ed 7a89 56ee fdbf f97d e9ac a4bc 03c0
00000080: 4efb 2f18 c649 f13f 20c6 75f3 6583 0fc0
00000090: b368 7b40 4daa 0bc0 be01 0678 ca70 06c0
000000a0: aca2 73c0 f90a 0fc0 aa6f 3c96 2c70 0140
000000b0: 77c9 b363 f9d4 d5bf 0eb0 c69c c1ce ff3f
000000c0: 1fd0 d46c 489c 0cc0 705e ad06 d310 14c0
000000d0: 703d ccdb 57d1 f8bf 4737 a372 a538 dcbf
000000e0: 1c95 2429 7e49 f33f aaf6 d74e ea47 e9bf
000000f0: f78a ef44 7051 23c0 79b0 d955 1be5 febf
00000100: 71fe 36ab d0eb 0740 2027 39d4 2c79 0b40
00000110: 82b9 b248 0161 fc3f 1827 629a 3845 07c0
00000120: 6a57 4f0b aa47 f9bf 90d8 a5a0 791a ea3f
00000130: b6ef ec0d 75f0 e6bf f196 298f e061 02c0
00000140: e1df 88d4 5409 f1bf b85e e8dd e5d9 f53f
00000150: faa0 defc e580 fd3f 3f95 9313 8898 12c0
00000160: b4dc 9da1 ae83 ffbf fb02 c22d ecf3 02c0
00000170: 6f45 5d9e b135 f63f a235 e829 ae16 d1bf
00000180: db47 38b9 c8cf 20c0 6c68 b746 9a25 ccbf
00000190: 4718 9079 e68b 03c0 c53f b3cd b4bc 0640
000001a0: 91a0 ed20 2e7b 0140 4683 7f20 4f08 ffbf
000001b0: 60d1 7100 5618 e43f 38e4 3fdc d0cf 1ac0
000001c0: 2592 e67f 1098 0dc0 cd7d 2c4f 7bba 0640
000001d0: 8ebe 1bbd 6a87 fb3f ce32 4fd2 7ce3 debf
000001e0: ba8e b38b 7186 f43f 5cae 714a 1998 17c0
000001f0: 090c b4b8 e5ea 07c0 de1c e49f 34ed e1bf
00000200: a8e9 bfbb b45a 06c0 968f 0523 77df e73f
00000210: a3e8 e638 4393 16c0 1a97 5eed 4656 e9bf
00000220: 90da 5c70 fd34 cd3f 9066 4597 7e52 0940
00000230: b59b b18e 51dd f7bf 4fe3 63b7 1098 0ac0
00000240: 2e8f 4692 cd47 fa3f 8cd3 91ef 304b ff3f
00000250: e920 e255 7326 1540 3358 bb08 8071 ea3f
00000260: 5cb2 9bb2 0c3a f5bf 52df 57e9 f5c0 ec3f
00000270: 5382 1c99 9c88 09c0 b11e 02d9 0e13 0440
00000280: 17d6 163f 81b9 02c0 b2f3 82d8 5522 da3f
00000290: 145d c93f 0f3a 0ec0 5bd8 1ab5 fbdb 01c0
000002a0: d8ce 026b 58a9 e5bf 8e7a 4357 99b8 0f40
000002b0: bced 1cb7 6cba cf3f f02c 586e 8237 1b40
000002c0: 6851 73fa 7402 1e40 e67b 8534 5069 f33f
000002d0: 9c50 f565 ebfc ff3f 983c f57e cf83 0940
000002e0: 96a5 d826 6d2f ddbf 584a ba4b 6ec2 ec3f
000002f0: f43e 3578 2db3 dabf 4a35 f7b5 d9f8 0040
00000300: 7640 9551 f8f8 0b40 7e5e e73b 964f 0440
00000310: b419 bfd0 253e 0140 08a2 a6e7 6da0 f13f
00000320: 6e03 bbd2 956d d33f c613 9609 9931 04c0
00000330: f8ac 79ba 2916 fa3f 4155 26be ae5c 0640
00000340: 80df 2a20 9792 1340 d58d 4c6f f716 dbbf
00000350: 822a 6ac4 df5c 03c0 1ca1 b22d cc18 0340
00000360: 69e0 35df 6592 f53f 1684 085a 970b 1440
00000370: e2eb 1af2 2545 b23f d420 5e91 65a8 fd3f
00000380: ab2d 7cdc 62f5 18c0 a46b 5364 7d8f c1bf
00000390: 36af 40a1 1983 e3bf e5b5 ddcf 56b4 f03f
000003a0: 21ce 6f8e 8b56 02c0 58f4 91dc b89a 0040
000003b0: bbe5 74f3 5e4d e13f 58f7 bc3f 83ef 0ec0
000003c0: e042 e9d2 38a8 a23f d0e9 5129 d7d3 0a40
000003d0: be3b 9ba3 1359 0840 222f 6db4 d346 e33f
000003e0: b03b 72be dd02 0ac0 1650 cb98 4dcb 05c0
000003f0: 6a97 6a63 2e4e 1040 15f7 b5e3 38da 0440
00000400: ac65 2c58 cd99 ef3f 880c a3ca 742f efbf
00000410: c4f2 4584 1e3d 08c0 c362 e4fb 04c8 1040
00000420: 1c8e 3c2e 06c8 01c0 10a8 f36d 0261 be3f
00000430: bd00 9761 eb77 0240 a0d4 85e1 080a e8bf
00000440: afb8 4543 275c 1040 e45b bbac f532 1140
00000450: 8c92 df15 ceb2 c83f 0cea 93bb ea67 e93f
00000460: 85e9 6792 a130 eabf 7977 aeac 73b1 0340
00000470: bcea 08f4 0e2b 1340 e3b3 4eaa b40e bd3f
00000480: 9a04 4377 aeb2 0940 7ef2 157d 7854 13c0
00000490: b076 08e1 43d0 ff3f ad66 861a e21d 03c0
000004a0: b7e2 6c20 60b3 f13f fe03 daaa 350e 0540
000004b0: 06a7 fa1e 8603 1140 f46a 9250 3372 c9bf
000004c0: 0f8e 5f4f 45c9 e1bf 3f99 d6f6 5a70 e5bf
000004d0: b758 7556 d2da e3bf 19d2 1420 2b6a 1240
000004e0: 2093 df40 6721 0840 c3ad 5e15 3cda 16c0
000004f0: f547 0494 6716 0b40 d272 a4f6 32f1 f9bf
00000500: 290c ab78 d91d 2140 e92f 1728 acce f3bf
00000510: d07f e09b e9ff 1040 f33c 32a7 905f 0640
00000520: 211b 776e b9f5 02c0 2371 7719 2e68 12c0
00000530: 1ee0 5a8f ca7b 0940 0879 62ce e5b2 f2bf
00000540: 6550 076e 0006 07c0 658a 11c2 c4d0 c3bf
00000550: 3e85 4348 938c 0c40 20c1 4cf3 619f bcbf
00000560: 6f47 ea04 4779 de3f 89e5 5f83 9789 febf
00000570: 163c b94d a11b 0dc0 b9ce 0772 bb25 e53f
00000580: aada 5312 092b 0640 eff7 e724 ef1b e33f
00000590: 7b65 f758 9c6a 13c0 7cc6 9ca7 3ade fabf
000005a0: ae43 a97c 17b7 f93f db58 ce61 28bf 07c0
000005b0: 9cf6 a3b6 7046 0340 a277 d540 d58c ef3f
000005c0: 5cd8 5cea f1a6 0740 4382 f367 58b5 03c0
000005d0: e087 105a 33c5 e83f 1d2b 41f7 fba6 0c40
000005e0: b580 1436 8a97 0440 d32b 2f80 6cc0 0940
000005f0: 8247 9849 4c91 17c0 97df 1732 1e30 f03f
00000600: b0d2 23c0 0ead c7bf 5000 4fcc b6e1 ef3f
0.8175599818679022 1.2745050065266836 -0.21720909051286663 -1.2943656509819013 -1.0503613655434891 -4.1155787529384105 3.9790919033295107 2.301939359237965
2.1978765283193185 -2.6486738696687904 -3.165583827627353 0.9306710117035203 -1.185295681159943 2.2003240458775304 -1.8706879968948342 -2.467110968471158
1.0805111832448406 -3.9391592998806715 -3.458155158773559 -2.805073678668321 -3.880359176186479 2.179772542685858 -0.34112391220619237 1.9879776119296397
-3.5763100149579397 -5.016430000621412 -1.5511091791011857 -0.44095741458010135 1.2054425818581143 -0.7900287189401827 -9.659059671631878 -1.9309342721490153
2.9901440979154406 3.4341675357762966 1.7736828651210037 -2.9087993680194693 -1.5799961511415526 0.8157318246510545 -0.7168526908858357 -2.2977915939871925
-1.064778166020908 1.3656977337140415 1.8439693334312879 -4.6489565905406485 -1.969648963274989 -2.3691028189499526 1.388108843432146 -0.2670092972992625
-8.405828273887826 -0.21989754155112295 -2.4433106896495107 2.842141730339764 2.1851465771215506 -1.939528586335841 0.6279706963237395 -6.702945176505686
-3.6992502205123565 2.8410555062725735 1.720560778336139 -0.48263474023842157 1.2828231293760113 -5.898533976734679 -2.9896959714838016 -0.5602057574150441
-2.794290034097873 0.7460284885423671 -5.643811120122481 -0.7917818676112092 0.22817962633572053 3.165280515485229 -1.4915328573203912 -3.3242506339414954
1.6425300325290197 1.9558572157086216 5.287549344946663 0.826354996733022 -1.3266722657091554 0.898554759739435 -3.1917049371552735 2.5093056634685458
-2.340578549274834 0.4083456625338001 -3.7783493979765215 -2.2324136875932203 -0.6769220438058836 3.9651362245052217 0.24787672940315797 6.804208492404754
7.502399361885502 1.2132112552278556 1.999247930788477 3.1893606108274746 -0.45601967614728645 0.8987342337662296 -0.417186133757226 2.1215090004031127
3.496567380301765 2.5388607673629044 2.155345564681932 1.1016673134673756 0.3035635526576276 -2.5242176770138682 1.630410889071582 2.7952551703880606
4.893154623619807 -0.4232767664818458 -2.420348677148753 2.3871081895960184 1.3482416838797013 5.011319548387311 0.07136761818666984 1.8536124876427964
-6.2396349383156275 -0.13719146155093853 -0.6097534322229652 1.0440281028526155 -2.292258370196365 2.075547908024003 0.5406946902286828 -3.866949556307116
0.03643968176459622 3.353437731563851 3.0434944898365464 0.6023958705859267 -3.2513995054827873 -2.7242690980001596 4.076348832493617 2.6065538206011163
0.9875246736657366 -0.974542995238509 -3.0298433622213867 4.195331512274325 -2.22266803858089 0.1186677473484965 2.308554422779791 -0.7512249378911697
4.08999352562948 4.29976529973553 0.1929566962054604 0.7939351714733802 -0.8184364184847231 2.461646412920285 4.792049229664084 0.11350564153572366
3.21224682973168 -4.8324908775945215 1.9883459844926783 -2.3895914146676973 1.1062928454031586 2.6319382999213294 4.2534413185583215 -0.19879762109925248
-0.5558191824206363 -0.6699652501163554 -0.620461624969514 4.603680135031504 3.0163102215032183 -5.7131198252713515 3.385939747219704 -1.6213864931552746
8.558299799804518 -1.2379571500814512 4.249914584710453 2.7966626226622053 -2.369982588777376 -4.601738355555685 3.1854449462516774 -1.168676191511226
-2.8779305072767323 -0.15480861164094786 3.568640293655931 -0.11180698575913484 0.4761521862029587 -1.908591759855286 -3.6384912559656284 0.6608559825094381
2.771013396438623 0.5971599312613288 -4.854112043475989 -1.6792551562652127 1.6072001332833952 -2.968338741407121 2.4093946713245042 0.985941530827166
2.956516104658517 -2.463547527426529 0.7740723380159089 3.5815352741968938 2.5739940857893893 3.2189569486995224 -5.891892576140778 1.0117475468414108
-0.18496879941780753 0.996302985229713
