examples/es/trained_param.npy (npy, 1680 bytes, 1 tensors)

array f8 [194]
0	0x40104f4267c7c5fb	4.077401753967474
1	0x40079c837be1ea66	2.9514226606673217
2	0x3ffe0b5117e1e77b	1.8777628834636448
3	0xbff6fa014f419300	-1.4360364051764805
4	0xc00380c418431a23	-2.4378740210988936
5	0x3ffd1841471e4fa7	1.8184216287672628
6	0xc01162e4b71e19d0	-4.34657560464116
7	0xbff801e77e960c34	-1.5004649109621484
8	0xbfdec2d29cf65474	-0.4806410343965759
9	0x3fc0ed8709d2e974	0.1322487638443125
10	0x3ff5d269ecf8eb64	1.3638705498439885
11	0xc0193f16548de1dc	-6.311608620796019
12	0x3fe4e0df2ea24fe6	0.6524501715489321
13	0xc019a11c6bd13dd6	-6.407334980627146
14	0x400b6c489e3bc6f4	3.427872883033041
15	0x3ffa4cbf30b8d90e	1.6437370207982585
16	0x400ed2d67cc2bda4	3.8529481646471186
17	0x4004e19e3ee23093	2.6101651108529693
18	0xc013be991d64ca9e	-4.936130961682151
19	0xc0058bd1905b7d30	-2.6932708051605445
20	0xbfdcae179a1f33b5	-0.44812574435200797
21	0xbffa5d1f27bd3319	-1.6477347900683468
22	0x3fe91f1324f5c0e9	0.7850433084368237
23	0x3fe087d45bf68094	0.5165807529592876
24	0x3ff2c4c860e47231	1.1730426583154776
25	0x3ff1286efcf6f50d	1.0723714715416606
26	0xbffb77f4cdb12540	-1.7167861971705207
27	0xbff0e073014a7956	-1.054797177355416
28	0xc0010e6fc0f0f50d	-2.132049090722495
29	0x3fec8afa95cbd627	0.891965191431784
30	0xbfe17d717a41ccba	-0.5465628993828411
31	0xbff23c91c03d666a	-1.1397874364251046
32	0x3ff95092b5031910	1.5821711607728197
33	0xc00540abfd528fb3	-2.6565780440159528
34	0x3fea407e1b744249	0.8203726326192476
35	0xbffc0d72b0f2b8e7	-1.7532832061802368
36	0xbfb5a8759f881747	-0.08460173744978504
37	0x3f82aa3beea8c6c0	0.009113758297732644
38	0xc0134967bd1cde58	-4.821684794318195
39	0x3fea0636fc6be34d	0.8132586412531083
40	0x3ff8f9ace5abb2ce	1.5609559031974416
41	0xc02052cc2a67eb0a	-8.161713910279577
42	0x4014ca0676c0159f	5.197290282701402
43	0xbfc7cc52a383d365	-0.18592293724182266
44	0xc0185d57f6c850c6	-6.091155868507661
45	0xc001ab0de07b9560	-2.2085225618090334
46	0xc017c622f8fbbd5b	-5.943492784848185
47	0x3fe9ec8d787df851	0.8101260522232768
48	0x3ff14009860a2325	1.0781340824052645
49	0xc0085e6a6dfa93c1	-3.0461014358611185
50	0xbfcc550b70209b08	-0.22134535765618346
51	0xc016cb7b6bb422ef	-5.698713000173242
52	0xc00636ee4ab01552	-2.7768216929422715
53	0x3ff5ad229c4cb79d	1.3547693353134271
54	0xc017a2f77ada91de	-5.9091471858887115
55	0xbff1b33ec46ae320	-1.1062610313949293
56	0xc00b9605d4de7eb9	-3.4482533102417077
57	0xbfe24953c927b17d	-0.5714510849771127
58	0xc00b2cf16f9a286c	-3.3969448775215394
59	0xc01503a14d21111f	-5.253545003073923
60	0x400549887136aa08	2.660904774170607
61	0x3feb66dd69a9bbb2	0.856306749699675
62	0xbfe758d7246d429a	-0.7295947753392114
63	0xc0135f1219b9a964	-4.842842485386743
64	0xc011b5c57e8827a5	-4.427511193332895
65	0xc003f8dcafe10e84	-2.4965146771008353
66	0x401b5c2d6e31a47a	6.8400170533942575
67	0x4011d0106a70d7d7	4.453187621247671
68	0x4003b5f80934b598	2.463851997300207
69	0xc00b1f6323005ab4	-3.390325807045281
70	0x401569f7784fb53b	5.353483085503565
71	0xbfef084de4783cac	-0.969763704519115
72	0xbff3cde7f8b3fb18	-1.2377700533831497
73	0xc00cd4887b9c4808	-3.6037759453838625
74	0xbfe4cd1b76978ec6	-0.6500375095606266
75	0xc02a98f9f26bb4e8	-13.298781943939005
76	0x400541892c9c9b66	2.656999920396106
77	0x3fe78a908e2de5e7	0.7356646325053448
78	0x401b329c0e58d8d8	6.799423431561273
79	0x4024a8a129ba85ea	10.329354576128896
80	0x3fd5936a4f09b154	0.33712251394787995
81	0xbfd78ddcd4523f58	-0.3680336068582526
82	0xbff170720f28c82f	-1.0899525253448805
83	0x3fe2f60bf42ed24e	0.5925349969098279
84	0xbfaa162819b39cc8	-0.05095029176464433
85	0xc00a713093997076	-3.305268433685394
86	0xc002bda2aa85db99	-2.342595417222992
87	0x3ff8718a01332fa1	1.5277195021508094
88	0xc00d71c19a30ea77	-3.680545048349184
89	0xc0003ab70e33a5d0	-2.028669463111079
90	0xbffc851df775c6e9	-1.7824992815407603
91	0x40202f3596c890a9	8.092205726607363
92	0x4007315fdf7e9372	2.8991086445334355
93	0xc00efa6a9ca85af0	-3.872273658645433
94	0x3ffb1883210676cf	1.693484429364094
95	0xc024c96ccf036b29	-10.393408269088086
96	0xc01e190c686d893f	-7.524461394963793
97	0x3fe5295dd0fbfd8e	0.6612996179318757
98	0x3fe7f4544a8040b6	0.7485753493401919
99	0x3ff73f91d193bbec	1.453019922886365
100	0xbff931d57acd13ec	-1.574666480724086
101	0x4005fd3daa5c84ed	2.7486527738079674
102	0xbfadf5f19627c4f0	-0.05851702650023494
103	0xc0178aadb1127c98	-5.885428206208552
104	0xc00fb3c6722b763e	-3.962780849410392
105	0xbfda61ccdc0f4dc7	-0.4122192524930281
106	0xc0119eadb9610286	-4.404959579988491
107	0xbff1649b3bf884ac	-1.087062105427587
108	0xbfe0d2f8034288c0	-0.5257530273122697
109	0x4006e6377d654a28	2.8624105259452968
110	0x3ff0d5c4cb30d9e4	1.0521896302358238
111	0x40153c2fbddbdfd0	5.308775869889317
112	0x4000bdcc79ae6368	2.0926751619667137
113	0xbfed693df1a7d1cb	-0.919096919997679
114	0x3faf468cdf7d3160	0.06108513095986967
115	0x3ff63545055dcfaf	1.388005276644417
116	0xbff076852cf89c20	-1.0289355999646048
117	0xc016daa6bd2e00dc	-5.713526683743307
118	0xbfd7603f29145678	-0.36524943362869733
119	0x3ff377064354ff2c	1.2165587072522142
120	0x4003c9c0e03c26f4	2.473512412868212
121	0xbffd77c7d1188a64	-1.8417432945067498
122	0x400cbb90333f2819	3.5915836337708353
123	0x3ffd1a40815b75d8	1.8189091732996214
124	0x3fb66ce59f55d888	0.08759913578055223
125	0x4014b77a7979f361	5.179178140705376
126	0xbff507a015fe37ba	-1.3143616541960754
127	0xc0172cfb3a139eef	-5.793927104423104
128	0xc00816330306a942	-3.0108394848258806
129	0x3ff0dd8be20b08e4	1.0540884809311644
130	0x3ff9f54725f30d9a	1.6223823053740944
131	0xc002367df5406041	-2.2766074333449358
132	0xc0057fc51eb37d73	-2.6873876951719295
133	0xc00a3009582af35d	-3.273455323038816
134	0x400ac555feb258cf	3.346355428521839
135	0x4000755b68cf9c49	2.0573032558782285
136	0x401d6cfe6dc98e02	7.356439319064068
137	0xbfcb1971dfe52b86	-0.21171401436216913
138	0x3ffa01370a26637d	1.6252966305239334
139	0xbfe0ad1c5c080a62	-0.5211316869247862
140	0xbfd0a149bece3eef	-0.25984424241413157
141	0xbffbd10ee59a3810	-1.7385395974010898
142	0x4003662c9b30b084	2.4248897670968876
143	0x401ca90a15033b36	7.165077522585127
144	0x4015292800906958	5.290191658796481
145	0xbfe599b97448d557	-0.6750151892835373
146	0xc01373a801587ee0	-4.862945576692908
147	0x3fd57fe4dfe89094	0.33593103281078496
148	0x401115400822069b	4.270752074314852
149	0xbfe3f48564f05907	-0.6235987636053161
150	0xc019fbfc0f93a167	-6.49607872332158
151	0xbffaed4512c688e4	-1.682927201597118
152	0x3ff49ba29165f18f	1.2879968337648255
153	0x4018ba7e081fd0fe	6.182121397916715
154	0xc0116cf0c8887898	-4.3563872655196505
155	0x3fd90aba92ae1317	0.3912798340245884
156	0x3ffe3f1277562c94	1.8903984700762395
157	0x40070763d5be8d42	2.8786083887841025
158	0x4009ff19dd9824c2	3.2495610534720933
159	0xbfdde394af0f0fe5	-0.46701542945470315
160	0x40146929bd818984	5.102698288947412
161	0x3ff18976be568280	1.0960605082583754
162	0x3fd8b59cffdad868	0.38608479486300107
163	0x3ffae9665990d1ba	1.6819823740635074
164	0xc00666b883771214	-2.8001566191399068
165	0xc00a121d8c0faa62	-3.258845419147563
166	0xc014b0b9655d90d7	-5.172582229457666
167	0x3ffa43804b45be35	1.6414797725991666
168	0xc01cc5c3b3b07c38	-7.193129356047443
169	0x3fca253168314ff8	0.20426004016428556
170	0x400526813d15fa2d	2.6438011905986714
171	0x3ffd3f08dcd6907e	1.8278893114557202
172	0xc007cbe9e2e37784	-2.974567196432817
173	0xbfdb196e9019999b	-0.42342723915353425
174	0xbfe06da39a97b4ba	-0.5133836764704462
175	0xbfffca0fa9cc29e6	-1.986831343909779
176	0xc0182d03b226bb78	-6.043959411253006
177	0xbff6fe839eb76f8b	-1.4371372413506573
178	0x400e378b2cb36651	3.777120923256725
179	0x40060f9397f41dc0	2.7576057311414104
180	0x4011b3186fa8009e	4.424897904042295
181	0x3fcfcf23ce57cfa2	0.24850890708296186
182	0x400f583f4e67239e	3.9180894971108975
183	0x400cb7f0fbdeca1c	3.5898151090016324
184	0xc00f79520578c06f	-3.9342384746051304
185	0x4001e877ea0edd6d	2.238509968355791
186	0xc00b522a5bf02f1b	-3.415119856135687
187	0xc00d06604dace152	-3.6281133716949308
188	0x400a69535ad2333d	3.3014285178564067
189	0xbffe80e9f4cce4c2	-1.9064731180681496
190	0x400244002ab8ad55	2.2832034432991954
191	0xc00b5958bf9154d5	-3.418626305220281
192	0x40029625646122c2	2.323313507284497
193	0x3ffbd15acfd00120	1.7386119954754307
