examples/es/rl/old_logs/0/398764591/trained_param.npy (npy, 1424 bytes, 1 tensors)

array f8 [162]
000000 ce 8e 36 05 0e 56 1f c0 64 dc 5b f4 f6 40 10 40
       -7.834037858443208 4.063442056757683
000010 28 ba d4 01 9a 74 ee bf dd a4 e1 2d 41 d9 02 c0
       -0.9517335925828023 -2.3560813507543643
000020 c5 eb a1 cd ff f3 19 c0 b0 a9 02 c5 59 40 19 c0
       -6.48828049946582 -6.312842443740394
000030 c2 87 95 b1 91 20 10 c0 db 25 0a 77 b1 69 0b 40
       -4.031805777312856 3.426608018872441
000040 96 64 80 99 ba 23 06 c0 94 27 23 da d4 6b 0e c0
       -2.76744575427126 -3.80265207690986
000050 a2 32 34 fb cf 46 1b 40 53 64 d3 ca 5b 1a 21 40
       6.819152760563755 8.551481569580721
000060 44 ae 83 84 ef df 0c 40 8f 2f ba cd 14 cc f5 bf
       3.6093435623822945 -1.362324527380199
000070 d4 77 7a 79 5d 8f 0d 40 27 21 54 0d c5 d3 ff 3f
       3.695002507257394 1.9892015953683513
000080 cc 7b 5d 2b 36 40 26 40 95 47 35 dd 9d 67 f7 bf
       11.125413279687471 -1.4627970353071522
000090 94 3f 79 dc 58 74 e1 3f b1 d2 60 37 61 40 1a 40
       0.5454525285840526 6.562870850834472
0000a0 9b 47 2a af 6b 3b e2 3f 33 f6 5f 59 85 15 e2 bf
       0.5697534962839542 -0.5651270623781727
0000b0 67 b6 f6 18 e0 82 17 c0 ea 9d 7e fb 2c 5f 04 c0
       -5.877807989175927 -2.546472515870609
0000c0 9f 82 70 85 b0 07 17 40 08 96 dd c8 6a 35 1a 40
       5.757509312622147 6.552165163540401
0000d0 f8 65 c2 7e 9c 85 22 c0 4a 09 c7 b3 49 51 f8 3f
       -9.260959588270438 1.5198456785734202
0000e0 f4 f5 6f 53 c5 86 dc 3f be b9 25 05 d3 41 10 40
       0.44572575710466755 4.064281540324769
0000f0 02 9d c4 ab e2 4c 10 c0 e4 d3 55 9c 76 21 fe bf
       -4.075083431124996 -1.8831697565885799
000100 ea 19 a0 71 4f a4 23 c0 ed ff d4 be 9f 4f 12 c0
       -9.820918608468634 -4.577757817984076
000110 09 54 b9 65 0a 26 2f c0 4d 2b aa 05 83 2d 2c 40
       -15.574298075554923 14.088890244505501
000120 de e7 8b a1 59 38 14 40 bf fb 53 e5 47 69 14 c0
       5.055029415287178 -5.102813323260249
000130 c7 71 84 6b 23 f0 16 c0 43 c9 20 9e 8b bd f9 bf
       -5.734510116537826 -1.6087757279279493
000140 e0 5d da 10 99 90 b7 bf df 61 f6 01 91 09 07 c0
       -0.09205013905954429 -2.8796711114230074
000150 da f2 fe c5 11 34 01 40 f6 25 1a 14 4a 89 0f 40
       2.1504245251111174 3.9420358248214553
000160 86 9a e2 d8 08 54 0a 40 c5 0e 4d 08 2f ac 15 40
       3.2910324997095044 5.418148164466122
000170 e8 c1 67 6e 59 af f7 3f 2b b6 bc fe a1 4b cc 3f
       1.4803098976809625 0.22105812967622404
000180 1f 14 d8 5d 2c c5 e8 bf ae 2d 20 8d c4 c8 1a c0
       -0.7740690071956385 -6.696062283600822
000190 68 13 5a 7c 6c e2 0f 40 76 49 8c 8c b6 29 0d 40
       3.9855584826458887 3.6453677158653432
0001a0 8e e2 e6 88 8c ce f8 3f 3b 2e 8f 06 f8 42 10 40
       1.5504269931535961 4.065399267663049
0001b0 6d 67 6c d5 ff 45 15 40 2e e7 cf b0 ab 24 21 40
       5.318358740560012 8.571622395876684
0001c0 6f 02 69 f4 8d 54 03 40 f4 f1 2c 91 e8 5e 13 c0
       2.416286382155071 -4.842684048050149
0001d0 88 dc 0c 3e 73 35 02 c0 95 bd 1c 06 27 82 e0 3f
       -2.276098713653088 0.5158877486591559
0001e0 8e b8 3d 23 7f f1 ce bf ac 5f 75 af f6 34 1e c0
       -0.2417448923183127 -7.551722280062602
0001f0 ac 17 33 4c f3 c9 05 c0 26 5d 41 51 5e 18 f8 bf
       -2.7236085846988853 -1.5059493230854257
000200 c2 f0 be 8b 63 b9 03 c0 7b 57 fe 86 e5 e1 01 40
       -2.46552189995245 2.2353010698670324
000210 6a f9 c3 bd 53 9e 19 40 c2 ac a5 e2 e2 23 06 40
       6.404616322599717 2.767522593194003
000220 34 3d dd f6 18 b6 1b 40 f2 95 4c ca 5e 39 18 c0
       6.927829606297838 -6.056025658535406
000230 ce 24 e8 29 a0 c6 f5 bf 7e bd eb 25 98 0a 18 c0
       -1.3609925877556637 -6.010346024049225
000240 d0 2c f3 ed 0b a6 02 40 78 eb cb 6a 72 b2 d2 3f
       2.331077441199888 0.2921415369925664
000250 26 bb 43 82 af e8 14 c0 d5 fc a5 79 87 d8 06 40
       -5.2272320131149055 2.8557271484165576
000260 1c 5b e3 73 64 4f 12 40 21 4c 26 cb 5c 20 14 40
       4.577531634093955 5.031603979313361
000270 76 90 ff aa 13 6e 00 40 2d f2 b6 a9 a6 15 1f 40
       2.053748451160625 7.771143581191194
000280 c3 83 b6 1e f4 25 0d 40 52 f4 dc 36 a7 57 15 c0
       3.643532028145701 -5.335598809467301
000290 49 eb 55 95 9e 26 ff bf 28 27 65 b8 2d d7 15 c0
       -1.9469285806105339 -5.46013534657849
0002a0 1e 45 ac 63 e2 ba 1a c0 91 80 3f c1 c8 96 0b c0
       -6.6825042318244225 -3.4486250970367753
0002b0 8b 56 08 94 e6 96 01 40 d0 92 5f b2 2b 7c f5 3f
       2.1986819806141447 1.3428151099880559
0002c0 9e c7 26 74 a2 d4 05 40 90 5c 98 95 9f 12 20 40
       2.7288254808745043 8.036373782013726
0002d0 20 1c 03 ea 02 bd f6 bf f5 be ad a7 68 bd 13 c0
       -1.4211453572368171 -4.934969539622888
0002e0 d8 5a cc ee b4 7e 0a 40 75 c9 5b 9e 23 74 12 40
       3.3118685394395975 4.613417124130469
0002f0 31 b2 fc 46 0d 6f 06 c0 bd 30 eb d9 86 d9 06 c0
       -2.8042245431772916 -2.8562142395877275
000300 f2 74 40 0b 55 39 fe bf 10 d7 b7 b7 98 52 11 c0
       -1.888997119858058 -4.330660696597775
000310 59 37 7a ee 92 1a 20 40 88 80 8e 44 ad ae 04 c0
       8.05190224878213 -2.5852914196003134
000320 37 d9 a2 40 ad f9 19 c0 c7 08 ee 7a 4f 6b 18 c0
       -6.4938249682802995 -6.104795380381069
000330 09 f2 57 e2 f7 68 1f c0 87 55 0e 05 e7 e6 0f c0
       -7.852508103006138 -3.9877453227042596
000340 db 65 70 c5 2b 3e 19 40 21 24 30 8e 1b ec 13 c0
       6.310713849053594 -4.980573865593244
000350 21 dd 88 14 e6 3a 0f c0 98 2f db b3 39 69 01 c0
       -3.903759155680419 -2.176379590155147
000360 6a d8 71 72 b3 58 2e 40 9b e9 d5 95 cd 9c 16 c0
       15.173244072339191 -5.6531279956638185
000370 ee 05 07 0f cf 29 14 40 0e c7 82 d0 a4 55 00 40
       5.040828928760204 2.0418182649526733
000380 48 86 24 06 51 08 13 c0 c2 d1 2e 07 13 7a 20 40
       -4.758121582011491 8.238426422562842
000390 a0 82 85 3f 09 f8 17 40 bb ae dc f8 58 1e 21 40
       5.992222778819865 8.559272553385531
0003a0 18 32 11 4e e1 94 f8 3f de 8e ca 06 d2 5d f4 3f
       1.5363476800440647 1.272905375030795
0003b0 8c 88 c3 fe 92 ce fd bf ac e2 2b 1e c1 ca 03 c0
       -1.8629331542693164 -2.474001155580785
0003c0 6a d3 43 5a 0b 06 11 40 d4 4a 38 de 46 cb 10 c0
       4.255902681722413 -4.198512527643022
0003d0 ce 6b 14 10 a7 27 1c 40 58 eb a6 5e 83 11 18 40
       7.038723231550604 6.017102698266932
0003e0 08 00 f8 5c 43 ce 16 40 3b ab 9d 57 5e 36 1d c0
       5.701428845059134 -7.303094262121529
0003f0 cc 4a 8f 93 70 4d 22 40 0c 5f 2a f5 cd 8b 23 40
       9.151249514810296 9.773055707380557
000400 d2 dd 9a d2 25 3a 13 c0 0a e8 04 dd 3e da ed bf
       -4.806784907057095 -0.9328913037090854
000410 f1 e0 79 b8 73 9c 1d 40 64 09 36 e1 fc de 19 40
       7.402785189093479 6.467761534617555
000420 26 c3 46 04 51 13 21 c0 5d 26 31 54 45 a2 f8 3f
       -8.537727483404137 1.5396168984174416
000430 5e 17 a8 3a 7d 3c 0e c0 d7 6c e4 11 b3 30 03 c0
       -3.7795357306048762 -2.3987790487131906
000440 04 2e 6e 68 34 cf ce 3f 0c 4f 5b 22 35 8a 09 c0
       0.24069838618412132 -3.1924841579547145
000450 20 f4 12 a2 be 88 cb bf eb 42 92 4b 49 19 1b c0
       -0.21511061586161961 -6.774693661501014
000460 7e aa 42 b5 f9 e6 36 c0 a1 e1 25 bf c8 fe ec bf
       -22.90224774243915 -0.9061015828474873
000470 8a 33 7b 70 6c 41 00 c0 c4 fc 00 96 8d c7 f7 bf
       -2.031945112953001 -1.4862190112615261
000480 90 3e ec 5f 5b f9 f1 bf 40 5a 8c 2f 3b 18 11 c0
       -1.1233781573281796 -4.273663275662841
000490 86 3e a9 70 c2 20 1a 40 55 ab ad 1e fd ee 14 c0
       6.531991730050896 -5.233387450551921
0004a0 93 98 b2 79 74 42 fb 3f 9c cc ec df a1 c0 f1 3f
       1.703724360829743 1.1095293757505607
0004b0 d8 8d 13 bc 13 db 08 40 e3 07 f3 eb fd 50 1b c0
       3.106971234652274 -6.8290936343273385
0004c0 0d b6 75 c6 e0 e0 09 40 e0 16 3a 87 22 38 fa 3f
       3.234803724734553 1.6387048036862595
0004d0 b8 da c6 fe 1e 01 21 40 10 3f 55 ef f9 55 21 c0
       8.50218959977552 -8.667922476917312
0004e0 4e 14 37 54 05 92 1c c0 c9 1b 52 06 bd 13 01 40
       -7.1425984533899065 2.134637879734758
0004f0 c6 1a 72 03 90 7c 13 40 aa 8d fb 0a ca 0e 1a c0
       4.8716431177514945 -6.514442607501602
000500 a6 ba 30 aa 9c af e6 bf d6 b7 94 b2 63 b8 00 c0
       -0.7089370082884059 -2.0900339080462613
