examples/es/rl/logs/0/441365315/trained_param.npy (npy, 1424 bytes, 1 tensors)

array f8 [162]
000000 9d e3 4f e2 15 c9 0a c0 30 fd bd 32 36 c7 19 40
       -3.348186271727583 6.4445426872692195
000010 2f c9 1e 0a 28 68 ed bf dc d7 87 61 6f 5c 03 c0
       -0.9189644048367763 -2.4201343173581176
000020 3d 4b 90 9a d0 cb 17 c0 44 e3 cb 9f 9c b5 06 c0
       -5.949037947709084 -2.8386776432129484
000030 dd 7a 93 ba e6 66 1b c0 d5 54 c8 b4 61 f3 0c c0
       -6.850489535571538 -3.6188387035023006
000040 83 c8 87 cd ab b1 c3 3f 78 9a 6f 4e 38 d0 22 c0
       0.15385959182419037 -9.406679583667241
000050 98 e2 69 3e 31 f0 e9 3f 8c c2 38 55 84 66 ff 3f
       0.8105703562751669 1.962528546235407
000060 9c bc 58 88 7d 66 20 c0 be 4f c3 cb 87 b8 e1 3f
       -8.200176487762569 0.5537756900544009
000070 3d 89 58 8b a2 0f f6 bf 2c 04 12 d9 86 40 f0 3f
       -1.378817123717979 1.0157536010085648
000080 96 77 7b 1c b9 38 19 c0 ef b2 3b c4 70 ba f2 bf
       -6.305393643413387 -1.1705176987990702
000090 35 7e c6 82 48 93 fb bf 72 75 07 0d ac 53 ea 3f
       -1.7234578236019733 0.8227138761973676
0000a0 ee a1 16 09 2e 3a e0 3f e8 fc 1a 1e 50 f1 05 c0
       0.5071020295627571 -2.7428285934434946
0000b0 94 0d a8 63 70 86 19 40 1f 26 c1 dd ea ef 02 c0
       6.3812881060906825 -2.367147190529763
0000c0 7c 7e c0 29 6a 09 22 40 37 08 cb a9 e6 0c 13 c0
       9.01838808512479 -4.7625986604853585
0000d0 1c 78 af ab f8 ad 08 c0 82 be 87 f9 79 f8 14 c0
       -3.0849469578670448 -5.242652796659629
0000e0 ae ff 0f 3b d1 29 04 c0 37 45 9a c4 c1 5d 1a c0
       -2.520418607164138 -6.591559478679577
0000f0 1c c7 ca 35 34 72 f8 bf f1 d9 50 f8 ca b7 f8 bf
       -1.5278818227056439 -1.5448713016354498
000100 e9 61 65 9c b3 a1 16 40 21 5f c2 94 14 66 07 c0
       5.657911723792929 -2.9248439428155426
000110 fa 86 81 06 bc 8a 18 40 2b e4 70 e3 3c b9 06 40
       6.135482885032383 2.840448166735333
000120 e7 5b f1 de 57 4f f2 bf c3 2b f1 78 9d 2b f6 bf
       -1.1443709095672092 -1.3856482242870107
000130 0a e0 28 90 52 7b ce 3f 68 c2 39 c2 a7 6a 1b c0
       0.238138504400695 -6.8541555736306705
000140 58 d5 4e ad 24 9d 1d 40 de de 18 82 ec d7 f6 3f
       7.403460224091155 1.4277157861633252
000150 86 6f 32 b0 f9 e5 17 40 0e bb 8d a3 50 d1 1a 40
       5.974585297659251 6.704409175420336
000160 4e 0b 5f 08 4f 3a f1 3f de c4 85 1c ea 80 16 c0
       1.076735527706393 -5.625893064179051
000170 3f 97 7f f9 ba e5 09 40 75 c6 68 be 87 fa 1d 40
       3.237173032003653 7.494658446450207
000180 05 70 2a 77 f6 cd 01 c0 88 fd 84 36 ab d5 bb bf
       -2.225567751867859 -0.10872907715837787
000190 71 1c a5 9a a6 71 25 c0 c3 f9 7a a5 09 02 1e 40
       -10.721974213271297 7.5019899231251115
0001a0 08 bc 01 c0 ec 51 14 c0 e0 e0 77 0a d9 5a 07 40
       -5.080004692178598 2.9193592851480474
0001b0 be 3e 94 5e 3f 87 0d 40 a0 44 01 26 8b 89 0a 40
       3.691038836382943 3.317159935868929
0001c0 fe d8 68 0d 5f b6 15 40 70 02 98 0c 78 f5 1a c0
       5.428096971058265 -6.739715763833928
0001d0 34 04 88 6c 8c 17 04 40 b8 63 a3 70 e6 a3 02 40
       2.511498306179897 2.330029373155835
0001e0 d5 f3 dd 2b 51 0e bc 3f 92 53 21 e0 56 56 fd bf
       0.10959346123668408 -1.8335789446912014
0001f0 ed 7b 08 65 89 86 0c c0 c3 80 ce 88 2e 48 17 40
       -3.565691747018255 5.820490014652196
000200 45 d5 71 5e 43 08 2e 40 30 08 07 35 af fe e6 3f
       15.016138984103813 0.7185894046490429
000210 fe 70 17 d8 52 5e 29 c0 89 f2 aa 55 28 a5 18 c0
       -12.684225800382134 -6.161286676939775
000220 f0 d9 c3 68 29 0a 10 c0 1f 8d 15 10 f0 65 14 c0
       -4.009923588708702 -5.099548579516777
000230 32 66 5c be a0 57 05 40 f1 3c d4 c2 c6 76 18 c0
       2.667787062830734 -6.115992588237746
000240 6b 87 79 da 72 d5 12 40 a8 94 34 a7 e5 1d f2 bf
       4.708445943515339 -1.1322990924320866
000250 d6 13 1e 3a 9d 39 00 40 75 97 50 1b 83 69 0e 40
       2.028131917994396 3.8015195974320997
000260 2b d2 97 96 2b e1 19 c0 5a 17 e7 15 fa f6 09 40
       -6.469892838493744 3.2455941878460353
000270 13 35 9f f1 ea ae 23 c0 74 15 c6 a2 10 64 22 40
       -9.84163622921418 9.195439421348716
000280 96 85 a0 fb 54 7c 09 40 68 90 e9 61 7e c5 02 40
       3.185708967052686 2.346432461681662
000290 f0 a4 2f 4f 11 c8 d0 3f 7f 11 43 ef 42 28 1d c0
       0.26221115811365703 -7.289317835300948
0002a0 5c 85 75 d7 0d a0 21 c0 26 38 4f cf 49 eb f6 bf
       -8.812605603309457 -1.4324434373879824
0002b0 68 32 a8 f0 f5 5f 14 40 ed 34 81 91 c8 27 f9 bf
       5.093711624399113 -1.57221276128558
0002c0 79 94 01 19 00 c4 1f c0 73 b7 4b e6 ce 61 24 c0
       -7.941406622620996 -10.191031643622159
0002d0 9a 71 6b a4 0d 8a f4 bf fc fc 28 ed 9c 94 08 c0
       -1.2837044165272347 -3.0725649383672344
0002e0 89 3b 11 c6 80 36 19 c0 84 08 d5 bf ed d5 ef 3f
       -6.303225607682983 0.9948643442842386
0002f0 f0 e3 73 b1 3c d6 0d 40 6c c1 17 1d 91 7f 18 40
       3.7296079505435884 6.1245770021199455
000300 1f 78 e8 72 0a 63 20 40 b0 39 57 d6 cd 6b 0d c0
       8.193439093473044 -3.677638697182566
000310 18 d8 ca 03 20 90 15 c0 a9 e7 c0 e1 f4 35 fe bf
       -5.390747126823065 -1.8881729906556564
000320 e8 aa e9 4f 78 70 24 40 cc d9 b2 42 d3 df fd 3f
       10.219667908929708 1.8671448331275426
000330 4b 58 24 5a 2c b6 06 40 00 95 78 a2 66 8c f2 3f
       2.838951782449873 1.1592775675320013
000340 16 1a f4 88 af 82 19 c0 2e 37 71 58 7c dd 0a 40
       -6.377622737788007 3.3581473264265673
000350 91 58 35 a4 4b 3e 05 c0 bc 88 49 9a 26 36 17 c0
       -2.6554177120952507 -5.802881632555167
000360 7b fb f8 d5 76 27 11 40 cc 22 cc 58 82 65 11 c0
       4.288539260217358 -4.349130046328991
000370 51 e3 e8 cd 77 cd 09 40 06 df 3e 54 eb 44 fd 3f
       3.2253261648842586 1.8293259898036367
000380 a4 1f c3 d5 2f fc 13 c0 73 c0 e3 89 7a 5a 1e 40
       -4.996276226076507 7.588358072782387
000390 6a 8d 1f a5 07 1b 20 c0 c0 63 80 f0 ef ef 21 40
       -8.052792701818095 8.968627467796864
0003a0 a6 a4 a8 54 8b 1f 19 c0 61 20 15 c8 ec 0c 10 40
       -6.280804941933786 4.012622000016649
0003b0 26 7e 31 97 3a ae 2e 40 f1 ca ba 59 dc 33 14 40
       15.34029076079521 5.050645257974552
0003c0 8d 47 69 ca d4 7e 17 40 84 08 0e f8 9a e8 df 3f
       5.873858606982947 0.49857210373023286
0003d0 84 04 c2 49 26 5d 24 40 1b 08 a4 cf 93 62 06 c0
       10.181932740148348 -2.7981334897931567
0003e0 82 97 f6 30 c6 cf f6 bf ec 38 59 4d ea 44 1a c0
       -1.4257261192919661 -6.5673000417429925
0003f0 34 2e a3 fe 16 19 0e c0 fa 82 22 1b 78 f2 fb 3f
       -3.7622508901165705 1.746696573253017
000400 6d b8 3a 64 26 86 18 c0 43 d9 10 c1 d7 20 f9 bf
       -6.131005827030191 -1.5705182592042355
000410 7d 93 27 61 be d6 f9 3f 1e e3 67 37 2d 71 0f c0
       1.6149276537991846 -3.930262024743924
000420 ef 5e 8a 1b 17 74 e0 3f 42 5b 6b 8b b0 4a f5 bf
       0.514171174802838 -1.3307347723072813
000430 05 1f d2 85 6f 64 0f c0 9c 54 3b fe 50 d8 e2 bf
       -3.9240408377407925 -0.5889058080162104
000440 6d ab 02 61 34 43 cd bf e7 ef 06 16 d4 22 23 c0
       -0.22861342179143254 -9.568024338099304
000450 98 3a 86 e0 91 14 da bf 11 1f b8 a7 29 f3 0e c0
       -0.40750548292354827 -3.8687317946495416
000460 27 ad 1c 7f 8d 86 ef 3f b7 ad 46 5f 70 44 08 c0
       0.9851748926788887 -3.033417457909049
000470 dc a8 92 f1 62 6f 10 40 5a 69 2c 44 87 fa 0e 40
       4.108775877548592 3.872328312497456
000480 a4 90 ad 48 90 3b 15 40 5a d3 d5 c9 c9 55 13 c0
       5.308167586892669 -4.833777574230078
000490 1a 8f b4 76 e1 a6 e8 bf 19 3a f1 9a b8 3e 12 40
       -0.7703711813414629 4.561251088116955
0004a0 4d c0 56 8d 69 f8 20 c0 82 2a 2b bf c4 26 06 c0
       -8.485180298652404 -2.7689299521492226
0004b0 fc 73 8d 64 41 0c 2a 40 b0 ee 67 d6 be 5a 31 40
       13.023936407344074 17.3544744495145
0004c0 e1 47 7a 07 b9 c6 07 c0 49 82 bd f7 a8 71 f4 3f
       -2.9720326027099735 1.2777490308145778
0004d0 63 3e d7 d0 3b 99 f6 bf 5b 3f 30 c1 9b d9 21 c0
       -1.412410560402258 -8.92501643861731
0004e0 2a db d6 c3 12 b4 f6 bf d0 f4 ac 33 9d e6 e3 3f
       -1.4189632081958714 0.6219011315621632
0004f0 58 eb ff 1b 37 f9 fb bf 26 15 8d d8 1a 27 0f 40
       -1.7483435720193565 3.8940941732459065
000500 f2 e9 35 1e e2 ea f6 bf 54 b1 d5 47 a9 23 fc 3f
       -1.4323445491887665 1.7587063604397217
