examples/es/rl/logs/0/441365315/trained_param.npy (npy, 1424 bytes, 1 tensors)

array f8 [162]
-8.58189185003839 -1.0022799267814448 5.179875623523748 -1.5733461510368996 7.471411412026987 3.881861070270948 -0.29498446905531933 -0.005134093371313209
-3.8440269063060475 -14.446810801456909 5.52879433745528 -12.38264273016759 -12.268101932397098 8.445390270579242 11.291879182405417 -18.081495708276226
26.101750009570473 3.459459136898838 -12.922597399532954 52.54040320260929 -38.073946144258976 -14.666352493611209 19.068682289708157 1.5062858424679135
18.503679254870576 -24.437334656454333 -0.21032096220568053 -9.390315391195267 8.3683316183949 -1.5746218199356599 19.51929170769142 24.97427309986323
12.417734503970088 7.18673909008198 -4.7764431186705245 -36.53859834677697 22.269036408015435 13.512652859700223 -25.711846437992296 -1.4427065821670972
2.7277404122142115 2.3525859356524927 21.224605299482118 -26.71048980237231 6.077467646181443 -6.060939062369473 14.670350326326044 -3.440929719001634
-21.543314766643388 0.3830869864730784 6.996449238586026 26.40422926874864 -43.535546446670544 -30.62072536717261 -11.764396615804895 13.21384563182745
11.325610399425809 16.581480934140664 -29.980636579260484 24.51182244987604 -14.347574268318919 11.368335018699076 -8.696537520575927 -15.1951197038679
-29.671634468189474 3.595769315005578 -2.5464452740766217 -3.208406875085453 -10.100601659087616 3.0319100692209267 -6.183217905630591 -27.43039098611269
-10.11863623703968 15.993312770227046 -14.077380203224925 18.95259779307622 -2.387895875769276 -1.2637591375890738 -9.73518187952823 9.721739922509478
-2.1063603483333635 3.0709628993183875 -9.979058195722097 -10.123118327401613 -9.785490489379102 -4.983440948824171 3.9270444130989133 3.897050933616962
-21.765546072900285 13.300432660967322 4.083265815466009 26.147341843768753 -9.028529326332457 -27.06057737348924 -7.338190387996163 -13.013919711868326
7.283540149346849 4.471228111356197 33.10761767392905 -10.190681882542842 -2.7923772805190814 -15.23032649679661 25.489453107461927 -52.87909869187686
7.71688384682791 12.748777734639825 4.412271496456544 -21.491848044037756 -13.448056843246283 4.227140221816183 16.460123824912795 7.464879974598162
-28.586353338235092 13.567649856145923 39.12487886165386 -4.119236024754657 9.46412693334252 -20.691904827624036 -29.252038390327872 -8.00907712954091
-26.270148726952772 3.1556235503586167 18.74909909799675 5.385419358848388 0.9154943704074796 29.205351922826686 11.31700554390472 11.771379913730376
-33.63104486495433 -4.289046008741741 14.378634564367305 3.2240424936676217 -30.06253005983532 -0.9208408173274212 -16.406045913890527 72.96858896678881
6.0715214814611675 -7.5140898948977375 -4.996722623212441 -32.92064289311363 14.597937992502109 -14.228403047384614 16.923899080545233 -7.0674429928369
3.3392484958570208 -8.790878877042744 47.66300314275471 15.478046920662672 0.009280491231063615 -6.4261070577685775 4.432382799056955 -10.22862277153783
6.7917706107087845 0.167966951505222 8.286399850372316 -4.862800794952666 -11.957381396063191 19.112184156071276 -3.966431230908247 -6.3799245144579
-3.701740505583805 -10.437723460166852
00000000: 9972 83ba ed29 21c0 d36a 2fad 5609 f0bf
00000010: 4787 c150 31b8 1440 f9da 7f03 6d2c f9bf
00000020: e777 56ac b9e2 1d40 2a6f 432d 0d0e 0f40
00000030: cfe9 da89 06e1 d2bf 808b fdb1 7c07 75bf
00000040: 6e3a bc2d 91c0 0ec0 9283 a762 c4e4 2cc0
00000050: bfb8 4643 7c1d 1640 703e 78bf e9c3 28c0
00000060: a647 0fa8 4489 28c0 5a30 8c31 0ae4 2040
00000070: 04a1 2d30 7195 2640 8dcf 19e7 dc14 32c0
00000080: 0e79 e349 0c1a 3a40 94a1 76e9 f8ac 0b40
00000090: c4bc b4af 5ed8 29c0 27ee a0ee 2b45 4a40
000000a0: f9a0 3711 7709 43c0 1d56 6f27 2c55 2dc0
000000b0: 661c 9c29 9511 3340 6d3d fd2e bf19 f83f
000000c0: c057 a71f f180 3240 f6e0 fe29 f56f 38c0
000000d0: 5817 2b1b cceb cabf 459e 406b d7c7 22c0
000000e0: 7d2d 3ef6 95bc 2040 0a11 43a6 a631 f9bf
000000f0: 5f9e 254d f084 3340 fd48 3df6 69f9 3840
00000100: b4ec 014c e1d5 2840 ca25 3388 38bf 1c40
00000110: 9c93 a7e7 131b 13c0 1b8b 66ca f044 42c0
00000120: 0fdc ed91 df44 3640 073a 856f 7a06 2b40
00000130: 75f3 7291 3bb6 39c0 1d1b 427f 5315 f7bf
00000140: 3380 b390 69d2 0540 9241 3593 18d2 0240
00000150: b3c8 9fbb 7f39 3540 a154 e1a8 e2b5 3ac0
00000160: bc63 bbad 534f 1840 03b4 3fcf 663e 18c0
00000170: d8dd 7028 3857 2d40 6892 1729 0687 0bc0
00000180: cf2a 32ad 168b 35c0 4834 9b47 7f84 d83f
00000190: 8267 6f30 5dfc 1b40 855c c191 7b67 3a40
000001a0: 31f8 34c9 8cc4 45c0 d0cd 8fdb e79e 3ec0
000001b0: 361c 44fe 5e87 27c0 c62e b62c 7d6d 2a40
000001c0: ee8a 0168 b6a6 2640 b661 3bef db94 3040
000001d0: 622f b5ff 0afb 3dc0 8193 cbcb 0683 3840
000001e0: c6b8 2641 f5b1 2cc0 7391 5668 96bc 2640
000001f0: fe9e de90 a064 21c0 eed5 d5ba e663 2ec0
00000200: 7abd 8b3c f0ab 3dc0 3446 dfb3 22c4 0c40
00000210: e9b3 29b3 1e5f 04c0 5407 4639 d1aa 09c0
00000220: c868 870f 8233 24c0 5ebc fd10 5a41 0840
00000230: 67e6 8279 9dbb 18c0 e2d8 891a 2e6e 3bc0
00000240: 7069 8ce3 bd3c 24c0 0ea6 cd7d 93fc 2f40
00000250: f36a c460 9e27 2cc0 0f81 ef72 ddf3 3240
00000260: 6475 2527 691a 03c0 b475 5f80 5b38 f4bf
00000270: 025f 62c2 6978 23c0 a4ca 26e5 8771 2340
00000280: b676 4d74 d3d9 00c0 1e6a 1eff 5491 0840
00000290: ac03 a71d 47f5 23c0 d074 8b5d 093f 24c0
000002a0: 9167 36cf 2b92 23c0 f4fc e224 0bef 13c0
000002b0: 4398 e142 966a 0f40 55d9 350a 292d 0f40
000002c0: 1eb0 d2d3 fac3 35c0 8302 4b4f d299 2a40
000002d0: 8334 49a2 4355 1040 b351 f031 b825 3a40
000002e0: 4e26 5765 9b0e 22c0 8d03 aeff 810f 3bc0
000002f0: 6f0f c194 4e5a 1dc0 087d 067c 2007 2ac0
00000300: d130 5259 5822 1d40 40ec 3c9f 89e2 1140
00000310: 99ff 7a6a c68d 4040 25ec 420e a161 24c0
00000320: 0b62 4fe6 c956 06c0 9249 c65a ed75 2ec0
00000330: 7c79 81cc 4c7d 3940 a4c8 514e 8670 4ac0
00000340: 4ea0 94cc 16de 1e40 8580 94cb 5f7f 2940
00000350: 546a c97f 2aa6 1140 65be dfc0 e97d 35c0
00000360: cbfb e0b4 67e5 2ac0 0d3a 4172 97e8 1040
00000370: 631c ccac ca75 3040 90db fd7e 09dc 1d40
00000380: c29e 9b40 1b96 3cc0 a273 7f00 a322 2b40
00000390: ed61 d107 fc8f 4340 214e 2b02 197a 10c0
000003a0: 3ccc 9f0b a2ed 2240 fa96 beac 20b1 34c0
000003b0: 71cb 8396 8540 3dc0 1e0a edc1 a504 20c0
000003c0: 7551 8b77 2845 3ac0 aa38 5a8f b73e 0940
000003d0: f15b 5ff5 c4bf 3240 18ff 555f ab8a 1540
000003e0: c04f 92d9 ba4b ed3f 1ab6 90f1 9134 3d40
000003f0: 6471 f78c 4ea2 2640 cb86 dc4e f28a 2740
00000400: d0a4 0014 c6d0 40c0 2657 4aad fb27 11c0
00000410: 812f be63 dcc1 2c40 d9bb 79ca d6ca 0940
00000420: 7702 52f8 0110 3ec0 2ac8 6729 8777 edbf
00000430: 91d5 00a0 f267 30c0 f6e7 935c fd3d 5240
00000440: 4759 5fed 3c49 1840 d128 d794 6d0e 1ec0
00000450: e785 f7da a4fc 13c0 e39b 56a0 d775 40c0
00000460: 37aa b5ed 2432 2d40 b6a5 853e f174 2cc0
00000470: 0abf 6fa6 84ec 3040 bd50 a2c6 0f45 1cc0
00000480: 8062 57ea c7b6 0a40 d8fd 7f13 ee94 21c0
00000490: 6ba3 7749 ddd4 4740 3d66 e490 c2f4 2e40
000004a0: a038 a072 a601 833f e2d7 9668 55b4 19c0
000004b0: d335 758e c2ba 1140 71c0 3d0b 0e75 24c0
000004c0: 74b6 3bea c52a 1b40 200a c3e9 f07f c53f
000004d0: 56db 4d00 a392 2040 5523 350d 8273 13c0
000004e0: ccc7 f3e4 2dea 27c0 9b74 d119 b81c 3340
000004f0: ebab 144c 40bb 0fc0 732e 92ee 0a85 19c0
00000500: 6c16 4e20 2a9d 0dc0 9937 144a 1de0 24c0
