examples/es/rl/logs/0/441365315/trained_param.npy (npy, 1680 bytes, 1 tensors)

array f8 [194]
00000000: 0c32 747e a58e 18c0 7401 77ce 55e7 db3f
00000010: ed69 90a8 19b8 1340 a8a6 0bb4 cee0 f0bf
00000020: aaec edf1 a071 1e40 6aba 1db1 51d5 ee3f
00000030: ee0d 074b 2896 1240 37c4 5274 b1e9 08c0
00000040: 1e41 9a3c 27f2 ecbf 849c 91c0 aa76 e13f
00000050: 52c7 519d 62e1 edbf 8cfd 49ea 389f ec3f
00000060: 93e3 1c92 c43c f4bf 1b60 01fa f9a4 0240
00000070: 9ec8 83b2 d1db febf 08e7 2bcf ac85 f8bf
00000080: 834d b0aa f81b 1c40 fb43 149b 0f65 fd3f
00000090: 8a07 2f25 2c2e 10c0 3ee7 101c cfbc 0640
000000a0: e512 7e9e 5730 0640 150f 7b9e fc84 f8bf
000000b0: 3c8a 696d 5527 00c0 bc6a 2187 8ae2 edbf
000000c0: 494c c469 6b75 0040 9b34 9df1 1275 f9bf
000000d0: 0024 0f3c 213a f93f d6e5 87a9 515f 2040
000000e0: 260c 46be 5d0b 17c0 2d8e 5b27 08ae 11c0
000000f0: 8223 4e1c 3b9d e0bf 8357 c126 939f 13c0
00000100: c570 1043 6f23 0140 59ab 37dc f186 d33f
00000110: 73cb 18b6 f98d 1340 d618 4096 8f51 d1bf
00000120: 6ad3 a928 b0b5 f53f a4e4 704b 6ae8 d73f
00000130: f386 d434 bfc2 0dc0 6c0e b773 7201 0bc0
00000140: add8 39cf fe62 ff3f 28a1 422c f850 0840
00000150: 82b0 007b df27 06c0 8aab 0d30 9192 1140
00000160: e90a 5843 6a2b e73f 9bc9 11aa 62fb fdbf
00000170: e5d4 e6b2 90d8 fabf c0fe cdf5 14b9 f6bf
00000180: 5ea8 c42d ad67 08c0 6c60 d138 fb15 0640
00000190: 4cc6 b178 10a3 e53f eef4 8c15 5777 1440
000001a0: d474 b4c6 ab12 11c0 b635 ac5e da77 eebf
000001b0: 55dc 8afb 0f3d 12c0 16c6 08e7 5d91 03c0
000001c0: 4ddf 97d2 8813 e3bf 8261 bb4d cf82 f3bf
000001d0: 548a f134 9095 d83f b292 b918 6e22 06c0
000001e0: f1a2 f8dc f86c e1bf 8f4c 85b4 322b df3f
000001f0: 9478 5c4e f288 df3f 2652 8383 da2a dabf
00000200: 265c 740f db33 01c0 ca27 ed51 a630 f93f
00000210: f854 dd30 ee5b 02c0 28b5 b7d8 ca97 1040
00000220: dfda 0631 d941 ebbf 70b2 45d3 8ad3 aa3f
00000230: d493 c893 961a 0d40 d445 db1e ca58 0640
00000240: dccb f8ae ea54 16c0 6338 c9c1 8475 1040
00000250: f7b8 1ba3 c800 1240 e671 4a22 3044 f6bf
00000260: 663e e5b4 af46 0340 3daf 67ea c242 ccbf
00000270: d015 2428 3331 e03f 6656 63bf 4c88 e3bf
00000280: fc59 abe5 da83 04c0 1c1b 017f fb56 fcbf
00000290: 88d5 dc45 2af5 d0bf e40b 79cb fc15 e83f
000002a0: 1cbc 31ff 60ef 1740 4a9b 4cd3 b1a4 18c0
000002b0: 4102 3891 785b 04c0 4e1e 6072 5883 ddbf
000002c0: e227 e38e b1eb d5bf c851 fcda eeba e93f
000002d0: 320a e7d6 dec5 14c0 b6e5 4c60 99a2 19c0
000002e0: 7e7d 9529 d720 f9bf 92d0 8635 4cca ecbf
000002f0: 85a4 1ccf 5ac5 09c0 0051 9fc4 bb8c 85bf
00000300: 8fc3 6598 e298 0940 0bb1 fec1 c9e4 0140
00000310: 7e05 b761 1949 e03f a32b aec7 dc1d 0cc0
00000320: 14ce 8e4c 49f1 f53f bc77 6a34 bd47 0140
00000330: 46ff 384a 1946 dbbf a3fe 45f0 c44e 10c0
00000340: 0ab5 fe53 77a9 bdbf ce94 2e64 077f 14c0
00000350: 36ea 97fd bb3b fe3f 179d 23c3 8a89 d6bf
00000360: 1a81 ab40 f3ec e53f c66e f436 1290 0140
00000370: 64c6 a22f c84b 0640 a627 d371 c35f 1cc0
00000380: 184c f9ac 8016 fcbf 5cd1 1b27 8dae 0cc0
00000390: fc21 cee8 0fef 0fc0 b951 8397 be35 1a40
000003a0: 0b1d 0b45 2d83 0ec0 ef7e 6456 89c1 e73f
000003b0: 8f52 f249 78ee 05c0 82e4 43f1 59cd f13f
000003c0: 5267 79c0 8424 ecbf 68ac 886a e52a 0bc0
000003d0: 0a2d fc97 be7a edbf 0a25 d7f0 d5d7 11c0
000003e0: 1529 d80a dd93 e7bf b7d5 97b5 3380 d4bf
000003f0: c583 6972 a9e3 e4bf 1f30 6198 4222 f83f
00000400: 4a0a 9f7b d86b e13f 75ab e39d 22bf f13f
00000410: 4715 b238 46a3 eb3f 7bf5 621c 017a fe3f
00000420: cfcd eae7 6e75 ab3f 80f0 9845 7c11 0440
00000430: 3fd8 8741 a4a8 efbf 7cfe 2abd bf0e 1540
00000440: 5ec7 b9c6 0797 f9bf 8b1c d008 c642 fbbf
00000450: 13e4 5801 5901 eabf aef1 cee9 bf4f 0fc0
00000460: 4d33 4850 b77e 14c0 ee37 764c e665 1840
00000470: 3fac 975f 0d3f f4bf ca0a edc5 02dc e0bf
00000480: eee1 70bd 7164 d23f f7f5 d029 56cb f53f
00000490: e9e9 8327 78d5 cfbf babd 538a b5b2 06c0
000004a0: 92b9 04ed 435b d6bf 821b e873 1448 17c0
000004b0: a337 fc4d 2041 fdbf 957e 8de5 a18f 16c0
000004c0: 67cd 9279 497f 0340 3246 f40c 905a f13f
000004d0: 4f46 2c72 c64d 11c0 3b96 d182 11a9 c1bf
000004e0: 9948 d24c b4da 13c0 2d31 8600 78ce f6bf
000004f0: 6ad7 44e8 69f5 d73f 6422 70d7 8983 d2bf
00000500: 2256 effd 94c4 16c0 4eb4 4083 dc00 03c0
00000510: 0a9b 2142 f918 0fc0 4e1f a308 18f9 f93f
00000520: 0e79 23ba 35f8 f23f e628 fd8f 1129 04c0
00000530: c126 f6bb 5166 05c0 a85f 5726 1aa0 a23f
00000540: 2483 bfce 2642 d93f f29a 1986 decd ea3f
00000550: 70bc de4a a837 1240 3970 c7f6 1807 e73f
00000560: 3c9f c8c4 750e 03c0 78b0 18fe 7e1d ccbf
00000570: 04a2 4307 81dd f13f eab3 9ac1 5b35 09c0
00000580: ee22 8c15 d7b4 fd3f f6fe 1d0d 74a7 e83f
00000590: 0ada b1ad a5e0 0d40 8192 33cf e183 00c0
000005a0: 2ea7 5f34 2343 8fbf 2f84 364d 1d5c 0340
000005b0: a7f7 1cdb cbe3 0240 8305 77e4 6542 e63f
000005c0: 5a10 a697 c1ca ffbf c7a5 d660 2227 0840
000005d0: b8cb 9f81 4e21 01c0 bb85 2b9d 4b1d e03f
000005e0: a8e1 3da7 b7c4 d43f 9ad5 5c3b 8f53 1b40
000005f0: 9bc0 cbc8 be15 fd3f b407 d865 4eae 0bc0
00000600: 74ab 2990 ada7 e83f 90c9 a81c b8de ed3f
-6.139303184358607 0.43599457895836413 4.929785379232709 -1.0548846276309778 7.6109655190913745 0.9635399302768068 4.646638080888335 -3.114107998634178
-0.9045597251552271 0.5457357178792255 -0.9337628433843099 0.8944363189656754 -1.264835901978789 2.3305549174947493 -1.9286667798265067 -1.5326355068813786
7.02731577588145 1.837173085954645 -4.045090275760126 2.8421919052751994 2.7736046201920197 -1.5324674788143444 -2.0192059085686918 -0.9339039458530674
2.057333780577697 -1.5910825193452982 1.5766918512401844 8.1861699083701 -5.7610997896436285 -4.419952979052636 -0.519193225177432 -4.905834775496149
2.142302059115624 0.3051113749085537 4.888647885573721 -0.2706030814446313 1.3568574512875906 0.37356049887928067 -3.7200912597044122 -3.37570658113855
1.9616687865032347 3.039535852225658 -2.7694692239365972 4.393131972154956 0.7240496936140889 -1.873873390516201 -1.6778723705622778 -1.4201860048050747
-3.0506232810630953 2.760733074083012 0.6761553151429296 5.1165431372912575 -4.268233399166281 -0.9521304940296236 -4.559631281233199 -2.44597988601232
-0.5961345780515132 -1.2194359814076 0.38412861986413316 -2.7668115550644297 -0.5445522609562358 0.48701160077070765 0.49273355152571097 -0.40886557429374404
-2.1503201682458153 1.5743773651361033 -2.2948879067940844 4.148234735691666 -0.8517881352953188 0.05239518956191069 3.637982515867842 2.7933542643229234
-5.582926496444056 4.114764240175734 4.500765369956063 -1.3916474666103738 2.4095148212871207 -0.22078739591176513 0.5060058387759288 -0.6103881586120223
-2.564382356921895 -1.7712359391313788 -0.2649636919262197 0.7526840185240613 5.983768451128551 -6.160834600020118 -2.544663557550195 -0.46114169282416106
-0.34251059488144453 0.8040689732611606 -5.193232877589752 -6.408788208669128 -1.5705176948902984 -0.8996945424501226 -3.2213646107307476 -0.010522334039628323
3.1996509462409857 2.236712947449751 0.5089232357496909 -3.514581260683785 1.3714077940502465 2.160028848170411 -0.4261534905272025 -4.076923136016975
-0.11586709786088903 -5.124051633208365 1.889583578681266 -0.3521448999076297 0.685174585636591 2.195347241720671 2.7870029183912255 -7.093518999588843
-1.7554938084401837 -3.5852301650394747 -3.9917295635134433 6.552484862699594 -3.8140511888519817 0.7423750579218601 -2.741440370280834 1.1126346039220896
-0.8794578322660789 -3.3959453890761786 -0.9212334602792975 -4.4607770568193335 -0.7367997371486888 -0.32032482846929206 -0.652790759526504 1.5083642914132793
0.5444147505261949 1.1091638724853656 0.8636809451424278 1.9047862156724864 0.05363031941433471 2.508537811021654 -0.9893361358542804 5.264403300999785
-1.599372650406131 -1.7038021415953917 -0.8126645113289918 -3.913940264347011 -5.123746160895121 6.099511332240565 -1.265393613250822 -0.5268567910901194
0.28738063335506936 1.362142718643893 -0.24870206765611094 -2.837260323219849 -0.349320394004189 -5.820390521089282 -1.8283999487207232 -5.640266024361741
2.4371518609929583 1.0846100336097035 -4.325952323868093 -0.13797205817825095 -4.963578415236179 -1.4254074116207207 0.37435386354933675 -0.2892784694563828
-5.69197460912031 -2.3754205946084204 -3.887194172525942 1.6233139359846578 1.1855981131589632 -2.520053028977702 -2.6749605831617775 0.03637773244889725
0.3946625727676738 0.8376305216923738 4.5543529222915 0.7196163959411087 -2.382060563442705 -0.219650148458985 1.1165781291730363 -3.151053917440085
1.8566504327483773 0.7704410797304877 3.7346910066510235 -2.0643955409635173 -0.015264773402993006 2.419977763391692 2.3612286680426737 0.6956052267270681
-1.9870010303284489 3.0191085401063193 -2.1412630202189256 0.5035760946013207 0.324506676980969 6.831601073781167 1.817808899268164 -3.460110469489303
0.7704685035399579 0.9334374007942632
