examples/es/rl/logs/0/924231285/trained_param.npy (npy, 1424 bytes, 1 tensors)

array f8 [162]
00000000: 7474 8358 2f20 19c0 10bc 5ea3 9f7b 03c0
00000010: 9637 6400 f3d4 02c0 b656 50f8 fcb8 10c0
00000020: 1cd6 9d5e fdc9 1140 4db3 3b39 6eb6 11c0
00000030: 8258 e2a8 3cb4 1bc0 3ee4 7354 d762 1840
00000040: ea09 65e0 2bc1 0a40 90f0 6de7 3bae 12c0
00000050: 11d1 6dbc ee75 04c0 89d3 ca57 b1c1 1340
00000060: 2106 6bfa 3f90 1440 bfe8 4ad6 9025 2940
00000070: 20a9 fb5d 4b81 f5bf a57c a967 ed8b 1140
00000080: 1689 8be0 30fa db3f 08d5 42d7 358e 0cc0
00000090: a25e 7bd0 9562 03c0 3cc7 e13a 12e8 1240
000000a0: 2e80 5d59 6701 0a40 e040 bb2c 34db 1bc0
000000b0: 3b53 1f70 f3bc f93f d4b7 38b3 4b9e 1dc0
000000c0: ff05 e210 f609 0b40 f91c 08cb 0b07 12c0
000000d0: 6cda 01e8 9f80 e3bf 2ed9 246b 09f3 f33f
000000e0: 0df2 6425 aa7a 0d40 2b7a d4c3 881d f73f
000000f0: d800 eeff 70b1 cabf b246 bdeb d6d7 f93f
00000100: ab11 b512 f223 2140 9226 15d3 d2bc 1bc0
00000110: 7128 3993 ef0d 17c0 3e31 9205 ed32 fa3f
00000120: 0312 1d2d fb5d 11c0 22a3 e3cf 7875 1bc0
00000130: ce17 1aa8 3177 0540 74d1 dff1 ae56 1040
00000140: b36e 91a1 fa03 e4bf c212 d8f0 b4ec 06c0
00000150: 2564 8e46 decc 07c0 5aa1 b4c2 ee1f febf
00000160: 7cf9 48ec de5f 0bc0 abeb cd76 0ce7 2040
00000170: 7abb 9614 22da 0d40 e6b7 f79a f8d5 d93f
00000180: 9f83 2dc4 1809 11c0 ff12 4ad2 cf82 0240
00000190: de82 e98e d867 0240 47c7 62f0 fb8a 0dc0
000001a0: 8810 b5f9 f198 c03f 981c d69c ac89 0f40
000001b0: 70d3 c278 7c54 a2bf 5738 5c5e 5845 1040
000001c0: 8772 3827 1b01 fc3f 3830 e7bd 7dea 1940
000001d0: d4af 05aa e834 28c0 a8dc 80bd 2114 2240
000001e0: 6ba4 7f76 cca2 0840 e8f1 3111 9c99 1340
000001f0: da65 8de6 85ee 17c0 4833 5c21 ce68 1cc0
00000200: 2373 13ef 8120 2b40 29bf edb1 e0bd 2340
00000210: 9903 16b8 cba9 0d40 8654 079c b724 0ac0
00000220: fe19 eb2b 8417 0840 4674 b11c 380c 1140
00000230: 4c0c c1cc e73f 1040 fc91 1525 17b2 0e40
00000240: 808c 192f 171b 813f 48e2 74b3 f125 1dc0
00000250: 9e0b 56c2 6d2c ff3f 0f35 dfe7 376c 1ac0
00000260: 20c9 662d 04dc 04c0 d5f0 b2f0 38e0 f53f
00000270: fef6 2f13 feb9 19c0 a3d9 6a1f cc41 f83f
00000280: 2e01 6be1 6aac ed3f a40a 36af 60ab 0640
00000290: e03a 3b11 abe1 bbbf 9608 1a00 47f8 1340
000002a0: 5b84 232a 4035 2a40 a125 35f4 2938 fe3f
000002b0: 2ac0 e77a 978d 0bc0 98e5 78e0 229c fe3f
000002c0: 4818 55da 4ab9 e63f 2804 19c9 acee e8bf
000002d0: 1cf8 d936 bdea b9bf 62f9 ca7b a596 1040
000002e0: f06a 7def 045c 09c0 b85c c2bd 753f 1640
000002f0: 7ad8 c37e d96b efbf c576 dcd1 3de3 ff3f
00000300: 6eb6 a164 41bf 0840 ecce aa2b 7e94 fe3f
00000310: 3ca4 9c79 7f83 05c0 5a20 099d 2b03 1240
00000320: 22c9 a4ca a12f f0bf fcae 7e6e 3896 06c0
00000330: 4eab f2b6 00c7 15c0 24d0 70ff 1980 0340
00000340: 97eb 9679 a3d6 08c0 b9a6 b975 36c8 1b40
00000350: f851 e780 c725 f4bf a308 ba5f 489c 0d40
00000360: 5ae6 6a5b dff0 04c0 b02d 28f7 f80e f73f
00000370: 32a9 d6e1 cc64 e63f 21ee 6761 9535 01c0
00000380: 9c51 4fba 9444 c3bf fa6c 4288 cf76 0640
00000390: 3b2a 2766 018b 00c0 f083 1cbe f219 e03f
000003a0: b446 2d3f 3bbc 2640 192a 7d99 491a 22c0
000003b0: 3631 c827 a0d9 28c0 08cd d005 a77b cbbf
000003c0: 91e9 9da3 c66b 1440 4c17 3dbf d23d e9bf
000003d0: 5e41 6954 ef5b 21c0 f828 f4f3 25ac b93f
000003e0: 446e 9111 40a7 ca3f 1248 c8e2 e504 1140
000003f0: a7eb 72f2 739a 1540 076c 9bea 4404 1740
00000400: 127b 689d 6d7b 0c40 70b6 5dbb 1294 d7bf
00000410: 0299 2853 fdc3 f53f 3e4f 22d9 a992 0ac0
00000420: be7e 0b5b 0202 e8bf 25e1 04a0 59d5 fabf
00000430: 20ff cca0 5627 bfbf 7bfb 4f54 6a94 f33f
00000440: 023b a8bb 9a47 edbf be4f 77ac 6710 00c0
00000450: 3043 e13e 9779 d0bf 45c9 1299 744f dabf
00000460: 2a13 1764 f7b7 fe3f e488 9e32 63d2 f5bf
00000470: e829 c796 f2fc 0fc0 4780 4623 1d3b 0940
00000480: 8082 d6c5 2cff f8bf 3cc1 4f83 abfe 01c0
00000490: d806 73fb fcfd bc3f fe01 6c0a 5bc1 fe3f
000004a0: 594d e616 d167 2dc0 09e3 73f0 d98c 1540
000004b0: db73 3b2a bf3f 29c0 26a7 ba0f f7ed f2bf
000004c0: 4e14 36b5 d127 e1bf a84f ef58 f891 18c0
000004d0: 1062 55e6 41e2 b2bf c5ea 1d9c a25b 0540
000004e0: e609 301d 590d 1c40 3601 5e17 152e 1040
000004f0: 40d9 10b8 5f28 0440 fbd5 3d61 3876 e1bf
00000500: f8b9 16ed 8cb7 ef3f ce44 8536 27b1 0140
-6.281430609725351 -2.435363079384395 -2.353979113634476 -4.180652503875242 4.447255590804641 -4.428154844540427 -6.926012648406074 6.096524543355427
3.3443219691118786 -4.67015039070624 -2.557584259129847 4.9391530721230845 5.140869057447646 12.573370644230065 -1.3440660163128726 4.386647815436992
0.43714544227818075 -3.569438630797439 -2.423137310757583 4.726632041960155 3.2506854039820814 -6.9640662183084885 1.6086305980472406 -7.404585647904202
3.379863864801109 -4.506880924577893 -0.6094512492553128 1.2468351540861238 3.6848948403769612 1.44471050735559 -0.20854008194510842 1.6151951988762616
8.570206245997573 -6.934397981801924 -5.763609218944212 1.6374330728168185 -4.341778473758043 -6.864718673962473 2.683200181289954 4.084651736531999
-0.6254857211710799 -2.8655794921818094 -2.975033332081255 -1.882796059197139 -3.421811910607344 8.451266968380727 3.7315103157520157 0.4036847604137378
-4.258883538511241 2.3138729504447606 2.3007060208332026 -3.69286334802101 0.12966751759279682 3.9422237637368873 -0.03580082868703627 4.067719911936442
1.750270035939282 6.478995291934602 -12.10333758658809 9.039319917659967 3.079491544504483 4.900009411500356 -5.982932665233841 -7.102348824741803
13.563491316913831 9.870854912063423 3.707908094569984 -3.267928332303714 3.011482565986852 4.261932800608582 4.0624076836421175 3.8369582078178137
0.008352452397224264 -7.287054828652408 1.9483468619589313 -6.605682013510218 -2.607429842662114 1.367241802435321 -6.431633281519451 1.5160638072244204
0.9272970583624891 2.833680504643171 -0.10891217394530939 4.992458345021211 13.104005162082265 1.888711885391196 -3.444136581609219 1.9131191986510654
0.7101187004379961 -0.779135124939903 -0.10123808468958412 4.147115644706306 -3.16993128873343 5.561972584712912 -0.9819152332190832 1.9929788778021458
3.093386446175649 1.9112531381369378 -2.6892079831054883 4.503096059495954 -1.0116289058465289 -2.823349822274279 -5.444338663636541 2.4375495868971644
-3.1048039912397587 6.945520247894529 -1.2592234645172748 3.7013099173210136 -2.6176135198591455 1.4411554007118461 0.6998047266872958 -2.1511638269273736
-0.150530425044633 2.8080130238791954 -2.067873762197704 0.5031675065148402 11.367639517094496 -9.051342770127166 -12.425050013721016 -0.21471107276884305
5.105249935639578 -0.7887967810754417 -8.679560315941384 0.10028302389051535 0.20822907312218508 4.254783194994177 5.40083292795581 5.754169145332532
3.56026766753292 -0.3684126691576699 1.3603490112669196 -3.321613022193474 -0.7502452638836627 -1.6770874262566136 -0.12169400621223447 1.2237342160658204
-0.9149907746485442 -2.008010241881464 -0.257421313673194 -0.41109957645962353 1.9199136647959656 -1.363864133578823 -3.9985095767526566 3.153864169682524
-1.5622985580486386 -2.24935057246344 0.11325055254840366 1.922205963812416 -14.702767100918821 5.38755012233083 -12.624505347974198 -1.1830969442766643
-0.5361107386858153 -6.142548932653803 -0.07376491425873888 2.66974374738979 7.013035255486534 4.045002331841081 2.5197138195173068 -0.545681180882354
0.9911560660019054 2.2115005740566636
