examples/es/rl/logs/0/924231285/trained_param.npy (npy, 1424 bytes, 1 tensors)

array f8 [162]
0	0xbffb90dd46a05157	-1.7228672751271767
1	0x3ff8df411d48f888	1.5545054573008503
2	0xbff0db19748f6a7a	-1.0534910729535611
3	0x400f954f16004c9a	3.947904750713474
4	0xbfd3b35f163140c7	-0.3078229634020428
5	0x3fe6992adf736e25	0.7061972011828784
6	0x3ff6472f75733243	1.3923792446031633
7	0x400103f444ac8c02	2.1269307484776627
8	0xc01141f4bfbf3f79	-4.314410205886696
9	0xc0186bc784cb1ce4	-6.105253291031861
10	0xc01b5c0adf9a6a02	-6.839885228919686
11	0x400a3b9a33a57668	3.279102710234657
12	0x4012a18c24e4131c	4.657761169834682
13	0x4023e761e953b7d4	9.951918879956715
14	0x40164401b2ea8da3	5.566412730756755
15	0x3ffd2e8231869331	1.823854630908681
16	0x40057d6bf2307daa	2.6862410470054856
17	0xc0229b415cebab3d	-9.303233054893662
18	0xc00b8f75d8433fe8	-3.44504898982267
19	0xc0192c5c6aa7f97d	-6.2933212914489305
20	0x40159d6face4c6c7	5.403746320212753
21	0x4012cb41feed1d31	4.698493941519062
22	0xc02b87251b3fe186	-13.763954974697082
23	0xc0050bcea0d95f77	-2.630765205987639
24	0x40154ceb5112d209	5.325116411946973
25	0x3ff8ab3120801e4d	1.541794897990161
26	0x40105853cac75a90	4.086257141511524
27	0xc006eb66390e44f6	-2.8649410684089345
28	0x3fa5d700db6a62f8	0.04265597036755325
29	0x4016e17e937c7b1d	5.720209412071907
30	0xc00899533e8a64e5	-3.0748658071503194
31	0xc00943451a21be74	-3.157846645502838
32	0xc00f9564d1ca6308	-3.9479462041748583
33	0x40175484aab8ffb3	5.832537334004814
34	0x4019db7f09f7ada1	6.464351802579956
35	0x400de13f57e201fa	3.7349840989920695
36	0x40161e84009ab5bd	5.529800424044365
37	0x401e941c88a9042c	7.644640097919403
38	0x4007feb0b30db787	2.9993604649125163
39	0xbfefa8a4fe493254	-0.9893364874383885
40	0xc01aad6d3b7f19c2	-6.669362001068693
41	0x4012e5999764e5bc	4.7242187171299825
42	0x40153d49e501581f	5.309852197844548
43	0xc0013dfa87f83dc4	-2.1552630064613556
44	0xbffda754dbd4213e	-1.8533524119430491
45	0xc01366ad123406f7	-4.850269588876237
46	0x40172bc7aedbcad9	5.792753917851507
47	0x3fffed4f0c41ba56	1.9954367140559461
48	0xbfd779385f8db0cc	-0.3667736943377917
49	0x40131933b5009540	4.7746113092046585
50	0xc01f4e17cca251a8	-7.8262626623222005
51	0x3fcc0e39c9e16358	0.21918413503115164
52	0xbfe501744dd081b3	-0.6564275283636135
53	0xc01ff8d8b5d00f18	-7.9930141838301765
54	0xc00aa351ece38e19	-3.329746103949003
55	0x4011b460fa30722f	4.4261511890477285
56	0x400adf04bc968848	3.3588957532347514
57	0xbff511b8fb53251d	-1.3168268029570023
58	0x40109739a6b4cc83	4.147680859360778
59	0x401af00391ce606a	6.73438861677287
60	0x401e668c39aa8b15	7.6001442919103015
61	0x4025a039f7f6f0ff	10.812942265409673
62	0x40076eeb62b43dc2	2.92915989983132
63	0xc00ef45e808b2b12	-3.8693208734961297
64	0xc01680067dbc347f	-5.6250247617837195
65	0x401ed4164bf768f0	7.707116305328086
66	0x4008de7dd8d86883	3.1086384717028195
67	0xc005101cb4207760	-2.63286724781112
68	0x4005e5ab7cd4893e	2.7371434929238196
69	0xbfe4cfa93c527c55	-0.6503492525261075
70	0x3ffaaacdbc6d2a1a	1.6667001114279913
71	0x3fc80a4c4a0c314c	0.18781427016836927
72	0x4009dbfb1e9dd314	3.232412566367552
73	0xbffd01fcf91382d9	-1.812985394433943
74	0x401918c9ec57692e	6.274207775912414
75	0x3ff93d782ecfb3f8	1.577507193428799
76	0xc0015db990be87a7	-2.170764094175826
77	0xc018c6b15ad3cc74	-6.194035929848827
78	0x4023a0fb04bab34b	9.814415118971416
79	0x402637108f9085e7	11.1075482238693
80	0x3ff13a4b9f64bd58	1.0767322756108424
81	0x40103c770bd8c6d6	4.059047875505447
82	0xc01ba2e7350a5c23	-6.909085110432929
83	0xbfe6a3b1851111f4	-0.7074821089705083
84	0x3fff24e7c46fc502	1.9465100930504495
85	0x400584a0990ff362	2.689759441184308
86	0x40226ca07d858840	9.212161943960496
87	0xbffb2e0c5623479e	-1.6987422337301505
88	0xc0173451a7ec823e	-5.801092742739057
89	0x3ff2cd2c68534e19	1.1750911784373612
90	0x401f9c2ae5cacaf5	7.902507391455164
91	0xc01c5accdf0f0268	-7.088672147074796
92	0x3ff3aa8c85f714a8	1.2291379197134038
93	0x400c7648a2a4a307	3.5577557283871815
94	0xc01f7e14405a7fd3	-7.873124127887382
95	0x40145c6c94f4b16a	5.090257956919553
96	0xc01a83f6417a0b80	-6.628869078706771
97	0x4021097aec65e9c9	8.518515956345157
98	0xc026165d705bbb1f	-11.0436816322304
99	0xc021144d8353546a	-8.539653877183998
100	0xc01c21cebca3dcb7	-7.033015201093057
101	0x3fd28de882d91d54	0.28991139200339444
102	0xbffd7cc0de29e074	-1.8429573705925835
103	0xc00edb31f648a803	-3.857028888790411
104	0x40088e4b50d27c03	3.0694795908198116
105	0xc0088caffe78e25d	-3.068695056976408
106	0x40018a5186c2c3e4	2.192538311785471
107	0xbfea8e6847293668	-0.8298837079871193
108	0xbff2e8c2c52e325a	-1.1818263723718219
109	0x40234b62ec45d4bb	9.647239097141542
110	0xc01df09d60abcc0e	-7.484975347982084
111	0x3ff11281b23cd11b	1.0670182192234907
112	0xc0236d0c79bad689	-9.712985805566193
113	0xc00224128d64bfef	-2.267613510739458
114	0x3ffd7893dd5aed91	1.8419378897368441
115	0xbfe65a1fe27ea17c	-0.6985015319560683
116	0xc01a456a0c712cdc	-6.567787355811756
117	0x3fdfbf47f45e6cc2	0.49604987014908997
118	0x4009dbf1fc186b12	3.2323951430274827
119	0x400285736ac52255	2.3151615468416744
120	0xc0126de0bb496d23	-4.607302595478617
121	0xbfaa39f4b0e3aa36	-0.05122341784757049
122	0x4024bfdc61ab2a44	10.374728252548387
123	0x40157f7794cbdb5e	5.3744796037124996
124	0xc0142477a98d5744	-5.035612725497973
125	0xbfed8b54a953304c	-0.9232581431510964
126	0x4004f76a0b5f002b	2.6208077324263477
127	0x3fe0b8f21cb4cfb3	0.5225763855619249
128	0xc0140d086171cf1f	-5.01272728211532
129	0xbfee2a031194d8e4	-0.9426284163844483
130	0x4017c2714f587121	5.939885368130747
131	0xbff5b7673fd82325	-1.35727620066809
132	0xc0098b09ffab3995	-3.192890164769049
133	0xc004031f09b482d9	-2.5015240438664077
134	0x3fcec49bf573400a	0.24037503704903457
135	0x3ff16f8b9641d695	1.0897327298565973
136	0x400f8bd584657ad6	3.9432783454388796
137	0x3ffaf12fd44651dd	1.6838835041027018
138	0x400457e5772066f6	2.542918139149033
139	0xc00c7e92c71330bb	-3.561803393624442
140	0x400a60744733c033	3.2970967829387745
141	0x400cd58d69fbdb20	3.6042736320481623
142	0xc00afdefd1ee8f94	-3.3739925766876215
143	0x40176195c37dad9a	5.845297865434441
144	0x401383fa4775729e	4.878884426635208
145	0xbfff72feddee9199	-1.9655750912871552
146	0xbfcdab3eafc2441d	-0.23178847867942035
147	0x4000d02d10a625ac	2.1016484547332848
148	0x3fed3c71ced8e37c	0.91362848663185
149	0xc021f3aaf8ba661b	-8.975913784745947
150	0xc010db3ce67cca9d	-4.214099503866831
151	0xbff4f8644164274b	-1.310642486032935
152	0x4010777a30021505	4.116677045943338
153	0xbfdbb0f3acfd7d2c	-0.43267528432439195
154	0xbfff55e816c714fa	-1.9584732904198163
155	0x401dc2fb53ca1cb3	7.440411862574524
156	0xc026006548568b6f	-11.000772724689993
157	0xbfbee2b156090153	-0.12064655638187576
158	0xc0152084f1b4a1cf	-5.28175714173308
159	0xbfe4c1b32de7c032	-0.6486450096690588
160	0xc003f7ef81e2b091	-2.496062292795678
161	0xc01b458a78e866ee	-6.81791104238958
