examples/es/rl/logs/0/924231285/trained_param.npy (npy, 1680 bytes, 1 tensors)

array f8 [194]
-2.009209481509134 2.071539816171831 2.2124211843473622 -0.782489203590847 -0.6162487478295482 1.6268773465772057 -0.9344057469580725 -1.0104050422896393
1.5211371744464774 2.4198342910376023 -2.965722248222182 -0.6810768915290168 -3.6508694604747958 0.34661007034452185 -0.24595615815670913 1.7805853917542807
-1.0320536073695141 0.09258205651624599 -1.8144225789999424 -2.7121505092344487 1.842117678441191 -0.8547371874052707 1.5014794460012502 0.821802642521842
0.8078376208727845 -0.1712321770845316 2.158563014438841 4.7513075496864285 1.37335333585085 -2.1717135006404393 0.1675734103508635 -0.9718952284210518
1.0547905712416628 2.3290632003644536 -0.5289555044581463 -0.30918533584850594 0.14797980660856486 -2.905435482837261 -1.4596166073518058 -0.49976369933635434
1.010578859041366 -0.20212573300818915 -2.9182776125739935 -2.9154907654927107 -2.1059515365089956 3.0337831791152916 -0.37910562296821915 0.23800019526846317
-0.39480923829988773 1.0635558306632433 -0.5460099197091152 -1.098731409725357 0.08214344725247406 0.7041351549831035 1.8705838150007303 2.112646369095601
0.5838888376002224 -1.3428803424238915 0.13662113887842983 3.0857801969488707 -0.13934834925222878 1.7268836977043172 -0.26734897919557055 -3.2296069509372334
2.57583323320602 -0.7329329590932608 1.599370863081147 -1.1384292257192044 -0.3281195522198155 7.647621634768512 -3.1347276707921012 -1.4527391593513346
-0.2552485756475714 1.8511063092921156 1.1554118024654638 -0.26224386076411055 -1.631458640194458 -0.5004150852123301 0.9708791546681705 -1.2159085983572724
1.8242173763875842 1.097040783111774 -2.2972470931924724 -0.4934076289709711 3.8230225620236573 -1.5661383718691824 0.6174519036545234 0.7378720945894731
-1.8810313825498863 0.7450899553723991 -0.8382577163827098 4.494672567046294 -1.4974582540488155 -2.0129210552866335 0.4486910730322442 -0.5628631965969823
-1.050350185859671 3.5591219201229958 -1.325868158722181 -1.0089840809568749 3.1011365687824384 0.8019106292656564 -0.5576586497267721 -1.4229905374019
-0.5544544023610437 -4.391368798336236 1.4298738438036436 3.2505477888967067 1.2262432724672274 -1.9500785252861905 -2.2120956178596094 2.2160203678213906
-0.9664929603709406 0.46081462837229265 -1.1550116103348818 3.277631933406748 2.320559288985946 0.07101254322574846 -2.2715681870902307 -2.8713906399690656
1.928896828624961 1.1288027784812642 -4.57062550948756 -2.4176710631837803 -1.2592750377560242 0.4641211834895892 -3.2724224249386107 1.756938377561339
-1.6071690587968406 -0.6302353797104626 1.1344097714561092 2.118201704269684 -2.3350517233948844 -1.073821551890184 -3.006499750613232 3.202174332346121
-0.3033305564868859 4.176991880120836 1.0402652165996538 -0.6134377079727964 0.9889892002081639 -3.5810100588397127 1.2652083999238393 0.10052073561532046
-1.516295909848895 1.0214675969880445 -2.963191018068447 -0.40104065695266544 -6.148436679758186 -0.5707804569279981 4.614339326440411 4.255443369033421
-3.6377233954341137 -1.0902411199886373 2.5017809373565805 1.3612577881930317 1.3288411339027388 1.746244328602951 -0.053755623337633354 0.9188806251703383
0.22491242856048307 4.75758540827712 0.6569455925234227 -0.27476592314223536 2.574661041720323 0.29269960372680043 -0.454998527388467 -2.325031170793536
1.5231523012124994 0.5867997358018089 -2.620105542089429 0.08333774079872647 -3.3792097654473507 -1.2032180347122177 1.424914239128891 1.1718896646712822
-1.2770778572557697 -1.1055207343170113 1.0211536940940285 -2.1706510481121195 2.7176768083334064 -0.31390662103315453 0.17137684480068935 1.731696817610508
-2.49807699384149 2.1712841311524813 -3.162458079018682 1.4206142295308597 0.6158338258443453 -0.848551244261424 -1.5882593566282357 -0.014482000828810598
2.0054202241571653 0.6555042752113286
00000000: a628 af6b dc12 00c0 168f 9677 8392 0040
00000010: fefe bde0 09b3 0140 2daa 5ccc 260a e9bf
00000020: a01f 444b 4fb8 e3bf 0d70 628a b007 fa3f
00000030: d323 8ce1 a6e6 edbf 5a8f 457a 9e2a f0bf
00000040: b5a3 0fef 9356 f83f 7ff7 ad14 d25b 0340
00000050: 2812 0996 ccb9 07c0 00b6 e5c3 61cb e5bf
00000060: a3a2 350c fb34 0dc0 c803 2601 dc2e d63f
00000070: 1035 c4cb 7d7b cfbf a71e 951b 477d fc3f
00000080: 28ef b5a4 4a83 f0bf fa06 ef28 75b3 b73f
00000090: 13dc 5ef8 df07 fdbf 02ef 57f7 7bb2 05c0
000000a0: 1f9d 0463 5079 fd3f c694 52cd 015a ebbf
000000b0: a910 c34f 0f06 f83f e1b9 2c0e 354c ea3f
000000c0: d910 4448 ced9 e93f baeb 4c9c efea c5bf
000000d0: c1f5 8aaf bc44 0140 7e90 2cc4 5601 1340
000000e0: 7c4f f558 41f9 f53f 4742 ec53 ab5f 01c0
000000f0: 416d 91a6 0b73 c53f a89e a605 c419 efbf
00000100: 29cb f913 6ce0 f03f 340f 1fe3 eba1 0240
00000110: 41fb 1518 34ed e0bf a4d0 774a b1c9 d3bf
00000120: 9614 ed96 00f1 c23f 5d64 5bf5 543e 07c0
00000130: 4464 94f1 965a f7bf e82a 18e2 20fc dfbf
00000140: 5dc9 d9bc 542b f03f 28a0 798a 41df c9bf
00000150: ed3b d5ee a158 07c0 4ba6 8cd2 ec52 07c0
00000160: fe22 821e fdd8 00c0 05a4 8b1d 3045 0840
00000170: 8e34 183b 4443 d8bf 2051 8f57 ca76 ce3f
00000180: 2f07 aaf7 8d44 d9bf 2db3 621e 5304 f13f
00000190: cb26 8ecb e978 e1bf f2bb fd62 6794 f1bf
000001a0: 23b3 875b 5a07 b53f e7b8 d372 4688 e63f
000001b0: 4aae 5d4b e9ed fd3f e23a ba23 b3e6 0040
000001c0: d3c1 bfa4 37af e23f 2a6e 1219 707c f5bf
000001d0: ab6a b62d cd7c c13f 9751 2487 adaf 0840
000001e0: ba1b 65ad 2ad6 c1bf 632b dacc 50a1 fb3f
000001f0: b8e4 90e4 3e1c d1bf 74ad 492b 3cd6 09c0
00000200: f28e 4474 4e9b 0440 f9e9 2ed2 2f74 e7bf
00000210: babd f1e6 0597 f93f b364 5490 0137 f2bf
00000220: dc95 7d26 e9ff d4bf 200d 3620 2a97 1e40
00000230: bd58 df19 ec13 09c0 2e85 b06a 6b3e f7bf
00000240: 1271 301f fe55 d0bf 2a43 3da6 219e fd3f
00000250: 7806 1016 917c f23f a2c0 6379 9ac8 d0bf
00000260: d996 0660 741a fabf 322f 2d7f 6603 e0bf
00000270: 965f 3529 7111 ef3f 3aea 0d93 5c74 f3bf
00000280: d412 468f fe2f fd3f 277e dda2 7a8d f13f
00000290: ebbd 8015 c360 02c0 06be 8197 fd93 dfbf
000002a0: 0b18 5eda 8c95 0e40 6d05 031c e70e f9bf
000002b0: 6692 a17e 2ac2 e33f dd91 5cf0 a59c e73f
000002c0: a5d2 ec5c b418 febf b8e1 dce3 c6d7 e73f
000002d0: de77 afd8 01d3 eabf d0c4 0672 8bfa 1140
000002e0: 1f3d 44c9 96f5 f7bf 5216 af5a 761a 00c0
000002f0: 8c8f 2bc3 5ab7 dc3f 9f31 b0ad f902 e2bf
00000300: 42d6 19ff 3bce f0bf 6c3d cbe9 1479 0c40
00000310: e44f c887 c136 f5bf 704f de7d cc24 f0bf
00000320: 44cd 7ab0 20cf 0840 4458 e07a 40a9 e93f
00000330: 620e ddf3 56d8 e1bf bb89 cab9 91c4 f6bf
00000340: ef71 a828 17be e1bf a61d 76fb c290 11c0
00000350: ecad 4865 c3e0 f63f f72b fb32 1f01 0a40
00000360: f7fc 0244 b19e f33f 0ec7 2b8a 8533 ffbf
00000370: cea7 f22f 5fb2 01c0 8a80 f8e2 68ba 0140
00000380: ef6f 13a5 82ed eebf 2b27 98a3 fc7d dd3f
00000390: c237 4e74 ed7a f2bf 3675 5217 9738 0a40
000003a0: 3dfd 7463 8190 0240 00a8 c2c6 e02d b23f
000003b0: 0e7e 11f1 2b2c 02c0 43a9 e5a7 9bf8 06c0
000003c0: 52d6 c4eb c2dc fe3f 1a60 9380 930f f23f
000003d0: b50c b60d 5248 12c0 0ce1 26ed 6357 03c0
000003e0: f64c fd94 fd25 f4bf 8efd 1d56 29b4 dd3f
000003f0: 7f77 eece eb2d 0ac0 7a69 8b6a 6b1c fc3f
00000400: face 2ae7 f6b6 f9bf 3d6f 1463 e32a e4bf
00000410: 4fab 4adc 8a26 f23f a95b 31bc 13f2 0040
00000420: 8298 1399 2fae 02c0 a0bb f181 5f2e f1bf
00000430: 2487 c2bd 4f0d 08c0 4723 8c93 0d9e 0940
00000440: 2246 ff90 c469 d3bf 2e1b 035c 3db5 1040
00000450: d163 c723 eda4 f03f 220b bc1d 48a1 e3bf
00000460: 68b8 dfad cca5 ef3f a8e8 0a9a e8a5 0cc0
00000470: 10c2 c429 4b3e f43f 56a4 0918 babb b93f
00000480: cbc0 fd7f bf42 f8bf 39cc 2f68 ee57 f03f
00000490: 493d 137e 9db4 07c0 6c98 7e6e a6aa d9bf
000004a0: 5a5a f4c8 ff97 18c0 3b74 7660 d543 e2bf
000004b0: 3bd5 4e5e 1575 1240 17ea 4ff2 9205 1140
000004c0: cd44 3ab9 0e1a 0dc0 93b0 31ac a071 f1bf
000004d0: 359f 5db9 a503 0440 0b6e 1b3f b6c7 f53f
000004e0: b211 bbeb ee42 f53f 6ccd a2e4 9df0 fb3f
000004f0: 4a26 6c68 db85 abbf c01b 4157 7867 ed3f
00000500: 87cb 9032 eec9 cc3f 7de8 2178 c407 1340
00000510: 5076 64c3 b205 e53f a6df 7ccf c395 d1bf
00000520: eaca 63e3 e798 0440 d9c2 631e 97bb d23f
00000530: e224 b724 b21e ddbf 1ee9 45f1 a999 02c0
00000540: a68e 88f2 d45e f83f 283f 523d 10c7 e23f
00000550: 56bd fae4 f9f5 04c0 38c8 4047 9f55 b53f
00000560: 935c 2721 9f08 0bc0 ecbd d08d 6140 f3bf
00000570: eb9c 8adf 72cc f63f 7a89 8460 0fc0 f23f
00000580: a4bf f530 e96e f4bf 4110 6f82 36b0 f1bf
00000590: d02c 8541 a556 f03f 7f5b f54b 7e5d 01c0
000005a0: fc1d a756 cdbd 0540 f974 d5cb 0b17 d4bf
000005b0: dff5 da2b adef c53f 2e97 e3b8 07b5 fb3f
000005c0: 7883 7bca 0ffc 03c0 4dfd ec36 ca5e 0140
000005d0: 8bd9 42d2 b64c 09c0 9413 81fc d5ba f63f
000005e0: 69b4 b823 e9b4 e33f 50a7 62f0 5427 ebbf
000005f0: 628c a4a4 8269 f9bf 50e9 853f bda8 8dbf
00000600: a5ef 2bc2 190b 0040 8577 0d1a e4f9 e43f
