examples/es/rl/logs_cartpole/0/398764591/trained_param.npy (npy, 1936 bytes, 1 tensors)

array f8 [226]
000000 27 6a db e9 1c cf d6 bf e4 99 4b 9a de 94 d8 bf
       -0.3563911708603506 -0.38408627574827237
000010 d4 44 c0 5a 76 15 dc 3f 01 ee b3 35 cf da c7 bf
       0.43880995619208574 -0.18636503336152546
000020 22 35 89 56 b8 48 d9 3f 3a 71 94 04 ed c2 e3 3f
       0.39506348086145426 0.6175446595621346
000030 d6 6f f5 b8 30 0d b5 bf 55 ba 14 7c 8d f9 eb bf
       -0.08223251834482367 -0.8742129729706202
000040 50 a5 40 e5 c3 56 b6 3f 80 cf 10 84 51 15 8e bf
       0.08726143214211857 -0.014689099161934172
000050 2e 0b 4f c1 9d 0e e7 3f 0f 5d f4 5d 00 25 f4 3f
       0.7205342078744701 1.2590335531329548
000060 89 44 1a 8b 65 4d c6 3f c0 48 8b 28 ba 47 ac 3f
       0.17423695842856926 0.055234734963634846
000070 d0 c3 53 ce 42 f3 cd 3f 45 f8 98 58 94 ad f2 3f
       0.233986235376078 1.167377801975378
000080 f9 e3 a6 bb 2e 97 d3 bf d5 b5 c7 ce e9 32 e2 3f
       -0.3061024506128543 0.5687150038408456
000090 52 78 29 e6 3a 42 b4 3f 8a ca 2e 05 cd 0d f8 3f
       0.07913559073628676 1.5033693506672159
0000a0 ae c9 c9 2d c4 56 cc bf 55 7b 4e 6c 74 62 ce 3f
       -0.22139789806130977 0.23737960136801442
0000b0 65 ac 6b d1 53 33 d3 3f 40 a8 e9 5e 10 c5 a4 3f
       0.30000777674894713 0.04056597860910971
0000c0 14 2c 73 c5 c4 db ec 3f 46 ee 65 f9 6c c3 d8 bf
       0.9018272262995901 -0.386927836945436
0000d0 33 6d e1 fb bc d4 de 3f b0 43 4b 75 a6 1d eb 3f
       0.48173451039993437 0.8473694125078648
0000e0 b2 27 e1 3d 9d a9 ee bf 72 1f 1f 1b 64 3e e0 bf
       -0.9582048615059107 -0.5076160936086878
0000f0 f1 6e 25 94 45 15 d7 bf b8 36 e2 c9 f7 c4 e1 bf
       -0.36067332713513084 -0.5552939360656728
000100 84 f6 fb fb 1c a9 df 3f d0 10 f3 98 30 ea cb bf
       0.49469685180506695 -0.218084406549798
000110 dc 2f cf eb 94 89 f1 bf 22 3e 2e d1 c7 fd c8 bf
       -1.0960892878820152 -0.19524476732156965
000120 8d 20 c0 b9 19 93 d2 3f f4 c4 c9 5f 50 a2 d6 bf
       0.29022830142685835 -0.3536568580085053
000130 76 a7 58 e7 0a 73 dc 3f 98 35 8d 34 3b c1 ee 3f
       0.44452164261257765 0.961087801589815
000140 7e 35 7b a8 37 1e be bf 1a 57 b9 3e c9 c4 d1 bf
       -0.11764858115494367 -0.2776358711756629
000150 e6 1a 70 d5 fa b4 ef bf c0 83 cc 4b 5e 25 ea bf
       -0.9908422630986393 -0.8170615654417972
000160 50 c9 58 5c 82 ce d7 bf f4 02 f5 70 fa d8 e4 3f
       -0.371979322607463 0.651486607188501
000170 ac 6e 36 62 88 33 dc 3f 33 b8 b6 cd fc d8 e7 3f
       0.4406453093631437 0.7452377336355823
000180 5e 0f 1e 08 ae ee e9 3f e1 b0 a8 e0 91 eb e4 bf
       0.810385719160404 -0.653756083285341
000190 f2 ba f9 64 79 7b be bf e8 8d a8 6e 53 bb dc 3f
       -0.11907156672689803 0.4489334660194957
0001a0 9e d5 ce 2c 17 33 e4 3f 84 b1 48 38 9c ec c5 3f
       0.6312366366534439 0.17128327129593057
0001b0 20 db b7 20 04 17 db bf 63 41 19 e6 d6 4b c1 bf
       -0.42327979273925287 -0.13512693629537428
0001c0 ac 51 1a fa 5f 18 c0 3f 21 36 f5 70 f1 31 e7 bf
       0.1257438632207032 -0.7248465734680317
0001d0 32 1c bd 6f 98 36 fa bf 8b 81 60 94 4a 0d f4 bf
       -1.6383289685052316 -1.2532449527717258
0001e0 b9 a7 e1 63 92 fc d6 bf f9 98 aa aa d1 3e d9 bf
       -0.35916576150941243 -0.3944591681160002
0001f0 01 1f be 69 a4 27 ef 3f df 63 18 ed 57 69 c1 3f
       0.9735891404424991 0.13602732731740638
000200 d0 50 7d d1 8f 45 e4 bf 99 cd 7d b4 d3 ab eb bf
       -0.6334914294807508 -0.8647249722693459
000210 3d ac 98 71 63 16 d9 bf 9e d9 20 f8 b0 90 ef bf
       -0.3919914826717024 -0.9864125105148565
000220 4b d4 49 35 43 2c d2 3f 0e 85 5b c1 84 fe be 3f
       0.2839515705484856 0.1210711452545363
000230 80 70 5e 8d 4b 88 e3 3f 2e b4 ef 03 b0 29 b4 3f
       0.6103875886069687 0.07876110168554426
000240 80 b2 99 66 d1 cd 99 bf 33 9a c1 09 1f f8 e2 bf
       -0.025199195754270765 -0.5927882376243531
000250 93 1b 67 f1 d3 6d e9 bf ef 10 f8 57 14 18 f0 bf
       -0.7946567263505692 -1.0058787761964216
000260 27 f4 fa 5a c1 51 cb bf ae c4 3d 52 88 24 eb 3f
       -0.21343247358700632 0.8482095342898412
000270 9b 5a a2 d2 be 34 de 3f 6a 72 45 75 24 2e c9 bf
       0.4719693238234101 -0.19672065473686767
000280 e0 75 0f a8 3a 01 9a bf 5a 29 c3 3d 39 30 d7 3f
       -0.0253953137470172 0.36231833487967935
000290 e0 e8 d0 45 15 5a e8 3f 62 68 bc 9a 18 b5 e0 bf
       0.7609964717478555 -0.5221064588724966
0002a0 08 52 1f 89 6d 74 cd bf 92 2a b5 c8 da de d3 bf
       -0.23011559672762893 -0.3104769668613382
0002b0 fa c5 e1 ed 69 7f e6 3f 62 6c 1b 2a df 62 ed 3f
       0.703053440678729 0.9183193037419068
0002c0 36 ec 7b e5 cb 3b c1 3f 44 84 83 ff 01 39 e1 3f
       0.13463734345700268 0.5382089605810809
0002d0 70 b3 91 58 1a e5 9c 3f 40 39 bf 72 41 33 93 3f
       0.02821770825942188 0.01875021231517704
0002e0 30 13 a2 6e 55 e7 dc 3f 58 d9 7a 08 15 9e b8 bf
       0.4516194897080821 -0.09616214234379095
0002f0 ce e3 5e c1 02 d3 dd bf 2d ef b0 46 65 12 dc bf
       -0.4660040748963724 -0.43862277892525264
000300 3b 57 b3 28 77 37 e6 bf 74 47 22 d7 2a db e0 3f
       -0.6942706866200078 0.526753826316265
000310 2e ac d8 56 44 52 b1 3f 28 e3 85 c1 00 cb da 3f
       0.06766154403946764 0.41864031695108617
000320 50 42 e2 8b 31 98 b4 bf c0 63 bc d6 98 3b 9b bf
       -0.08044728913433485 -0.026594532114447622
000330 5b 7a f2 c0 4f 6f d2 bf 2e 2f 89 b1 cc bd d6 bf
       -0.288043917107563 -0.355334447264556
000340 07 f1 04 e0 00 aa d5 bf 07 39 1d 13 9b 8b f4 3f
       -0.33850118519673383 1.2840834375998058
000350 be 17 ed 42 51 39 e6 bf 53 1a 4c 7f 32 0c d7 bf
       -0.694496756281971 -0.36011946135878253
000360 af 58 03 34 00 19 e8 3f d0 c3 76 f4 07 ec f4 3f
       0.7530518546943962 1.3076247739193043
000370 ea 24 77 28 5a 47 e9 3f 16 14 0e 62 3d c5 e4 3f
       0.7899599829044324 0.6490771212708093
000380 2a ff a1 0f 15 55 b0 3f 2a bf 1a db eb a1 d1 bf
       0.06379825240764761 -0.27550789257928676
000390 cc 75 43 50 bd 0e eb bf ca 20 06 44 c9 48 eb bf
       -0.8455492561003495 -0.8526350334732566
0003a0 2e c4 2b 37 92 1d b5 bf 87 b7 08 04 f0 f3 bf bf
       -0.08248247000644035 -0.12481594179618415
0003b0 86 85 a6 fc 4b a8 cd bf 86 99 ab 32 8f f9 c1 bf
       -0.2316985114712617 -0.14042844747673316
0003c0 1b 3e b9 2c 56 4b e6 3f 5d 46 9f 96 fc c2 d4 3f
       0.6966963647373093 0.32440104207225834
0003d0 c7 d6 8d 7d d1 fe cd 3f b8 0d 10 92 90 30 cb 3f
       0.23433893805093062 0.21241957790344457
0003e0 d8 61 ed 4e 0d 9c c9 3f 4f 89 08 a7 cb ee dd 3f
       0.20007482866164028 0.4676999217209827
0003f0 3a 82 6e 23 eb 75 ec 3f e3 3e 8c 0c aa ee e9 3f
       0.8893943492913146 0.8103838200640577
000400 b0 71 b5 0d 0a 56 d1 bf 08 5d ed 89 08 a1 da bf
       -0.27087642039057425 -0.41607869595959857
000410 1c ab 56 70 1b 88 d8 3f 98 9b 73 08 64 9f d4 bf
       0.3833073231750619 -0.32222843957281944
000420 d7 af 7d 4c 18 92 bd 3f 03 e6 fb 87 e3 46 e0 bf
       0.11551048152404007 -0.5086534171998099
000430 79 26 4e 7d f1 75 dd 3f d8 1d 85 bf 98 35 b9 bf
       0.4603236888584444 -0.09847407031804012
000440 02 24 89 f8 ba df d9 3f 0c 5b 57 89 98 13 d1 3f
       0.4042804171663762 0.26682103550176417
000450 24 f7 a6 f1 9c 20 ce bf 91 45 80 c0 e1 fd da bf
       -0.23537027167724844 -0.42174571799213206
000460 fd 84 67 16 f0 54 d7 3f d4 57 06 83 1d 2a a0 3f
       0.3645591944496827 0.0315713140909534
000470 f4 89 a2 7f 4e ae c4 3f 5a ff 78 7f 49 82 a3 3f
       0.16156941635297495 0.03810338669836595
000480 98 23 da 78 d7 2c ac bf 75 2e 38 4a db 3a d7 3f
       -0.05502961492772512 0.36296732185358077
000490 50 45 a2 1f 17 be ce bf 7a c3 86 2e 3a e5 bb 3f
       -0.24017609638807835 0.10896648059748584
0004a0 14 6b 73 e9 6e 05 c4 bf f1 44 79 7b d6 2b c2 3f
       -0.15641580962150015 0.14196282414426478
0004b0 b8 92 c0 e7 04 d3 d6 bf ef 27 16 ef 59 fc d1 bf
       -0.35662958747915807 -0.2810273012952384
0004c0 48 a6 35 f1 bf 28 ad bf 40 dd 8f db a9 02 7b bf
       -0.056951521105315595 -0.006594336992740424
0004d0 62 3a f8 d7 eb 85 e8 bf 6f 8a 91 0d d1 6d d3 bf
       -0.7663478105694816 -0.3035776741509499
0004e0 2b 3a 25 35 3c 5c d5 3f 3c 88 e9 c2 35 a6 e0 bf
       0.3337545889852744 -0.5202893072967139
0004f0 94 cd 61 fe 54 82 66 bf 0a e3 32 64 c6 a4 d1 bf
       -0.0027476940186319052 -0.27568206582104493
000500 96 85 56 52 18 a5 e4 3f 48 73 aa 1a ac cc ac 3f
       0.6451531990207282 0.05624902558813588
000510 24 1b d7 9c 53 31 e4 bf cc 47 e3 c7 71 69 e7 bf
       -0.6310213149343764 -0.7316216377314446
000520 c7 55 2f dd 8b 36 f1 bf 79 b7 44 09 f0 27 e3 bf
       -1.0758169784579523 -0.5986252003692548
000530 88 0e 2a 9b 2b ba e9 bf fa 73 5c ba cd 3d f2 3f
       -0.8039758711388041 1.1400887756092275
000540 a3 67 7c 26 6e 19 e7 3f ad 43 f3 8d bb 5e db bf
       0.7218542815855823 -0.4276570211632656
000550 40 c5 fc 55 11 2c ea 3f 1e 2d fe 11 d4 d6 f1 bf
       0.8178793601456746 -1.1149483397337643
000560 83 dd e6 14 17 02 c7 bf 70 b1 e9 46 d1 b4 d0 3f
       -0.1797512867030769 0.26103622365078305
000570 81 87 68 ba aa 8f ea 3f fd 63 7e 2c e2 8a c0 bf
       0.8300374642169431 -0.12923838779968824
000580 2e 73 2d 5e 62 fa d5 3f 40 bf 3d ea b4 7e b5 bf
       0.3434072417929198 -0.08396464079646382
000590 7a d8 cf 27 5d b9 e6 3f 7d ff 29 02 de 1b c7 bf
       0.7101274278236496 -0.18053794007937177
0005a0 9c 61 35 77 a6 e0 97 bf 26 d8 69 39 00 4e e1 bf
       -0.023317910219107327 -0.5407715913158924
0005b0 3b 85 5a a0 8c 56 94 3f 2a 7b 97 38 4d 7c e0 3f
       0.019861409461218598 0.5151735406214801
0005c0 04 6b ce 7c de 4f f2 bf d6 61 1c 31 9f f2 b3 bf
       -1.1444992900130169 -0.07792086552615926
0005d0 91 85 a6 88 4b 58 b7 bf b6 e3 28 b0 eb 83 f0 bf
       -0.09119102560227633 -1.0322071915854685
0005e0 ec ef f4 26 1c b6 eb 3f 76 5f 8b d3 47 c3 d1 3f
       0.865980220878098 0.2775439802039651
0005f0 8e 6e 59 2a 21 72 d1 bf 9b ea f3 40 35 c3 c3 bf
       -0.2725909150665097 -0.15439477607272498
000600 cc a4 64 72 fe ab d6 3f 41 b7 05 7f d1 5e e3 bf
       0.3542476765747551 -0.6053245049385866
000610 f2 1a 88 5e 9c 8b eb 3f f9 23 69 fa 3c 21 d4 3f
       0.8607923361131198 0.3145286984841387
000620 b4 08 dd 49 6b 32 eb 3f 8f e7 f0 58 2c db d4 3f
       0.8499046747822576 0.3258772724690226
000630 20 d7 4d 93 15 8c d1 3f ca 6c 95 79 15 0d d9 bf
       0.2741750658527611 -0.3914235770550475
000640 18 92 44 0f fa 8e d4 3f 18 6b 59 be 90 05 f1 3f
       0.3212266110515727 1.0638587413329272
000650 54 78 c2 0c 2d 9b d1 bf 60 49 a8 03 86 47 8d 3f
       -0.2750961899381583 0.01429657648717314
000660 cc 88 a7 77 6f 1b 8a bf 8c eb d3 4b ec 24 b2 3f
       -0.012747641409934472 0.07087590075745548
000670 87 70 c0 cb 47 b5 f2 bf bc 1b af 7c b4 4e d2 3f
       -1.1692579230357596 0.28605377365277795
000680 27 40 22 88 4c 2f fa bf 96 59 bf ae cf ad dc 3f
       -1.6365475957609392 0.44810859742337905
000690 4f e6 b3 55 1b 2a e3 bf 70 35 59 45 bd 44 94 3f
       -0.5988899873620513 0.01979346977014046
0006a0 db 69 76 71 56 b8 d8 3f 63 65 6b 9e c6 06 e3 3f
       0.38625107841803946 0.5945771307116668
0006b0 14 11 3b af 07 3d e0 3f 7b 95 1e c3 0d 96 ef bf
       0.5074499533152754 -0.987067109196388
0006c0 90 05 10 fa 8b 19 d0 3f e5 84 10 e6 b0 c0 c5 3f
       0.2515592519776755 0.16994296296710512
0006d0 3b 1d 0a 36 7c 4e e3 3f 97 c3 94 85 50 64 b0 3f
       0.6033307128390456 0.06403067837960773
0006e0 3a 34 e8 9c 07 67 ea bf cf 07 2a 86 01 78 c9 bf
       -0.8250768723097572 -0.1989747910593551
0006f0 f8 b9 e1 cb 5e 44 ab 3f bd 75 43 17 46 8b e7 3f
       0.053255998981388275 0.7357511953702481
000700 50 92 d7 1e 01 1b b1 bf 54 42 07 68 e5 34 be 3f
       -0.06681830409031275 0.11799463071589261
