examples/es/rl/logs/0/209652396/trained_param.npy (npy, 1680 bytes, 1 tensors)

array f8 [194]
-1.182269795596377 0.4263622599055894 -0.9564414097668882 2.920789060100356 -0.409617687156034 -1.3684137975403667 -0.5224188051211408 0.6557740808659989
-0.6560692064050686 -3.703613113981433 1.8122065772536362 1.451327741000293 0.1575755240988035 -1.9717423424148588 1.5820579582383343 0.6000414673121418
-2.648609460057035 0.37309846660731516 6.414029083212241 -6.422486641208031 -3.0217356053832094 -0.20509509057829786 1.2287429819920277 0.4843870390772237
-4.190286548274293 -2.461943036439486 1.269726135274754 0.41030916552805385 -8.985703992494404 0.895598756763674 1.0652306189971814 -2.149676687682165
-6.14502362419285 -0.6266752102692306 -4.0113625870771665 9.746592474393305 -1.9177328565356457 0.7109867517358001 -1.2441533705520265 -0.6700088655556407
-4.605922360296409 5.483496143446997 -6.181029319439463 -0.6879367343816174 -5.916319202916971 6.369626322608237 2.457249555460977 -2.8950038997174823
2.3942870238792686 0.5668700290065385 3.247355467641674 6.5887410673486 7.111625224393483 3.9144554939921243 -0.4480927322444197 3.61824303854017
0.03769444360741778 1.1284330995578882 0.6420467638550073 5.103465976246073 8.267700457640696 6.422737788336956 2.5403245722658228 3.6492427704136055
-1.2364323427107138 6.453671285237319 2.3401130321067263 -6.484055732670698 4.73357995835292 -0.6810439784939293 -2.4531513242562695 4.974733738391835
0.6103194846839759 1.0535702343414621 -1.5331657115946793 2.2861834147227125 -8.833800971154853 0.7675693533312842 4.4350691381939695 -5.956571121039804
-1.6109679583241487 3.534910683079519 -7.780451224080244 -5.115667016772664 4.291410030946008 -1.8011098321912307 2.47584498709972 -6.011909224202795
1.9257045526483334 1.3077084374455452 4.6378047574920185 -0.6629184025668786 0.8477319648210082 -3.188089055240602 -3.1628152106767096 0.5545164725364623
0.8941824647717982 2.7776659796653407 -3.6468002992223947 0.9909667795011975 -6.884222083194897 -5.924712255782378 -1.5549279277533286 -6.287419289858678
-2.4335681969995253 0.9176316031517039 -1.0389492502848923 0.7952685631014744 -7.737517132656937 -0.21955673279233737 2.2467412673945955 -0.6408107675706941
-0.6968947231482567 -6.723877679878536 -3.6516623830044215 -2.1041190804125223 -3.1511807960556335 -2.9285554173704056 -2.61666274148655 -2.4828379245243255
1.7683255090154955 -2.6594506254985175 0.27325877716795133 -6.002294915507965 -0.7792458549914101 1.0801075397146789 -2.204265389214041 -1.5617965210145377
-0.04021335235479988 2.9763869937553458 1.8828447094146965 4.112182126663124 -3.886494091494299 5.761550659303568 1.7376883345168415 5.4824052007582695
0.92808669222774 -0.81041142977835 2.4066344636952413 5.284888820402862 2.5036482958332122 4.425085774967331 -7.010242333497726 -1.9563953737402238
-2.227977721192019 -7.785777272963735 -6.7242795170856775 -3.7698129577460975 -6.918266942927744 -3.3240768869069885 -1.1853136325151248 -2.066649609965475
1.7433724140445384 2.6038990329246117 7.112381562972747 4.667076849579635 -4.681122629026623 4.556939832811613 -0.9614452315866875 -3.031222518055104
-1.7511115161807378 4.279153406625242 1.4676794304109544 -0.0511586498002739 -0.24827386656948736 1.546082458025323 -4.6487529366690525 0.394387692671072
-5.201619001547439 5.796637702824449 3.2262087299826256 4.741512711254072 -9.52450949875108 5.79871899864677 2.813064576187767 -5.4880559432978115
-4.851384863864045 -2.5024382829020464 4.659701384112733 5.098536551723145 3.847608247577382 1.5495846101461712 1.7665031543858207 2.1293713356729542
-6.181658972778794 -2.203497007329327 1.424231076546965 -3.4410961037970087 0.6862717299251903 -0.2043232884073665 -1.3761786740200357 5.484113646735367
5.934237483788077 -4.574730009531901
00000000: 2429 b2bb 93ea f2bf 1cc3 a2ee 8449 db3f
00000010: 3ba5 ef03 2b9b eebf 342a 9da7 c65d 0740
00000020: 5db1 8c1a 2d37 dabf f14b bddd 05e5 f5bf
00000030: 3bf1 59a4 a7b7 e0bf 1c49 dcec 19fc e43f
00000040: a884 2dd9 84fe e4bf 20b2 8ce9 ffa0 0dc0
00000050: 4e68 ee52 ccfe fc3f 27fb f56f a338 f73f
00000060: 10c4 534d 6f2b c43f cbf6 ccb2 418c ffbf
00000070: b229 7001 1c50 f93f 1f2f cb29 8a33 e33f
00000080: c991 1628 5a30 05c0 e008 1164 d8e0 d73f
00000090: 2ff5 6f3d f7a7 1940 07f1 8b56 a0b0 19c0
000000a0: b73c 92b7 832c 08c0 234e 4d51 8e40 cabf
000000b0: 4086 ad66 eea8 f33f 4a59 dc7e 3200 df3f
000000c0: c7d3 167a dac2 10c0 f0fa d030 0fb2 03c0
000000d0: ca1a 1e5a cc50 f43f 6a4a cc5f 8142 da3f
000000e0: a699 9631 aef8 21c0 736c 54b9 bea8 ec3f
000000f0: d5a6 f442 2f0b f13f 4c8c f4b0 8932 01c0
00000100: 0639 ac12 8194 18c0 a43f aa2b b90d e4bf
00000110: d993 4fa2 a20b 10c0 fdea 695e 417e 2340
00000120: 6b90 d4a5 08af febf 6906 d349 67c0 e63f
00000130: 7daa 5b5d 0de8 f3bf e0ed b26e b670 e5bf
00000140: 868d 45e9 766c 12c0 4e63 ef9c 19ef 1540
00000150: 4370 fabf 5fb9 18c0 d05a fce5 9303 e6bf
00000160: 95e6 c494 4faa 17c0 5c5f 9d52 7f7a 1940
00000170: 0286 7674 72a8 0340 e5a1 f8cd f728 07c0
00000180: 9863 86f4 7f27 0340 0a4d 759d cc23 e23f
00000190: ed0f e080 95fa 0940 284c 38f0 de5a 1a40
000001a0: f6b6 00e2 4d72 1c40 e5bf c20a ce50 0f40
000001b0: 102a a423 8dad dcbf dc13 fc67 29f2 0c40
000001c0: 1cce 11a5 af4c a33f 5f33 a5dd 0f0e f23f
000001d0: 0751 a8a7 a58b e43f 03e7 20fc f269 1440
000001e0: ce61 cd08 1089 2040 2cc3 be2c e2b0 1940
000001f0: edda 78b0 9552 0440 1bba 9031 a631 0d40
00000200: 008c ba47 6dc8 f3bf 0fea 9434 8fd0 1940
00000210: fbbb 6e2e 8db8 0240 410c 554e acef 19c0
00000220: e181 a895 2fef 1240 e89c d8bd 1ccb e5bf
00000230: e38e 2ecd 0da0 03c0 92cd e299 20e6 1340
00000240: 3689 5aba bc87 e33f f791 4876 6cdb f03f
00000250: 0b5d eac4 d887 f8bf 1c22 b787 1a4a 0240
00000260: 5df7 fcf5 e7aa 21c0 1008 bf9a ed8f e83f
00000270: 032b a0c3 82bd 1140 f4a7 4461 87d3 17c0
00000280: 6d7f 7e56 86c6 f9bf 46dc 9040 7f47 0c40
00000290: f730 0e9b 2e1f 1fc0 d30e 196a 7176 14c0
000002a0: cd8e 2264 672a 1140 033f 1c8b 58d1 fcbf
000002b0: 8178 0cd1 87ce 0340 0fe3 81ee 310c 18c0
000002c0: 5e20 b693 afcf fe3f 9382 b8ae 5fec f43f
000002d0: 4ea5 bab0 1c8d 1240 2e1f 5ea7 a036 e5bf
000002e0: fec2 15c9 9e20 eb3f 8ef3 a7d5 3481 09c0
000002f0: bb2e a90f 724d 09c0 7b65 5454 99be e13f
00000300: dc3f 5b8b 249d ec3f dafe eef0 a838 0640
00000310: 27a0 a1a2 a52c 0dc0 ab29 acf6 ffb5 ef3f
00000320: 6de4 8683 7189 1bc0 cc2e 03c5 e7b2 17c0
00000330: cc66 551b fce0 f8bf f3ba 083e 5126 19c0
00000340: d496 559a f277 03c0 f900 aaf3 3c5d ed3f
00000350: 59d6 c23f 899f f0bf 0cd9 c10e d772 e93f
00000360: 4501 f4b0 37f3 1ec0 71d7 7a5d 6f1a ccbf
00000370: 5c44 507c 53f9 0140 5781 3495 8581 e4bf
00000380: d4a7 9529 f64c e6bf da87 c530 40e5 1ac0
00000390: a14c 78c4 9a36 0dc0 4d17 6a62 3cd5 00c0
000003a0: cfbc f646 9e35 09c0 4309 7176 ae6d 07c0
000003b0: 80c5 1ae0 ecee 04c0 d0cd 3821 dadc 03c0
000003c0: 3877 5eb0 0f4b fc3f 36be ae0c 8e46 05c0
000003d0: dc00 d261 127d d13f 1537 2c99 5902 18c0
000003e0: cc69 d700 95ef e8bf 13cd f3d7 1e48 f13f
000003f0: 3a08 73e4 55a2 01c0 6939 4c59 1efd f8bf
00000400: 66e9 7332 d896 a4bf 0b5a f3fb a3cf 0740
00000410: b91f 26c6 2120 fe3f fbda 14df df72 1040
00000420: a085 d836 8a17 0fc0 02d3 9fef d30b 1740
00000430: a93f 7648 92cd fb3f 55b5 02a1 fbed 1540
00000440: 1c12 dfdc e2b2 ed3f d07b 66f3 e3ee e9bf
00000450: 01fb d791 c940 0340 5781 1ae5 b923 1540
00000460: 7851 fac1 7807 0440 03eb 75af 49b3 1140
00000470: 3da1 5df7 7c0a 1cc0 ca28 443c 654d ffbf
00000480: 00e4 c5fb e5d2 01c0 f846 25cc a224 1fc0
00000490: c12e 9c87 a9e5 1ac0 c073 2cb2 9328 0ec0
000004a0: 807d 632b 4eac 1bc0 743d 759f b597 0ac0
000004b0: 9d7c 726d 0bf7 f2bf 33be 3897 7f88 00c0
000004c0: 291e f178 dae4 fb3f 56fa 2304 c9d4 0440
000004d0: b490 0627 1473 1c40 f673 9331 16ab 1240
000004e0: 86f0 e035 78b9 12c0 f60f 7f6f 4e3a 1240
000004f0: 44eb 51ca 28c4 eebf 4390 6f97 f13f 08c0
00000500: eb52 5a82 8d04 fcbf f116 0064 da1d 1140
00000510: 0408 2a6d 9d7b f73f 6871 996f 7731 aabf
00000520: 7c07 af24 70c7 cfbf 7935 a2f5 c0bc f83f
00000530: cdb5 98b0 5298 12c0 d6e5 7de0 a53d d93f
00000540: fc97 2736 75ce 14c0 f990 41cb c12f 1740
00000550: b5c2 ca85 46cf 0940 3d9e b11b 4ff7 1240
00000560: 8c27 4f82 8c0c 23c0 e886 a764 e331 1740
00000570: b919 2200 2881 0640 8354 ecef c4f3 15c0
00000580: 046c 0a6f d167 13c0 dc94 ca5c fe04 04c0
00000590: 7c8f 77c2 88a3 1240 3272 0cc4 e664 1440
000005a0: 5c51 39d5 e6c7 0e40 4867 6f3b 19cb f83f
000005b0: 14e3 c5cf 9843 fc3f 9a0a bed6 f308 0140
000005c0: 8370 4ccf 04ba 18c0 b481 fa09 c3a0 01c0
000005d0: 1875 7b86 a6c9 f63f 019c e164 5d87 0bc0
000005e0: 5156 8621 f0f5 e53f 11aa c2f8 4327 cabf
000005f0: 30e6 e5ed d304 f6bf 511a e17c bbef 1540
00000600: bb44 3ec0 a8bc 1740 8ce0 0b06 864c 12c0
