examples/es/rl/logs/0/209652396/trained_param.npy (npy, 1424 bytes, 1 tensors)

array f8 [162]
00000000: aadb fd06 f121 05c0 2b16 bb5e d84c 1340
00000010: 3bba 57f2 6386 20c0 69a8 e861 ef4f 0fc0
00000020: f5c1 fb07 2788 04c0 e90d 2213 6f20 1140
00000030: 0e69 7226 1453 08c0 0a47 4532 931b 20c0
00000040: cb4c f950 890a 1440 57b2 62a9 2164 11c0
00000050: 8ffb 45fa 8db1 0b40 05a2 4ac0 08e6 01c0
00000060: b1de e934 860d 11c0 6a34 06b3 f92b 17c0
00000070: a632 f6d3 80d5 1140 d1dd 650a c5f4 fc3f
00000080: 4bbf 1771 9cfb 19c0 5b0e f5e3 c293 2740
00000090: d058 a7e8 3604 bdbf 8f7c 86e7 8a14 0840
000000a0: 4830 3048 b27d bfbf b0ca 4181 4da2 e23f
000000b0: ee64 c482 4841 1dc0 d417 86a6 2be2 1040
000000c0: 8a63 89b9 b277 0640 8375 c8d1 4fd8 ffbf
000000d0: 609a 11e6 5a91 d03f b4a1 162c 3c47 19c0
000000e0: 7229 8d13 e041 e13f 4a16 291c 57de 13c0
000000f0: e201 0178 b411 25c0 156d ef83 12f9 f8bf
00000100: c43c 0ec1 aa34 2040 47c1 d7a7 4629 28c0
00000110: 441d 699d 475f 0cc0 bd80 31a5 7be9 0a40
00000120: ce4c 3f34 a173 0640 85e5 7fd4 1278 eebf
00000130: 7cd0 feb7 8cdd 14c0 7ecd 8cc3 1c44 e23f
00000140: b8a1 57c7 04d0 2040 857e fd91 5edc 1b40
00000150: 56b4 0421 672a 1fc0 62a2 fdcd 72ea 0cc0
00000160: aca7 d352 eac5 0040 2f7c bc11 b819 2140
00000170: b9d0 e350 7912 f5bf dc86 2b44 1cd4 fa3f
00000180: c2bb 1a20 ebbc 31c0 2987 703c 4343 16c0
00000190: 9342 8fd9 acc4 10c0 8ba7 07b2 2279 f33f
000001a0: 349d 20e6 edee 0d40 ca54 38a9 383b 0b40
000001b0: 22c5 bb59 644e f73f 6af3 8232 8aec f33f
000001c0: c28a 9057 dbc9 fb3f 69d3 dad4 8c4d 0640
000001d0: 225e 1bad ba15 2440 597a e231 c4b1 f8bf
000001e0: dc22 05e6 5681 2b40 0da7 fe7e f05f 0fc0
000001f0: 1271 2f18 0918 2140 f8cb 1e1a 48aa 0640
00000200: 1fb1 261f 8aeb 00c0 00e8 0ce4 97c0 fdbf
00000210: be1b 5cac c28b f3bf 785d 1940 f753 fabf
00000220: 9cfc 7c96 5056 1c40 707f 319e 96a0 2ac0
00000230: bb86 e239 b5ef 28c0 dc1c 8f1d 7f1a 1ac0
00000240: a217 251a c368 1dc0 4c4a 4dbb 366f fcbf
00000250: 5872 69a4 3c94 bdbf f4d1 29ea aa6e f63f
00000260: 8a8b 2292 7351 e8bf f332 e68d 411a 19c0
00000270: 205d d37b d724 f83f d9c4 44bc b255 12c0
00000280: e8dd 9be8 f2a5 15c0 7872 17c1 54d3 c1bf
00000290: 6253 e67b f22e 0f40 8156 9ba7 9311 08c0
000002a0: de7a b96b 7e2a f7bf 13d6 4e19 4a43 27c0
000002b0: 78fb a747 eedd 2640 44ae a088 0c42 1440
000002c0: 0004 1e98 f1f9 813f 9d12 ddce 8502 fb3f
000002d0: ffdb b6e5 cf92 0ac0 f5f9 05e0 6a27 2f40
000002e0: f13c 3228 7834 2540 36d7 e0a4 2d24 1140
000002f0: dd43 0834 d1be 0d40 e47b 0f88 1849 23c0
00000300: a015 37ec 5ced a2bf 140d cea5 d6ef 0640
00000310: f8d1 403f 868a 0240 181b 2817 ac2e 1940
00000320: 1d57 d2bd 54c6 1640 c29f f605 f9a1 2240
00000330: 67e2 b965 2e88 17c0 29f8 66b5 12b1 04c0
00000340: 012f b5ab 02f6 1740 f53c 1edf 5fcc 05c0
00000350: ccf9 1d46 f638 0dc0 de14 2fb1 adc7 06c0
00000360: 0f4d 089b f213 edbf c471 c710 8797 1dc0
00000370: 9810 8e96 c790 1640 0516 fab6 7380 2840
00000380: eb23 4eb1 9000 0340 88b2 0755 f101 f03f
00000390: d101 002d 2921 c13f 9994 0079 b08f ed3f
000003a0: 3471 6f9e 95ea 1540 e2bf 1a7f 311e fa3f
000003b0: 8404 6ec4 cc4c 1140 9cac 4700 70a3 0ac0
000003c0: ebe1 9405 5a81 f4bf 5ea8 3440 79ff d1bf
000003d0: af6a 76a6 2577 1340 9cd6 8876 a0c5 0140
000003e0: f8c3 175c 28ea 1ec0 1868 9276 3fbb 2b40
000003f0: 4ee1 429a d2fa 0d40 cfce 5f0b e193 30c0
00000400: 845f bd3c 53dc 21c0 dd0d 430b 7b50 09c0
00000410: 10f9 43c1 60f4 cebf 9555 68f8 a1f4 2440
00000420: c49f a436 12e5 f33f 94b6 ca68 c6ae 2cc0
00000430: e6f0 e417 26eb ea3f 625a 64ce be11 10c0
00000440: 5449 ed29 611e 23c0 595a df7c 112d 17c0
00000450: c816 ae34 69dd 0f40 8ebf d95d f416 0cc0
00000460: 46c3 1c76 6622 1940 ce8f 7e01 7176 e1bf
00000470: 2014 9044 a58f 18c0 f469 1bf6 1653 fe3f
00000480: 219a 467d c445 22c0 e7c3 c005 5324 26c0
00000490: 06df 1d34 a886 07c0 cdbd 2e6d 8dcb 0c40
000004a0: 12b3 dd8d 651b 2740 63a7 60bb 1fe0 13c0
000004b0: f1c1 c00e 73f1 15c0 634f b140 52a0 0b40
000004c0: d4d9 7287 b980 18c0 b60a a5cb 30c1 0740
000004d0: 3494 cecd 403b 1240 288f 7fea 0de9 f33f
000004e0: 209c b4d4 35ee 0d40 626e 94b9 f2ba 26c0
000004f0: 0dc6 1aa6 96ea 0740 7f7a 5d71 fc0a 36c0
00000500: c21f 9d52 2fa1 fe3f f34f 50b0 5035 e03f
-2.6415730043622334 4.8250441362084 -8.262481282433432 -3.9140308045507948 -2.5664806960778557 4.28167371650077 -3.040565777174499 -8.053857394177175
5.010289445129454 -4.347784659050908 3.461696582089139 -2.23732137897264 -4.263207270406995 -5.792944714788158 4.458499252225613 1.8097582250755873
-6.495713965486924 11.788596271194526 -0.11334555797597834 3.01003056410952 -0.12301172506721614 0.5823123478461039 -7.3137531692857305 4.2208696383804245
2.808446359162592 -1.9903104967737313 0.25887176959660074 -6.319565476304366 0.5392914182532833 -4.967129173286205 -10.534579992411583 -1.5608086732598327
8.10286525057598 -12.080617184722213 -3.5465233133033127 3.364005365918358 2.806459816152347 -0.9521574163801892 -5.216357111861836 0.5708144969307083
8.406286458441954 6.965204506966647 -7.791409030830513 -3.614476784994893 2.0966383429376574 8.550232462175783 -1.3170102271806583 1.676784769333998
-17.737962729002682 -5.565686172836458 -4.192065619820499 1.217074103764818 3.7416646937087084 3.4039166660610123 1.456638670464891 1.2452489827257645
1.7367814465039122 2.78786627095035 10.042439851370606 -1.5433999966259278 13.752616108061765 -3.9218454286063946 8.546944385329457 2.8331453362129615
-2.1150095399554085 -1.859519854375776 -1.2216212017826673 -1.6454994682188424 7.084291793230616 -13.313649123708927 -12.468179520513663 -6.525875532016666
-7.352306755556045 -1.7771518055420925 -0.11554316534006526 1.4020184657102819 -0.7599428037832336 -6.2756406947853405 1.5089945637644817 -4.583689634034465
-5.412059435380321 -0.13926181247997582 3.8979234389939146 -3.008582410266911 -1.4478744705190176 -11.631424704431117 11.43345855641904 5.064500937277959
0.008777511076688782 1.6881158905609148 -3.3216855951718567 15.576987267236271 10.602479225285125 4.285330368254838 3.7181724610349947 -9.642765285387163
-0.03696718581663139 2.8671086267000963 2.3176388684898903 6.295578347990862 5.693682638133194 9.316353021960712 -5.8829894919113945 -2.586461465077282
5.9902445630393695 -2.7247922354796352 -3.6528134801767234 -2.8474992601864946 -0.9086850193001811 -7.39797617165863 5.641386368199299 12.250882833507612
2.375275979230073 1.000474292896941 0.13382448861376742 0.9237902034116302 5.4790863757628365 1.6323714222926289 4.324999875273651 -3.3298034688828704
-1.2815799921064535 -0.2812178732880336 4.866354561784347 2.2214974651822796 -7.728669585180789 13.865718560573484 3.7474720050487695 -16.577652655497157
-8.930322549931368 -3.164297187789755 -0.2418328231505673 10.477798235641595 1.2434255728239672 -14.341357493157638 0.8412046877561152 -4.0173294304609914
-9.559335050788526 -5.794012023098355 3.983110820353293 -3.51120827980771 6.283593984132329 -0.5457081822573799 -6.140278884214268 1.8952855695302988
-9.136264719837586 -11.070945911198534 -2.9407505103698695 3.5993908433808657 11.55350917178433 -4.968871047758372 -5.485790472521772 3.453281884585452
-6.1257077373361035 2.969331351255586 4.55786439488752 1.2443980369652738 3.7413136117570645 -11.365133094185868 2.9895451523705163 -22.04291447193327
1.9143517710781315 0.5065082019450514
