examples/es/rl/logs/0/209652396/trained_param.npy (npy, 1424 bytes, 1 tensors)

array f8 [162]
000000 6e 87 58 97 8d d8 0b c0 7b 57 26 7f 8f 6f f6 bf
       -3.4807388137714304 -1.4022364584720595
000010 48 b3 07 92 9a 6e d2 bf e9 65 39 4b e4 0c 10 c0
       -0.2880007196497911 -4.01258962190466
000020 9f 81 5f 43 3c 3b e8 bf c6 ad 48 da 73 5a 05 40
       -0.7572308841591172 2.669166283934575
000030 04 4e 77 e6 3d f7 1a 40 3e 0c 52 7f 92 d3 13 40
       6.741447068244728 4.956613530524065
000040 70 5a 76 44 1e 82 12 c0 56 c4 e1 1e 4c 33 18 40
       -4.627068586085997 6.050095064668389
000050 08 47 a2 b6 5f d5 b7 bf 04 ca dc 36 d1 90 0a c0
       -0.0930995770343338 -3.3207115446214193
000060 26 cc 44 19 2b 47 0a c0 bd 10 b2 fe f8 d4 12 c0
       -3.2847501730079953 -4.707981090181588
000070 39 97 5a d1 c5 6d 27 40 30 c9 48 2b 64 48 02 c0
       11.714399854954182 -2.285347307356595
000080 1a c3 f5 dd ea 03 1e 40 e1 e0 a7 63 f1 95 fc bf
       7.503825634122018 -1.7866071598819462
000090 ab e2 6f c6 e0 80 1c 40 6a 04 be de dc 7c c2 bf
       7.125857449130005 -0.1444355094536463
0000a0 43 3d f1 73 e7 28 26 c0 83 d9 19 be 6b 4e 20 c0
       -11.079890845487744 -8.153165760665393
0000b0 52 29 ea bd f5 80 19 c0 49 87 53 cd da 34 0b 40
       -6.375937430779532 3.4008079568019736
0000c0 26 fd 82 62 31 f1 1b 40 ba 17 2a d8 24 fe 2b 40
       6.985539950604368 13.996374850404994
0000d0 5d a7 72 2f 56 5c 01 40 46 b4 da 64 2f d2 21 c0
       2.1700862604965736 -8.910517837235727
0000e0 04 15 ae 5a 9e df 1b 40 3a c7 63 58 ef 47 05 c0
       6.968377510905388 -2.6601244836282634
0000f0 10 09 9c d5 c3 fb 05 40 3b ef f6 37 bc f6 0b c0
       2.7479321182482934 -3.4954761860116412
000100 f8 f0 86 8d 2d 68 e0 bf 90 37 4a 47 bd 8c 0f 40
       -0.5127170337869122 3.943720395042824
000110 99 e3 be 2c bd 18 20 40 4d 57 e5 2d e3 e2 fb 3f
       8.048318289091002 1.7428924362952387
000120 72 1a b3 0f 5d a6 10 40 46 4f d1 74 3d 0e 05 c0
       4.162464375788305 -2.6319531561256637
000130 72 ec ca 6b d4 fe 0b c0 11 18 3f ad 6e c4 19 40
       -3.4994285985281346 6.44182844827266
000140 5b e5 20 3c 1a 4a 25 40 bc fc 6b 56 f6 cc 01 40
       10.644731406226745 2.2250792266564456
000150 c1 8b fb 8e 07 ed d6 bf 15 af 63 eb 19 a5 f7 3f
       -0.358217134124228 1.4778079218767222
000160 ea 3c 41 d1 3a 51 fe bf 08 2b 45 c6 14 4c 1e 40
       -1.894831483270361 7.574297998401342
000170 b4 5a 6b 72 f0 77 05 c0 7e 37 ff f5 44 7d fa bf
       -2.6835640849124847 -1.6555833443885315
000180 ac fb d3 54 f9 aa e2 bf 6f 31 f7 40 ab 56 f5 3f
       -0.5833708435819651 1.3336594140738176
000190 11 79 43 1e ca fd 08 c0 7a fa 91 f0 b6 05 08 40
       -3.1239206661549663 3.0027903360890464
0001a0 e2 33 d0 b4 31 53 c5 bf 1d a4 29 d9 1f 36 09 c0
       -0.16660138443731315 -3.1514279332955213
0001b0 27 66 de 93 19 f2 fc bf 30 18 4a f6 86 eb 05 40
       -1.809106423961916 2.740003513466057
0001c0 af b1 7f 67 7a f7 0a 40 6b e6 fb 97 f8 da ea bf
       3.3708389364093914 -0.8392298668324661
0001d0 dd af e6 80 a6 24 15 40 a6 b8 59 91 6b 8a b6 3f
       5.285791410522475 0.08804962442966033
0001e0 70 b6 83 3e 3a 8e 1f 40 28 80 99 38 27 38 20 c0
       7.888894058980085 -8.109674233186595
0001f0 28 1f 77 15 0a 57 05 c0 b6 92 bd 7d fe 54 0f 40
       -2.6674997021654185 3.916501028392612
000200 fa 0f f1 fb 8b 5e 1f c0 4d 1d 27 17 72 48 1c c0
       -7.8423308721430605 -7.07074772049175
000210 2c 87 61 91 69 91 f3 3f 55 80 3b b8 fb ab 10 40
       1.2230010680145353 4.167952421790763
000220 89 d9 e2 1e e4 ee e0 bf ef 1a 80 60 81 61 f3 3f
       -0.5291615107769739 1.2113050241038612
000230 ed 36 e8 d2 3d d2 24 40 99 4e 31 8d 8f 8c 03 40
       10.41062792858744 2.4436331778213796
000240 66 a8 56 ff 3b 01 18 c0 a5 77 eb 99 33 98 27 40
       -6.0012054344789245 11.797268686288428
000250 76 ea 91 e7 a9 90 04 40 4a 6a 43 d4 02 b6 ec bf
       2.5706365672497737 -0.8972181459205981
000260 f9 fe 93 54 cf 8a 01 c0 8f 1b f7 df 53 66 f2 3f
       -2.1927782638230124 1.1499823330538879
000270 39 ad f9 1e 7a bf 1d 40 34 a2 65 f2 e2 03 06 40
       7.436989292134336 2.7518977105394473
000280 45 6f c7 4a 46 1c 02 40 ca 3d 7c 5b 64 65 f7 3f
       2.263805946551573 1.4622539113660076
000290 54 22 a3 79 67 48 ff bf 5c b1 3f 5b 19 1c ff bf
       -1.9551768065886295 -1.9443601192861797
0002a0 a6 fb c3 82 31 27 12 c0 ce 82 43 7d f2 17 14 c0
       -4.538274806224683 -5.023385960813085
0002b0 54 e7 c1 7d f9 3f 15 40 b1 59 0d 02 28 63 12 40
       5.312475171050966 4.5968323059700404
0002c0 62 33 f0 ee e1 03 fe bf 84 e0 0c f8 6f 54 f8 bf
       -1.8759478887106629 -1.5206145944085003
0002d0 0c d5 8a ab e4 39 13 40 da f2 99 18 66 1c 05 40
       4.806536369656225 2.6388666078549763
0002e0 3a ec 6f 63 25 04 22 c0 09 6d 64 cf c0 1c 13 40
       -9.008097751057097 4.778079262260925
0002f0 63 35 96 aa 29 a3 ff bf 34 59 7e 1a db 6c ee bf
       -1.9773346580071454 -0.9507880704357263
000300 48 c9 4c cb bd 33 e8 3f d7 9f 21 b5 9c fb 1a c0
       0.7563160868360592 -6.74571497934081
000310 d3 ef 85 25 a4 cd 13 40 dc ef a3 c6 45 93 10 c0
       4.950821481990675 -4.143820861583631
000320 7a e4 4f 97 b5 ac cb 3f 5d 97 28 ad 7d 88 17 c0
       0.21620817077908666 -5.883291917421812
000330 b3 e5 e2 75 c8 48 27 40 a5 10 b0 75 08 a4 1a c0
       11.642154392192287 -6.6601885212623175
000340 ba 05 a4 ef d3 30 17 40 2c 45 0a df 00 c0 ff bf
       5.797683472047931 -1.9843758308891877
000350 38 95 5a e3 31 52 0e 40 01 9d 86 14 18 77 e6 3f
       3.7901342165011123 0.7020378495116405
000360 5b 37 6c c0 db 5d 09 c0 3d 23 74 3c 2e e7 fb 3f
       -3.1708292992615674 1.7439405786009978
000370 9f d8 f4 fe f8 f3 16 40 95 c6 a9 f0 d3 d5 03 40
       5.738254531568741 2.47940814989199
000380 10 f0 b3 8a 50 4b 18 40 cb 44 cd 2b 26 48 e1 3f
       6.07354943011525 0.5400572638992797
000390 06 e1 c7 f7 c6 cd e2 3f fc f6 94 88 95 9f f0 bf
       0.5876192893474872 -1.038960965655348
0003a0 d0 25 e5 e6 d0 49 1b c0 dc fc c9 ef 4d 0c 1d 40
       -6.8220859601364765 7.262016054824212
0003b0 f4 ef 43 53 ea 95 11 c0 39 29 3f cc 7c 4e f2 bf
       -4.396401692411008 -1.1441619852435692
0003c0 5b a8 10 c1 59 5c 13 40 1c 8f 41 c4 0c d7 10 40
       4.840186134950353 4.210009638310819
0003d0 69 1b 8d ed f2 7e 23 c0 be 08 43 25 dc 3a 04 c0
       -9.747947143053993 -2.5287402068216513
0003e0 ed 86 f3 dc 5b cc fc 3f ab 35 cb 5f ac 04 03 c0
       1.7998922949704437 -2.3772819026841794
0003f0 0c 34 82 15 c1 00 15 40 24 3b 6b e5 74 af 0f c0
       5.250736557075481 -3.9606721804951963
000400 d5 fb 1f 80 13 27 1d c0 cf 1d 25 de 01 ac ec 3f
       -7.288160325958377 0.895996984364439
000410 fb 03 2a be 81 e3 d3 bf 1e 71 8d 08 ec 36 16 40
       -0.31076091356959495 5.553634770996977
000420 58 fc cb b4 33 ff e1 bf d5 9a 85 20 99 01 ce 3f
       -0.5624025851428867 0.2344237717436132
000430 bd 77 41 e8 9f ae db 3f c2 56 01 13 e4 57 fb bf
       0.43253324204658467 -1.7089577429191398
000440 8b 05 01 6f b6 9a 10 40 d1 55 76 1e 8a 9c 19 40
       4.151086553990704 6.4028706321455084
000450 fb 71 ef d6 a4 7f cb 3f ee a4 2c 51 96 83 ef 3f
       0.21483288283242516 0.9848128877103173
000460 df 84 9f bb 7c 04 ef bf f9 de 33 b8 c9 8b fd bf
       -0.9692977585329138 -1.8466279216208348
000470 19 9c f2 58 1d 14 03 40 5a 6c 08 1e d6 cd f6 3f
       2.3848216008223173 1.4252530263099943
000480 b6 1c 89 f8 0b 3f f0 bf 4d d1 55 fa 84 bb 11 c0
       -1.015392275659719 -4.433124457824602
000490 28 bf dc 3f 76 ca d2 bf d2 cd df 3c c0 be 05 40
       -0.293607294431228 2.718140101985889
0004a0 ad 79 3e 0d 2f 61 24 40 96 37 7d 2d 2b db 21 40
       10.189812101246241 8.928063794646544
0004b0 0f 84 15 d3 de 56 e5 bf 1c e9 90 41 86 67 d8 bf
       -0.666854297898796 -0.3813186302464986
0004c0 93 ee 48 9c 09 fb 02 c0 25 1a 6d 08 a6 36 03 c0
       -2.372576924300867 -2.4016838701529815
0004d0 5d 0f 44 3a 1f 0c 00 40 d4 cb c4 ea 3d a3 0c c0
       2.005918936922099 -3.5797079411799846
0004e0 28 53 7c 55 17 11 f2 bf b8 f6 94 77 80 80 08 c0
       -1.129172643593117 -3.0627450315795066
0004f0 48 ab 0b a8 b5 14 17 c0 50 fd 54 2a 4b c9 d1 bf
       -5.770224214279388 -0.27791098722442076
000500 ad ba da f0 92 1e dc 3f a5 cd e8 7d 16 ab f3 bf
       0.43936608811319894 -1.2292694967589821
