examples/es/rl/logs_cartpole/0/924231285/trained_param.npy (npy, 1936 bytes, 1 tensors)

array f8 [226]
000000 1a 6e f4 3b d8 71 e0 bf f6 56 c0 08 de 38 de bf
       -0.5138970538131986 -0.47222090582486886
000010 da b7 a8 84 55 75 f3 bf 06 0b 0d 5d 73 ec eb bf
       -1.2161460096353864 -0.872613603344093
000020 c0 c3 63 77 bf c1 98 3f a8 7a 68 b9 43 3d e8 bf
       0.024176589643449153 -0.7574785825016379
000030 1c 69 1d 01 6a 95 9c 3f b0 57 55 6c ef de ef bf
       0.027913719480559526 -0.9959637752424353
000040 ff 53 ce 83 a4 64 e9 3f 20 47 06 dc 30 dc 97 3f
       0.7935354780516944 0.02330089896128762
000050 cb 3b 39 62 2d 36 e2 3f b1 c3 f7 88 ec 72 e4 3f
       0.5691134375027728 0.6390288043167996
000060 70 f8 ae a0 19 64 91 3f 99 e0 06 36 88 99 c7 bf
       0.01698341410860177 -0.18437292707472322
000070 86 ad f0 3b d0 44 df bf 03 d7 8d fa 43 6f f1 bf
       -0.48857503751306586 -1.0896644389408159
000080 07 3b 7d 71 41 5a c4 3f 02 bb 40 6b d5 18 df 3f
       0.15900438348258936 0.4858907267943523
000090 7e 8a cd 11 21 b4 e5 3f de f8 42 d0 cc ff e9 3f
       0.6782384250366957 0.8124755923852509
0000a0 2e 6e 4e aa a9 16 b0 bf 58 92 6e e5 59 d1 d0 3f
       -0.06284580619688349 0.26277778058491696
0000b0 0e 7e e9 40 20 42 e3 3f ed 42 df 1e f8 70 d1 bf
       0.6018220203222329 -0.2725200940595148
0000c0 18 28 a9 66 3c 4a cd bf c2 0b 79 ac f0 45 d5 bf
       -0.22882800114376844 -0.33239380686807973
0000d0 4b 0f f2 dd da a7 e1 bf 23 e6 bb b4 ac e9 f1 bf
       -0.5517401060937827 -1.1195494708939655
0000e0 2a 82 bd c3 49 c8 ec 3f 98 5a 69 0d c5 c7 c8 bf
       0.8994492362072084 -0.19359648852215083
0000f0 d2 72 0b 00 3d be dd 3f 8e 3f 2e 53 18 cb e7 bf
       0.46473622326247466 -0.7435418724653446
000100 5c ea 2b 7b ec 79 e2 bf c1 05 96 73 32 61 f1 3f
       -0.5773832708067164 1.086229754932319
000110 08 ce 3a 16 db cd e0 3f c4 e8 05 a3 2b 99 f0 3f
       0.5251288828062011 1.0373951309289149
000120 1c a8 58 d2 0e 87 94 3f dc 87 9b 08 37 4a b0 bf
       0.020046454990883075 -0.06363243065018714
000130 fe f8 e0 6e f3 98 ea bf 3b 85 e7 33 84 84 e5 bf
       -0.8311707654573011 -0.6724263204343183
000140 fa 83 6f a9 b1 65 d9 bf b6 72 57 d6 52 0a e9 3f
       -0.39683190866895723 0.7825102030143032
000150 51 0b a6 0a f7 ff d0 bf ea 68 96 d1 a6 d7 cb 3f
       -0.26562286415007913 0.21751866563574335
000160 0d 23 61 7d 98 5e d6 bf 54 4a 9e 6c e5 22 f4 3f
       -0.3495236610802273 1.258519577303237
000170 4a 59 c2 e0 cc 60 d0 3f ce 45 dc c3 02 e2 e2 3f
       0.2559082217134302 0.5900892091178151
000180 7d 0f 92 44 58 65 d8 bf 0e b9 8d b1 19 8d ea 3f
       -0.381185595477511 0.8297241657108161
000190 2b 66 e7 27 6f fa eb bf 28 4f d4 7e f3 72 a9 bf
       -0.8743205813763714 -0.04970513270578031
0001a0 71 50 08 62 03 c1 cf 3f 76 20 42 f4 3a 3f e8 bf
       0.2480777958559233 -0.757718541209228
0001b0 de b8 13 ed 59 9d e4 bf 3f 9e bb 9b d4 55 f1 bf
       -0.6442079191599779 -1.0834547122302778
0001c0 26 92 cf 69 9d 94 d4 bf 0f 82 fb b3 c3 f9 d3 bf
       -0.3215707333859278 -0.3121194131508966
0001d0 11 fd 99 07 b2 9c c3 bf 70 a9 d6 4f 41 24 d8 bf
       -0.15321946498077257 -0.3772128371880603
0001e0 1c 57 3f bb 91 fe c4 bf 7d 5d 0b 91 70 42 f3 bf
       -0.16401883738461087 -1.203720633105916
0001f0 69 0a 4d d1 ed c2 ed bf 2c 8b 7b 95 11 c2 dc bf
       -0.9300450408848749 -0.4493450126448575
000200 3c 05 c4 ab 2a 91 ac bf d8 07 a4 ed 47 2d e1 bf
       -0.055795033900731345 -0.5367774621411128
000210 5e 0c dd 87 b6 f3 e2 bf 2c 86 e3 f1 8a 8d f8 bf
       -0.5922501233657262 -1.5345563362865375
000220 ad 74 4f 05 91 25 d3 bf 82 bb e7 d8 1a 8d c0 3f
       -0.299167876420891 0.12930617896151025
000230 8e 96 4c 91 f5 53 b3 bf 64 1d 84 08 4a 24 ec bf
       -0.07549986646025728 -0.87942983306213
000240 06 55 a8 de 17 60 be bf 87 e3 63 ca 94 55 ec 3f
       -0.1186537664983299 0.8854469254430207
000250 e6 66 a4 a0 76 fe c1 bf fa 91 0e c4 d8 71 d9 3f
       -0.14057810634476836 0.3975736536615667
000260 7d 10 9c 63 8d 0f d4 bf e6 fd aa 9d 28 8e c0 3f
       -0.3134492371320972 0.1293383378851864
000270 40 63 45 e9 df a5 d4 3f ee 48 d9 16 a2 b1 ef 3f
       0.3226241853749805 0.9904337354912778
000280 dc 0c 62 8c e1 ff e2 3f ca 18 68 2c 1e 44 e2 3f
       0.5937354795318259 0.5708151690785368
000290 9c 1a d4 ca 0e f3 e8 bf b9 d7 24 3b 50 6a e3 bf
       -0.7796701394552943 -0.6067277102617857
0002a0 31 3f f7 65 9a ed d9 bf ee 3f 35 3d 8a d0 c8 bf
       -0.40512714345549045 -0.19386413563415722
0002b0 02 bd 4b 14 c1 1b 9c bf a9 2f 68 5c 2d 33 e5 bf
       -0.027449623931656404 -0.662497215731027
0002c0 b1 bd 49 9e 96 88 d1 3f 40 42 1c cc 98 62 8b bf
       0.27396169145410015 -0.013371652344660423
0002d0 38 72 a4 9e 00 61 96 bf d8 cb 53 92 07 80 f3 bf
       -0.02185440986896678 -1.2187572208319946
0002e0 ed f5 42 16 13 01 c9 3f e4 37 a1 38 9f 20 bf 3f
       0.1953452929209755 0.12159152157366254
0002f0 ba 5c 74 f6 c0 e8 e8 3f c6 5f 80 5f 6e fb f5 3f
       0.7784123242917282 1.3738845568204723
000300 d6 ac 11 12 12 4f df bf a7 c9 1b e3 35 ad ce bf
       -0.48920108570628196 -0.23966096486362895
000310 70 0a f3 26 49 7f e5 3f a4 8e b9 6f dd 51 d4 3f
       0.6717878113489189 0.31749664221409035
000320 41 ad 09 b7 ed 77 d5 bf a8 16 8d db ba ff e9 bf
       -0.3354448592642321 -0.8124670303447674
000330 f6 30 1a 9d a1 c4 ec 3f 99 a7 80 34 f8 6d df bf
       0.8990028446583256 -0.49108700873568406
000340 ad 27 bf fb be 0a d1 3f ad 7d 5e 2a 31 61 e6 3f
       0.2662808855499133 0.6993642642518602
000350 1c fd 39 50 f3 06 da bf 2c 55 fb 7b 7b 0b f0 bf
       -0.40667422136898934 -1.0028033106839969
000360 a2 c6 4d 25 72 b4 ba 3f 2b de e8 f1 c8 96 e8 3f
       0.10431588564622499 0.7684063648984581
000370 1a fb 1d fd 8f 08 e1 3f 0a 0c 6c 68 9d 17 e8 bf
       0.5322952216809853 -0.752882675122579
000380 a1 5e ff df b8 6f d9 3f 1b 73 b4 69 f2 13 e4 bf
       0.3974439799762682 -0.6274349274204697
000390 3e 5a 47 37 07 e5 d4 3f 55 b9 d2 4e 1a 44 eb 3f
       0.32647877119362423 0.8520633258356535
0003a0 45 34 7c f5 83 68 cd bf be d5 ca 83 44 69 ae bf
       -0.22975205885487263 -0.05939687832634942
0003b0 fc fb cd e0 5e 4c f4 3f da c9 31 7a 86 58 c7 bf
       1.2686451703482353 -0.18238907782104158
0003c0 bd 23 9b 65 ed bd d5 bf 8b e4 6e 20 55 58 d3 bf
       -0.3397172443624717 -0.3022663895349715
0003d0 81 f7 4a 74 4d a0 da bf b6 8a 8d ef b6 bb d7 bf
       -0.41603409153673715 -0.37083218950116803
0003e0 a1 60 11 34 86 57 e0 3f 70 e8 80 cd 89 90 9b 3f
       0.5106841103506846 0.02691855732721432
0003f0 53 aa 69 6e b9 9a e5 bf 30 61 17 d8 d0 a6 b4 3f
       -0.6751372486590504 0.08067040706317097
000400 37 e3 62 79 e0 07 d1 3f 7f b7 37 de bf 86 e6 3f
       0.2661057649052511 0.7039489116848329
000410 96 ab 4c f0 b8 e4 dc 3f c1 a2 6b f9 6e c1 b9 3f
       0.45146010843989737 0.10060781087271221
000420 0e e6 83 d1 4e 37 c2 3f 03 11 ea 3e 63 54 bf bf
       0.14231286268459126 -0.12238140378946487
000430 9d 9c 08 df e9 31 a7 bf 1d c1 79 30 6b 36 d0 bf
       -0.04530268523768053 -0.2533214543718872
000440 34 9b 59 51 39 3d a8 bf 22 48 c1 3f b3 7e da 3f
       -0.04734210126917163 0.41398316598963636
000450 c4 c9 c5 be c4 45 dd 3f 0e 64 ee 3e 20 c7 dc bf
       0.45738333349359217 -0.4496536840975417
000460 16 49 6e 57 ec ef c7 bf c6 bb bd 0f b8 eb bc 3f
       -0.18700937527734912 0.11297178634934743
000470 c2 a3 f7 5c c6 00 db bf d8 69 60 ee c3 d9 d6 3f
       -0.4219222934612469 0.35704134253469766
000480 4e 83 a5 38 7b 9e e0 bf 70 53 a7 a2 cb 82 f0 3f
       -0.5193458658578523 1.0319324830681715
000490 38 3b e9 57 34 09 b2 bf fa c3 e7 78 b1 60 ee 3f
       -0.07045294901147947 0.9493033753807361
0004a0 71 7c c0 d5 ae 29 cd bf c0 54 4d d1 71 9b e7 3f
       -0.2278345626554912 0.7377251708918706
0004b0 58 8a 13 07 03 2c c6 bf fa cd 75 b0 13 6a b6 3f
       -0.17321813436054145 0.08755610521421167
0004c0 04 8a 26 07 20 1b e2 3f b7 12 8a c0 53 bd dc 3f
       0.5658111705454876 0.4490556125895568
0004d0 e4 15 be e6 1e 22 bd bf dc 19 9b e2 73 f3 b8 3f
       -0.11380189069139807 0.09746479303712569
0004e0 69 4d 08 4e 93 49 dc bf 3c 33 e5 b9 ef c0 da bf
       -0.44199068661074264 -0.4180259051689068
0004f0 b1 78 98 88 cd 7b d1 3f d4 44 72 8c f8 ba e8 3f
       0.2731813272420239 0.7728235953419706
000500 dc 97 fc df 3a df de 3f f7 38 60 bd c9 41 d1 3f
       0.48237487672520074 0.2696403836606715
000510 96 a3 e0 f2 5b 63 b2 3f bb fb 12 ba 43 44 df 3f
       0.07182860068918581 0.4885415379648596
000520 3e 41 d4 d8 9c cd aa bf d6 4d fe 94 db 27 de bf
       -0.05234995028343058 -0.471182723523467
000530 4b c6 29 96 b4 df e7 3f 7c 11 af 8d 1a 1e c5 3f
       0.746057790076699 0.1649811927619672
000540 98 93 b9 56 0d eb f4 bf 8d 48 99 f5 ce f2 ed 3f
       -1.307385767716573 0.9358897015429349
000550 8c c9 16 59 cf c7 cd 3f a3 ff 87 68 96 c2 ea bf
       0.23266021585511643 -0.8362533609033459
000560 2a af 7c 6e 50 18 dd 3f 68 ae 11 16 d8 ea ae 3f
       0.45460902013540994 0.060385468191125835
000570 12 80 58 4a 01 0b e4 3f d8 7c 37 0e 02 68 d2 3f
       0.6263433887543235 0.2875981463275372
000580 ab 4f cc 6d 04 23 f8 3f ac ba 4e d7 ab 44 ae bf
       1.5085491456020275 -0.05911767009034938
000590 00 f8 c7 44 e3 94 be bf b7 9f 02 1a f2 12 f3 bf
       -0.1194593470499683 -1.1921254173303006
0005a0 7d 5c f6 56 0a 78 d2 3f c0 da 23 5f b9 c9 d3 3f
       0.28857668392578956 0.30918726244946626
0005b0 32 17 ed 0f 43 15 bb 3f 35 df a8 28 f3 45 d8 bf
       0.10579318178960476 -0.37926939936322707
0005c0 08 4b a7 06 e4 9e dd bf 02 f3 d6 44 b9 fe de bf
       -0.4628229203200793 -0.4842971012365497
0005d0 de 04 51 54 9d ac df 3f 42 6c 38 c9 be 17 bf bf
       0.49491055711776066 -0.12145607388122051
0005e0 e2 4a 89 72 c1 56 c8 bf e2 34 d1 52 a0 f9 f4 bf
       -0.19014757244675368 -1.3109439120337858
0005f0 5a 74 7c 18 93 ad e0 3f 4f c4 7b 16 b2 08 e0 3f
       0.5211883047337651 0.5010614813928757
000600 83 88 71 b6 1c a6 f0 bf 78 63 da 58 61 9d e5 bf
       -1.04055472628582 -0.6754614577686047
000610 8e 1b 20 fb 6d 65 ea 3f db d9 43 e4 49 28 df bf
       0.8248815445702904 -0.4868340233946619
000620 19 be 2f 96 ee 05 f3 3f ca 34 0b 33 db f1 d5 3f
       1.1889482371005953 0.3428867338632925
000630 9a 8e 7a c7 40 95 e4 bf 94 78 7b b3 36 17 cc bf
       -0.6432193656987295 -0.21945842517647363
000640 98 a5 df f8 14 2d d1 3f 1e 7d da a2 1b f1 d5 bf
       0.26837658218445304 -0.34284106162700023
000650 72 2f e1 40 58 99 d4 3f 7b ba 86 0e 5c 8b ec 3f
       0.3218594201650752 0.8920116695133652
000660 92 8c 7f 9d e8 31 b6 3f b1 e1 08 94 ff 48 f3 bf
       0.08669904561206668 -1.2053218634228922
000670 b2 8c 8b fb 6c 08 e4 3f c1 1b f4 31 b9 b8 f1 bf
       0.6260285294523753 -1.1075984908400047
000680 d8 ad 48 dc 2f 96 e2 bf 84 db a7 ec 63 2b e4 bf
       -0.5808333685321783 -0.6302966711217413
000690 98 26 31 b3 13 c2 a4 3f 03 8f d6 3d 1d ec d6 3f
       0.04054318964388165 0.3581612686050308
0006a0 0c c7 88 4f d2 91 b9 bf 52 57 d6 be 4e 62 b8 bf
       -0.09988130990748462 -0.09525005492318186
0006b0 81 90 0d 22 65 2a e6 bf e7 ff 5b 28 b1 1e e3 3f
       -0.6926751771066081 0.5974965847271932
0006c0 88 36 ab 3d bd 3e d5 3f 00 c4 74 fa 22 c0 e0 bf
       0.33195429823249656 -0.523454178974248
0006d0 3a cb f6 36 8f 0a cb 3f a4 c6 4b 8c 40 fc a4 bf
       0.21125974830428068 -0.040987031103111776
0006e0 30 74 ff 3d 70 da d3 3f 1e c6 78 1e 03 9d de bf
       0.31020742468337215 -0.4783332631660374
0006f0 84 63 bd 82 b2 8a af bf 92 99 8f f7 05 b6 c2 3f
       -0.06160505147881337 0.1461799105447424
000700 58 e6 ed 73 cf 5a d1 bf 18 33 ed 58 7f 4b aa bf
       -0.27116762467594446 -0.05135724983720119
