examples/es/rl/logs/0/398764591/trained_param.npy (npy, 1424 bytes, 1 tensors)

array f8 [162]
000000 26 05 15 19 34 bd 0d c0 5d 98 bb 33 29 84 12 40
       -3.717384525255187 4.6290634234665875
000010 cf 85 89 55 2d 1e f9 3f b7 4b 8d 72 15 b9 c0 3f
       1.5698674527451322 0.1306483086906078
000020 d2 cd 17 f7 35 34 fd bf d6 63 00 b9 77 0c 0e c0
       -1.8252467777318668 -3.756087727856065
000030 75 31 c6 78 51 df ff bf 77 4f 45 70 23 0a 19 c0
       -1.9920210569135552 -6.259900812368747
000040 e1 b4 e1 9d 67 51 d4 bf a3 fa 94 77 14 34 f7 bf
       -0.31746855180865735 -1.4502148314638041
000050 0f 54 ce 20 ea f4 09 c0 d5 d6 58 73 4a 3a d9 bf
       -3.2445871890036027 -0.3941827894626447
000060 2c 67 d5 b4 a0 90 06 c0 9b d2 ed e2 45 41 0b 40
       -2.8206190230966026 3.40687157905843
000070 96 bd 02 d2 c2 3c 12 c0 b0 d5 4e 2a 24 0c 05 40
       -4.559336930672904 2.6309283547695586
000080 c7 8f 5d 46 c0 c1 fb 3f 7b e9 79 eb 95 14 0d 40
       1.7348025082255718 3.6350515743808365
000090 04 b7 18 92 a6 ea f3 3f b3 b3 bf b7 69 7b ff 3f
       1.2447877604385562 1.9676301171959778
0000a0 71 df 1e 88 cf dc 06 40 82 87 02 2a 44 2e f8 bf
       2.8578177103444706 -1.5112954751025147
0000b0 86 aa 8b b4 b3 39 1e 40 22 e5 ad ad 0c 13 e5 3f
       7.556349583649199 0.6585753814862623
0000c0 8e 7a e5 a9 d5 9e 0e c0 23 43 92 81 f5 07 06 40
       -3.82755596858562 2.753886234546728
0000d0 15 b4 4d a2 20 7f 09 40 56 85 f7 5d b4 93 1c c0
       3.1870739631617746 -7.144242733223413
0000e0 9d 91 aa e0 79 3d 1e c0 c0 d9 5e ed 2d ac 03 c0
       -7.560035238657659 -2.4590719742365934
0000f0 a4 c5 3d 56 3e 81 1a c0 eb 75 2d 6e e4 91 1a 40
       -6.626214358825937 6.64247295525045
000100 9c db dd 66 a9 15 03 40 8d 3c 78 37 1c 76 d7 bf
       2.3855770145850794 -0.3665838758178744
000110 e3 55 3e 40 7a b1 ec bf fb d9 05 ae 6b 20 eb bf
       -0.8966647391086408 -0.8477075957187589
000120 42 58 01 35 bf 73 e0 3f f9 c3 40 b6 58 91 f3 3f
       0.5141292605646941 1.2229849929101404
000130 44 1e fb f0 8f 21 17 c0 0a f4 1f 41 72 38 02 40
       -5.782775655104675 2.277561672961842
000140 5d 54 6b 3b 09 f6 08 c0 3b 91 4b 80 82 c4 f3 bf
       -3.1201347963456514 -1.23547601809794
000150 4e 3c 86 37 60 e5 fc 3f ea 45 67 a1 b2 80 09 40
       1.805999962703726 3.1878407106057596
000160 e1 10 70 a6 76 7a 04 40 a0 f5 c2 64 84 34 06 40
       2.559796619696599 2.7756431457516584
000170 44 44 9a 48 c8 0d a3 bf 34 2d b8 f7 14 8a 06 c0
       -0.03721452604543932 -2.8174228051263075
000180 68 9a 1f 0a 79 6f 12 c0 37 f4 46 08 0b 8b 0b c0
       -4.608860166720298 -3.442892136254638
000190 49 2a 1e 35 04 66 fc bf d7 ef 61 ca 09 4a f1 3f
       -1.7749063563266125 1.080575743252657
0001a0 2f 1b 52 94 7d 95 01 40 9c a0 f2 fe 74 99 e1 3f
       2.1979934299046344 0.549982545800066
0001b0 f3 ba c9 c5 0c f4 fd bf 4d f8 34 91 47 5a ff bf
       -1.8720824934095475 -1.959540908064372
0001c0 50 30 e7 1d 3f 18 f3 bf 44 62 e1 8b 2f 71 d2 bf
       -1.193419567879591 -0.2881583086032473
0001d0 99 77 fc 3f 9a 04 05 40 eb 48 88 c9 c3 34 e8 bf
       2.6272473334237927 -0.7564410148791273
0001e0 d4 70 a1 9d f1 4f fd 3f 74 86 e1 a1 0a 14 f5 bf
       1.8320175321051027 -1.3173929522967258
0001f0 8b a8 fa 95 ea cb ff bf fc d2 49 c4 b5 a2 b7 bf
       -1.987284265380853 -0.09232650797077818
000200 d7 bc d4 f7 57 8d 03 40 7e 24 f4 02 f2 ef f6 3f
       2.444015442065943 1.4335804095628926
000210 f7 9e eb 57 52 aa ff bf 5f 74 d1 54 03 0b e7 3f
       -1.9790824350729375 0.7200943619351498
000220 83 66 50 40 cb fd 07 c0 3b 20 68 ff 68 2f fb 3f
       -2.99892282719958 1.6990747429681636
000230 ff 6a 00 24 c1 62 0d c0 d2 00 02 9d c5 de dd bf
       -3.6732199490191983 -0.46672191937251484
000240 25 1b d2 d6 65 61 06 c0 c0 41 fc 0e 90 72 a2 bf
       -2.797557524001052 -0.03603029425551396
000250 ee 67 f9 02 51 86 0a c0 c3 51 b9 0a bf 3f de 3f
       -3.3155842048990882 0.47264076277977213
000260 cd 76 f0 8f f7 e4 02 c0 9e fb 9b c8 29 bf 18 40
       -2.3618003125437554 6.186682829399528
000270 18 d3 29 bc c9 99 f2 bf 7e fd f4 c0 2f 23 e1 3f
       -1.1625459051258016 0.5355452316943425
000280 0c 28 50 57 f7 c5 10 40 5f a0 8b 8e c2 fb 07 40
       4.193326343791352 2.997929681430875
000290 c7 39 9c 02 3e 21 14 40 dc c3 97 30 26 16 c9 bf
       5.032463112626323 -0.19598843929955378
0002a0 cc d8 fb a7 12 d9 01 c0 64 51 59 61 7c b0 fb 3f
       -2.2309926151020587 1.7305873682681403
0002b0 5e 1a 41 fe b4 c7 fc bf 36 8f ee 69 e3 27 16 40
       -1.7987565929230622 5.538953452287208
0002c0 d4 e4 f9 ff d5 22 a8 3f be f2 ec 3b 43 c9 ff bf
       0.047140777108276716 -1.9866363850443771
0002d0 4a 50 ed 70 fe 8b 0d 40 9f a8 00 1a d9 a0 19 40
       3.693356401674497 6.407078176775172
0002e0 d6 8f d3 38 5f 27 20 40 22 56 c6 cb 9d 79 1a 40
       8.076898361039564 6.618766006451127
0002f0 4d e2 a9 f2 54 4b 15 c0 4d 99 84 b1 e2 0c d8 bf
       -5.323566238039871 -0.3757864698003644
000300 08 62 0d 30 76 34 18 40 75 ee cf f3 f4 36 0b 40
       6.05123210031207 3.4018343971090936
000310 48 6a 9f bf ef 52 df bf 93 2a a6 80 e5 15 fc 3f
       -0.489437043315466 1.7553458237986532
000320 35 41 e2 10 b1 55 d9 bf 7e bb 9a b8 f9 43 d1 3f
       -0.39585520409402203 0.2697738936212132
000330 e7 85 0c e8 48 1c f3 bf f1 19 30 40 51 39 00 c0
       -1.194405466500365 -2.027987004726349
000340 e7 61 6d d3 91 de 0e c0 94 14 5f 2a fa fc 19 40
       -3.8586765783077115 6.497048055699583
000350 ec 74 a4 15 c4 47 18 40 77 4d 4f a9 4c db 0f c0
       6.070083940661089 -3.982079813702224
000360 2d 9a 28 cb 38 71 05 c0 97 39 17 37 14 36 d5 3f
       -2.6802841064229797 0.33142571811631555
000370 43 2b 0e a7 4b da cb 3f ea de 43 a8 7e 94 c5 bf
       0.21759935051917453 -0.16859420028753586
000380 80 d6 ff 6c c7 15 0c 40 d1 c5 57 f6 6a 27 02 40
       3.5106342807364967 2.2692469831024273
000390 2e 86 2e b4 79 98 ff 3f 10 2a ab 05 c7 3d 03 40
       1.9747254408215542 2.4051647608623696
0003a0 d3 77 ae 7c 13 18 f3 bf c4 eb dc 0c 97 4a 13 c0
       -1.1933779592868532 -4.822841835960336
0003b0 5a da 05 bc df f8 0c 40 60 b2 8f ba 8e 6a 12 c0
       3.6215204896246123 -4.604060091991954
0003c0 e1 b3 79 e7 4f bd fd 3f a4 2a f7 32 e8 31 0a 40
       1.8587187807090617 3.274368665855336
0003d0 f5 cb f2 6e 42 a2 f2 bf 2d 98 74 02 5d 1f 0f 40
       -1.1646141370699727 3.8903141204673575
0003e0 de 70 f9 09 f6 61 f4 3f 01 cf 4e ab 26 27 13 40
       1.2739162816642913 4.788233448681923
0003f0 0f eb 9e 19 35 11 0f 40 14 d1 3f 4d 10 ec 14 40
       3.8834020616171823 5.230530936260283
000400 70 eb a4 24 e3 42 1a c0 2f da 4d ef 55 e6 09 c0
       -6.5653196073206885 -3.2374685950883513
000410 99 ca 99 b5 74 c1 fc bf 86 b4 fb 1e 5a 82 08 c0
       -1.7972304433612065 -3.0636484547199556
000420 cb 0d 5b 36 bc 0e fd 3f 3a cb f1 e3 ed 4f e0 3f
       1.8160974620121688 0.5097569896737248
000430 e5 af b0 94 75 57 04 c0 91 28 e1 5c 67 a4 04 40
       -2.5427047363682385 2.5802752739155683
000440 62 9f 65 d0 1f 55 06 40 e9 0d f1 20 c7 f0 e2 3f
       2.791564586735988 0.5918918269530283
000450 7e 31 ea 1f d6 7e 1d 40 fa 3d 82 0f 95 5d 16 c0
       7.373863695782687 -5.591388933491084
000460 ea 82 48 ad 31 14 dc bf f0 a9 76 af ee ab a7 bf
       -0.43873254701797626 -0.0462336148442154
000470 9a 17 62 96 de c7 0e c0 0a df ce 14 ab fc 06 40
       -3.8475925205884325 2.8733731866485686
000480 ad 76 0c 7d ab d2 f0 bf 1b 3a b7 f3 99 32 0b c0
       -1.0514330754007617 -3.399707702664512
000490 96 36 42 2c 93 ce 11 40 4c 7a 92 8c cc 93 f8 bf
       4.451733295003256 -1.53608374510772
0004a0 b4 82 f9 70 1e 91 fe 3f ce 77 46 cb 27 05 f7 bf
       1.9104294217178621 -1.4387586536827146
0004b0 10 58 b4 1c 9d 76 e8 bf ed 39 64 35 6f c8 cd 3f
       -0.7644792137750773 0.2326792727184989
0004c0 03 7d b7 58 23 6e fa bf 57 7a 3c a8 32 71 05 c0
       -1.651889177846727 -2.680272402139319
0004d0 6c a4 36 d9 9f 31 0a c0 c8 2b f5 8c bf 11 f4 bf
       -3.274230668048906 -1.2543330675277833
0004e0 ab 15 90 73 3c 84 0c 40 ed 9e 88 11 a3 33 e6 bf
       3.5645684269281523 -0.6938033430533018
0004f0 42 0c 3c b1 91 64 d6 3f 50 83 bd 15 c4 06 fe 3f
       0.34988825138151836 1.8766518449048881
000500 08 b3 2c f4 b6 8e 14 c0 ec 11 86 2b 95 2e ef bf
       -5.139369788387519 -0.9744363641808014
