examples/es/rl/logs/0/398764591/trained_param.npy (npy, 1680 bytes, 1 tensors)

array f8 [194]
00000000: 80a2 74d3 ff4e 0740 23a7 5d1c e5a9 20c0
00000010: ef94 895a 2cd3 2040 643d d1fc 645e aabf
00000020: 6cf7 343b b038 02c0 da9c 2627 b1cd 1940
00000030: 9cd2 7801 676a fdbf 7816 408b 2c71 3240
00000040: fb3b e7ab 5ba9 1240 1578 00e2 dee2 0f40
00000050: 8fce b490 50d0 f83f 54b6 2b6a e687 13c0
00000060: 6c22 52cb 0ee9 fd3f 7209 728c 1b7d 11c0
00000070: c631 d15d ec90 2740 5d6b f7e6 c3bb 0a40
00000080: 25d1 051b 14b5 f83f 26a6 9c5a 9129 ea3f
00000090: d2e6 dc7e 1081 edbf 39ba 243b a79c 15c0
000000a0: 83cf c5bb 167f e93f 2200 f134 d485 db3f
000000b0: 3615 2458 e459 01c0 3eda a159 21a5 fe3f
000000c0: f20a a312 6b48 f63f 98a1 574b f061 09c0
000000d0: 1838 d369 af61 11c0 1b6e 7945 86f9 10c0
000000e0: 80c4 8898 3562 10c0 892a 8ea5 a3c7 1440
000000f0: a2da 0937 3cc7 0340 0379 9483 90b8 e63f
00000100: 3914 9bf8 876a 1140 0eef 503d a41d d33f
00000110: f8ea 6de9 80a5 1a40 cddd 8a76 41c8 1440
00000120: 87aa 20d6 9657 0640 8e5b b4d4 d107 e63f
00000130: de04 3432 ab9b 01c0 c5e7 415c 2a3d 14c0
00000140: d71b be11 35a1 0bc0 e966 b1e2 337b 0940
00000150: 79c8 671f 0cf1 14c0 4064 9a17 cd7d f13f
00000160: 3025 017c 5e18 0240 d84f 944a 4dbc 09c0
00000170: 0749 ec70 daee 1d40 3164 9cb1 eb8e e73f
00000180: a852 7677 1c1a abbf 1733 5714 46da f9bf
00000190: c261 558c 15d9 1540 4e11 584b 1b74 1340
000001a0: 4d33 3c47 7ad4 f13f 444e 6132 af8c f7bf
000001b0: 2bfa 084d db49 fd3f 001d d0c7 07eb f2bf
000001c0: 98c5 e76b 3325 fa3f a396 5c8b 28cb e3bf
000001d0: 4609 de81 9257 0340 8fa5 dcea a9d1 ebbf
000001e0: 721b cc57 544f f83f d258 a688 7393 1b40
000001f0: 5384 25f0 5c0f 1640 727c 1b57 745d f13f
00000200: dcc5 927f 5c04 d83f 328b 7d75 f1b9 18c0
00000210: 793c 5659 e76b 1040 d43f db90 6125 df3f
00000220: 58aa 4941 843a d03f 5cd0 be0b f5e4 1240
00000230: 4b64 91c5 5010 febf 12bf 0a76 0a7f 19c0
00000240: aa92 4609 6dc2 2140 23f6 856e 1e19 12c0
00000250: 92a7 5028 37f1 03c0 6b2b cf44 d9d3 ebbf
00000260: c8b6 183f 0cc1 babf ee36 2d1e ab05 f4bf
00000270: a63f f90e 7a95 14c0 d008 6765 9fea f83f
00000280: 8d0d eead 8af4 0b40 3172 601e 591f babf
00000290: e81a a69f 4f5c 00c0 cf21 7bc9 dc49 0040
000002a0: 515e 2234 9609 04c0 ae37 a82c c9bc 0dc0
000002b0: 5625 7e5f 3be1 0340 e496 5de9 6fe4 22c0
000002c0: ddb0 d00a f47e 21c0 0ce2 b45a a4c2 19c0
000002d0: 0fa2 4cfc 2b43 1b40 97d5 b651 9ee5 0ac0
000002e0: fd37 650d 0659 0fc0 1076 55ef 35a0 02c0
000002f0: 1102 dc1e dc22 0f40 d982 b317 8597 1c40
00000300: 91a1 83f4 4d5c 06c0 925a 4c4f 0225 10c0
00000310: 04d9 710c 3c74 2340 f4ff 3175 1106 f33f
00000320: f1a9 e2bb bf20 f13f bb68 18ae 4dc9 fe3f
00000330: 3a46 f9fd 1c97 eebf c426 8128 a6bd f53f
00000340: d085 f89c 4046 05c0 9671 6937 595e 0040
00000350: 8030 ccc9 d5d6 1840 6bf9 f00e 423f f83f
00000360: 4242 6b94 1555 cc3f d595 dfe4 37dc 05c0
00000370: f541 2b8d 7433 1140 68d4 3a93 cd31 0840
00000380: a4ac 0bf5 2dd2 febf 0635 6373 2b5f f7bf
00000390: ee36 6932 aa0a 07c0 0811 5940 929e 08c0
000003a0: 2b9a d439 589e f3bf edb6 e3fa 29c1 f33f
000003b0: 2877 8120 93df dd3f d110 261a bacf 0640
000003c0: 91dd d55a 638c 01c0 2c78 7ed1 cc2a e73f
000003d0: d280 d99a bd93 d3bf 45b9 1c64 2bc4 0b40
000003e0: f880 ed94 0cb3 abbf 188d 875a 7aa4 1140
000003f0: 18e3 5bc5 bf64 0940 7afa 8ed5 bcca 1ac0
00000400: 0e20 b83b 3a9c 2240 402a 3551 6fe7 f13f
00000410: 1b4b 934f 214f 22c0 08d0 700f f9b3 d4bf
00000420: 04de cdfb 27b5 18c0 84c5 c53b 3031 0fc0
00000430: 3c9a 6ada 90e8 17c0 b01f 1bdd 8028 0740
00000440: 08b8 fc13 553c 0940 3572 e18c 7522 10c0
00000450: 00d1 cb40 dfa2 e9bf 4b4d 59ba 7b03 2240
00000460: f35b 73e4 d495 d9bf 57f9 f0e7 a89d 0740
00000470: a23b 3342 fbf5 03c0 50aa d576 27c3 21c0
00000480: d498 29e7 3f2e 03c0 5980 7c26 3368 f8bf
00000490: 4228 1cfd 2e03 1340 4302 4dd4 d8f7 0340
000004a0: 3e60 f353 104e 22c0 958a 3193 27ba 0740
000004b0: 3432 a0d2 9b19 e83f 1acc 222b ed5c 1040
000004c0: e86b 6a4a 8853 0f40 b888 6fa2 8547 ff3f
000004d0: 5716 eee0 4f24 0040 9189 8bfa 05f2 1140
000004e0: 0617 068f 5ed2 1840 919d 1347 bd46 20c0
000004f0: dea2 4ca2 6a04 0240 e80d 6957 e38f 08c0
00000500: ee1f 563a 746f 17c0 f8e4 1642 836e 02c0
00000510: 2c57 41ec 20d4 df3f 8926 3d2d 2a59 fd3f
00000520: 4987 47ef 57a4 f73f 4592 a3c4 4640 cebf
00000530: 56e9 1a41 0fb3 e43f 8f08 03e4 3e8d 0840
00000540: e278 0df2 b7f3 f4bf 24b8 7aeb 5b60 2040
00000550: 3eb1 01bc 86bc 0240 0065 14d3 cfd5 19c0
00000560: 4aa1 223b 3165 ddbf 081b 82bb 7afa 04c0
00000570: 14e4 2d10 0cb6 0840 b613 2b27 2e89 0140
00000580: 86fd de30 3bbf 0a40 55fc f777 0fae fcbf
00000590: 1087 4a44 d14f 0bc0 a224 d8d6 e03a 1340
000005a0: c920 1c86 d506 0140 37e8 bc31 c9b4 e33f
000005b0: 2d67 dae2 8d76 02c0 ef89 b42b 010d cd3f
000005c0: 84fb 8a70 73e1 efbf b0e4 8bb6 2d83 1ac0
000005d0: 9d23 c150 d8c7 db3f 5e46 278c c4b7 0c40
000005e0: 8871 c2f3 715b 12c0 3902 0f30 f1b6 2340
000005f0: ee68 fdbf d033 13c0 0ca8 2546 829d 05c0
00000600: 303e a16c ddd8 1d40 81c0 d1fe a053 1140
2.9135738868683916 -8.331826101715313 8.412447766585016 -0.05150142274998862 -2.277679884485158 6.450871097308857 -1.8384771401880817 18.44208593668597
4.665388761509344 3.985776677741351 1.5508580830182017 -4.882714899938566 1.869398874494574 -4.37217540212656 11.783053333078794 3.3416822475677876
1.5442086272788142 0.8175741929782745 -0.922004936007591 -5.402981685749688 0.7967637698588849 0.4300432698255482 -2.168892563439523 1.915315008283542
1.3926802375796652 -3.172821606265824 -4.34539571143798 -4.243676267181878 -4.0959075768925 5.194960200121053 2.4722828197366917 0.7100298471375769
4.354034313645621 0.2986841772833352 6.661624572118619 5.195562221742375 2.792768166419879 0.6884545473466106 -2.2010101244091933 -5.059731904528182
-3.453714502920302 3.185157557524566 -5.235397806844156 1.0932131692882336 2.26189896467681 -3.216944296504135 7.483255161687572 0.7361963719332661
-0.05293358763006967 -1.6157894892268752 5.461996262275024 4.86338536953947 1.1143744261382438 -1.4718467681858707 1.8305314072782817 -1.182380466956431
1.634082242493923 -0.6185496065051733 2.4177599092373923 -0.8693437182566174 1.5193675450879849 6.893995413926136 5.5150029681108945 1.0853160288459347
0.375266193946201 -6.181585155284482 4.105374713791314 0.486656562291498 0.25357157111890194 4.723591025849682 -1.87898327994323 -6.374063343435198
8.879738130440575 -4.524530150343284 -2.4927809857953855 -0.8696104377680575 -0.1045081762356076 -1.251383893849773 -5.1459734286908425 1.557280918219977
3.4944051349900236 -0.102040834346959 -2.045073745018602 2.0360656490995335 -2.5046810219753657 -3.717180584796515 2.48497652629582 -9.446166317629327
-8.747955644583664 -6.440080086984846 6.815597479035673 -3.3621183761521922 -3.9184685751451966 -2.3282278726535495 3.8920214091197143 7.147968645411958
-2.795070562617362 -4.036141623530641 9.727020634553362 1.188981492799937 1.0704953517221123 1.9241463471030744 -0.9559464416908618 1.358801038952536
-2.659302927336036 2.0460686043790686 6.2097999125363685 1.5154438575405844 0.22134656664867874 -2.732528484414369 4.300249295964467 3.0243178846672443
-1.926313359460246 -1.4607347972226434 -2.880207437358755 -3.077427389829726 -1.2261583575251602 1.2346591759082302 0.4667709176481929 2.851429180418656
-2.1935488792912072 0.7239746181182958 -0.30589237329514873 3.4707858868852406 -0.05410041158643425 4.410622992061029 3.174193899027511 -6.697985970355711
9.30513178465483 1.1190026447462884 -9.154551016550206 -0.32348467357519484 -6.17691033786787 -3.8990177793245397 -5.977115071064471 2.894777037992718
3.1544591485499076 -4.033651543865337 -0.8011318460035284 9.00680334415542 -0.3997699957812408 2.9519823189176964 -2.49510814398623 -8.881160462934673
-2.3975828227586167 -1.5254394057629013 4.753108935206969 2.496019037819026 -9.152468322237947 2.96589579577387 0.7531260598930829 4.090748476027352
3.9157872976043 1.9549614281791445 2.0177304814012973 4.48635093189877 6.2054388377635 -8.13816282381484 2.252156513179542 -3.0702578381476435
-5.8588418116632806 -2.303961292575533 0.49732230254936627 1.8342687384742098 1.4776229235507847 -0.23633656121741545 0.6468578597626145 3.068967610685895
-1.3095015959912009 8.188201292734512 2.342053860475203 -6.458800600166114 -0.4593012883656412 -2.622304406078346 3.088890196228485 2.1919825611134582
3.3433746164370772 -1.792495220782958 -3.4139733634227767 4.80749831861718 2.1283369519552235 0.6158185931628911 -2.3078878138448062 0.22695936807674807
-0.9962708662131807 -6.628104069031153 0.4340725697152779 3.589730353306364 -4.589301880591286 9.857308866340746 -4.8006010054034345 -2.701908634208854
7.461782166806685 4.331668836166615
