examples/es/rl/logs_cartpole/0/1478610112/trained_param.npy (npy, 1936 bytes, 1 tensors)

array f8 [226]
0.4424862850503414 0.5398141931548976 0.7711048584678512 1.0135199397706514 -0.1528899281288244 0.4104776576374385 -0.6628417433234839 -1.1983452030131971
-0.27624433043206387 -0.016848066292982744 0.5233618571778188 0.8801845218108127 0.14349199386756345 1.3741330136390104 -0.4425217111949249 -0.48289233055558933
-0.055354696915663026 -0.545805743092287 0.090458051130334 -0.026913575058298417 -0.09623450792032187 -0.48105918447839463 0.04230577597569529 0.6214731712838528
0.0679412900003246 0.07044391095832428 -0.4552874710489585 -0.4113179556518063 -0.22241082413955704 0.4543154834591663 0.2554647029168286 -0.9004113032180829
0.046401959970226864 -0.2151642094843184 -0.20539126668570273 -0.7548815050831016 0.4249276042793323 0.3116869003746358 0.2611850605284729 -0.3515874670741073
0.4826210387530674 0.1695383319896666 0.09464681813085231 -0.12207170899381481 0.5959142917455831 -1.0966434113257961 -1.0710229320434907 -0.5606965584114427
-0.2596809495712429 0.6732487005930677 -0.09942068577783861 0.5118547510703519 0.19995683548323115 -0.5459458207047493 -0.5472700171179218 -0.6472126622853976
-0.09322674642572083 -0.8257881586043228 -0.3046608396915294 -1.6731665500335307 0.5439390307187366 0.29843598920121495 1.6502956498047447 1.525645774563124
-0.03879407932837575 -0.04428421852410022 0.061851626836074015 0.41236971609717926 0.08235666591835797 -0.2437223871163845 -0.6029206627261585 -0.8854266199247067
-0.0066770085122685625 -0.7909514878040307 -0.8125926217514221 -1.0397141363446953 -0.7939055143882987 0.3237965739471096 0.013802847189891082 -0.373042355792735
0.19583523841872894 0.37390473914474354 0.6725977762268918 0.10258457956638706 -0.01693736385001006 0.2130430156144043 0.10071219471341566 0.22687078608643071
0.5744670082655319 0.42890043239254805 0.07017554772913748 0.929856865034094 -0.15431596885448584 -0.13392050671704367 -0.9015705812829617 -0.8787946014303055
0.2594597749922115 -0.30684043323586613 -0.08109063610329659 -0.5195925407328531 -0.7229191401396449 -0.8217003099593883 0.1379453552209562 0.4541897268348104
0.3940999792863763 -0.5757864240032348 -0.16238574311074871 -0.4388349341213784 0.1453945108593192 -0.013525454464239972 0.3983252559812318 -0.3436013478408098
0.232130944183698 0.8872034468011654 0.5451906287407852 1.1119037831795215 0.7007195999459178 -0.3286408804439527 0.7008157415357524 0.35887664088938254
0.2680165613086132 -0.9384029994694068 0.18868230495999916 0.08870454947016931 0.0031524026079680495 -0.2424509758328508 -0.5679388868670212 -0.8010938492477315
0.12715285111562769 -0.00866896588645253 0.5300489197106184 0.32311669554603223 -0.21594978741751603 0.19132301431234583 -0.36986776916127384 -0.4161961994384437
-0.03605728312642098 0.4377516269751033 0.9507428855859243 0.028546522452114347 0.5470047101716401 0.010530225848840793 0.013263847035131199 0.10538506264682171
-0.1567516671992667 -0.023585813231272762 -0.5725324145957567 -0.4215545237368234 -0.1874414198064097 -0.26526923629205534 -0.016549030757852135 -0.00525131235502907
0.28283412363447574 -0.23099098100073223 -0.2025878589335761 0.4865807714745899 -0.35340230951955076 0.3937319260056063 0.005977768276191633 0.7560918883071109
-0.6759932197462859 0.6625905151907562 -0.26892067076258985 0.07895149829270748 0.17985536924190004 -0.47080992572436625 0.7969279403987924 0.6371326018185225
0.8301671090264579 -0.04133791445381045 0.9935359285536888 1.1764774121086785 -0.39991977024060754 -0.05491797023124856 0.8508051044526612 -1.4016529195007332
0.2248998381060283 0.4662773004808905 0.8780187394327568 0.28375142035300677 -0.593714170569744 0.5691132075850301 -0.6409489529795092 0.6765689627900975
0.10076396914370558 -0.12765577503077913 0.09849093569398551 -0.2070593803288461 -0.6556772010962293 -0.3715475160378384 0.3863130704932897 0.640370900490001
0.15228260152245474 -0.12005600894757915 0.648902383798634 0.01263475670133446 -0.42896218798799834 0.24977965142415265 0.6352533364713866 0.5726234721039727
0.31273684318653083 -0.15549838305693495 -0.5329394595273225 -1.246129906115415 0.4319612154159507 -0.9891395350624475 -0.8486136776906612 1.0420264656457086
0.4525503395585804 -0.9256425139253945 -0.7416014912297653 -0.07648672747511606 0.6639086226192326 0.021269716330893723 0.6508190681140325 -1.2078729673943036
-0.7042834017031121 -0.659587687178554 -0.37898906711601077 -0.04740754360971704 1.2130306591270386 0.2954739592835656 -0.46953197026599297 -0.4392792244350182
-0.32540795558372093 0.27239958051815494
00000000: 6210 cefe b151 dc3f 8c8a 306a 2846 e13f
00000010: 03ff 9c18 e4ac e83f 998a 32af 6037 f03f
00000020: 5cbd 99ac e591 c3bf a8a7 d214 4445 da3f
00000030: 88ef 3fe3 ff35 e5bf a029 0405 6c2c f3bf
00000040: fc4f 3ab3 fcad d1bf a0b3 ea96 9e40 91bf
00000050: 87ae 915d 61bf e03f 4dee f3ba 782a ec3f
00000060: 0213 7316 f25d c23f 80ef 1ee6 72fc f53f
00000070: c889 5695 4652 dcbf 3a6e ce3b b5e7 debf
00000080: 5893 dd69 7357 acbf 799c 119b 3d77 e1bf
00000090: 18c2 4343 4228 b73f 287c c672 3b8f 9bbf
000000a0: 0ab2 4320 d3a2 b8bf d39b 3176 acc9 debf
000000b0: 20ba 7e48 1aa9 a53f 802d 40b4 1be3 e33f
000000c0: 4b75 99b2 9964 b13f dab1 c4b5 9c08 b23f
000000d0: c4c3 9b0f 6e23 ddbf b40d f28b 0853 dabf
000000e0: d057 fa37 f577 ccbf d081 e13f 8113 dd3f
000000f0: 3fd9 13a0 8859 d03f 2aa7 885d 2bd0 ecbf
00000100: ccb8 1569 ffc1 a73f 9e9e 8035 808a cbbf
00000110: 2849 a6d2 424a cabf 5ffd 1542 fd27 e8bf
00000120: fa07 e38c 0332 db3f cbd7 ec9c adf2 d33f
00000130: cc1b 4b8b 41b7 d03f b912 31b8 6880 d6bf
00000140: 1095 735a 43e3 de3f 7031 a89b 6eb3 c53f
00000150: 59df 8a1c c63a b83f 0030 e56d 1740 bfbf
00000160: 6285 48d9 ba11 e33f 6d4a 30f6 d98b f1bf
00000170: 0149 26f1 e822 f1bf ba6b abe8 39f1 e1bf
00000180: a85f 73d8 9c9e d0bf 25e5 e3db 408b e53f
00000190: 9232 f651 a273 b9bf bec7 0437 1d61 e03f
000001a0: 7b8d 8182 2f98 c93f a912 aa5e 6378 e1bf
000001b0: 6b4a 3369 3c83 e1bf ff54 4254 f7b5 e4bf
000001c0: 01ce 0243 b5dd b7bf e825 d449 db6c eabf
000001d0: 8935 b62d 907f d3bf 8b7b d249 4ac5 fabf
000001e0: a68e 7ed3 f267 e13f 6464 6443 9319 d33f
000001f0: 7747 4a69 9c67 fa3f a177 308b 0b69 f83f
00000200: d0d3 fc4b d1dc a3bf 6c71 94cc 6bac a6bf
00000210: 3d40 ee34 04ab af3f 57e2 1ff3 4364 da3f
00000220: 1619 ba92 5315 b53f e8e4 fb90 4b32 cfbf
00000230: 58ba 0f46 204b e3bf b6b3 f234 6a55 ecbf
00000240: 54fa 1fd3 5959 7bbf 48e8 9a7e 794f e9bf
00000250: 8e95 ec3d c200 eabf 2fa1 4c4a aba2 f0bf
00000260: 782d 8d89 ac67 e9bf 3838 ea43 15b9 d43f
00000270: b09a 2dca aa44 8c3f 15c4 890b eddf d7bf
00000280: bfd6 340c 2111 c93f a68c 9c24 0eee d73f
00000290: ec37 88c5 eb85 e53f 3cc1 4fa6 fb42 ba3f
000002a0: f4d5 433f 0758 91bf 3040 5a58 fe44 cb3f
000002b0: ba3d 9a3e 46c8 b93f 275b 5417 1a0a cd3f
000002c0: 9a34 a4a2 0862 e23f b070 97cc 1a73 db3f
000002d0: 80bc 7952 06f7 b13f 670a 292f 63c1 ed3f
000002e0: 5c83 bd2b a0c0 c3bf 8f85 4ea2 4e24 c1bf
000002f0: 48ac 348c aad9 ecbf af6c 21db 151f ecbf
00000300: 3205 0e2c fd9a d03f 41aa 750e 46a3 d3bf
00000310: b053 131e 5bc2 b4bf 4d2e 3689 80a0 e0bf
00000320: c0ab 1152 2722 e7bf b46f cc72 5e4b eabf
00000330: e890 a782 31a8 c13f ded1 bbc9 7111 dd3f
00000340: b2e9 981e ef38 d93f cd63 92a6 d76c e2bf
00000350: 48a8 ff57 0ec9 c4bf 5031 991e df15 dcbf
00000360: 0c50 948e 499c c23f e017 b3c4 3bb3 8bbf
00000370: d40d e736 297e d93f 7d9e f581 90fd d5bf
00000380: 7e4c d47e 77b6 cd3f 781a 9d7b f863 ec3f
00000390: 0de0 109e 3372 e13f 22e0 109f 5bca f13f
000003a0: ade2 ad82 4b6c e63f c4aa 68c2 7308 d5bf
000003b0: a160 4d22 156d e63f 5ac4 faba d5f7 d63f
000003c0: 00d7 66ef 2e27 d13f a00f 26ba 6507 eebf
000003d0: 548c 91e4 bd26 c83f 2415 fb62 57b5 b63f
000003e0: 608d 5c43 11d3 693f c0ed 0a32 a208 cfbf
000003f0: 560e 272c 8e2c e2bf e076 7191 8fa2 e9bf
00000400: 6840 916c 8b46 c03f 9495 c7e7 08c1 81bf
00000410: d6fd ed26 29f6 e03f e35a 0aa6 f1ad d43f
00000420: 38a8 441d 3ea4 cbbf 06ca b8c4 457d c83f
00000430: f618 19dd e9ab d7bf dfaf 5362 f5a2 dabf
00000440: c005 9fa7 1976 a2bf 3e3f 6866 1f04 dc3f
00000450: fee0 0f58 7c6c ee3f 6bac 62b1 4c3b 9d3f
00000460: b13e 9e05 1081 e13f 4843 1ffd de90 853f
00000470: 105a e169 132a 8b3f 2a15 8ef5 83fa ba3f
00000480: 0c6f 1b4a 7010 c4bf 8859 e921 e126 98bf
00000490: 88d6 927f 2f52 e2bf 838d 3bd3 bffa dabf
000004a0: bbfe fd97 14fe c7bf f297 a0d1 2bfa d0bf
000004b0: 70b9 8aa7 3af2 90bf 0003 376d 6682 75bf
000004c0: 37fc cc4b f419 d23f 58d8 88ca 1c91 cdbf
000004d0: ffda 5722 66ee c9bf ce21 16ad 2324 df3f
000004e0: e6e8 6db8 249e d6bf 7173 6564 e732 d93f
000004f0: d02b fdf3 247c 783f ff98 a19d e731 e83f
00000500: e618 6488 bca1 e5bf 754a 2c06 f133 e53f
00000510: 7e32 890b ff35 d1bf 3c2b 2357 2a36 b43f
00000520: 20b5 7330 8005 c73f eb92 67f4 bf21 debf
00000530: a501 2906 6f80 e93f 89d4 00e9 6363 e43f
00000540: db78 ef9c ba90 ea3f c6f2 533d 3e2a a5bf
00000550: 3140 11dc 0bcb ef3f f2d4 97fa d9d2 f23f
00000560: 7a43 8d17 4998 d9bf 603a 364c 351e acbf
00000570: 029c 5ca0 cb39 eb3f be93 999c 2b6d f6bf
00000580: 4f42 c594 84c9 cc3f 8daf 1bbf 7cd7 dd3f
00000590: 5871 64c1 ba18 ec3f 8905 a7b7 fb28 d23f
000005a0: 249a 38dc b4ff e2bf 6394 c9e6 2c36 e23f
000005b0: 567a ee60 a782 e4bf ec81 15f4 73a6 e53f
000005c0: ca5d 16e0 aacb b93f a68c 7341 0657 c0bf
000005d0: 4a13 c2b3 b336 b93f 69d4 6bf9 eb80 cabf
000005e0: a81d eec0 4efb e4bf 2ab9 923b 6fc7 d7bf
000005f0: 2f4e f274 5ab9 d83f 9b44 5d1d eb7d e43f
00000600: 87f5 a40c ff7d c33f 263e 1e98 fdbb bebf
00000610: 35c5 96ee cec3 e43f 60e7 9956 40e0 893f
00000620: 7842 28d2 1d74 dbbf 9258 0995 c7f8 cf3f
00000630: 4239 1ace fe53 e43f 1679 b375 ee52 e23f
00000640: 3663 6f64 e103 d43f b7bb e7fa 5ee7 c3bf
00000650: 565e ad0d d70d e1bf 0655 95e9 25f0 f3bf
00000660: d885 56a7 40a5 db3f 70c3 48f4 07a7 efbf
00000670: 60d4 13df d727 ebbf 903c 78f1 23ac f03f
00000680: b8a8 0cb3 95f6 dc3f f018 a30c dd9e edbf
00000690: bee4 ef0c 33bb e7bf 966c 1559 a294 b3bf
000006a0: 06d3 b54b bd3e e53f 4842 2580 bac7 953f
000006b0: 0437 a582 82d3 e43f 69e5 ca9a 7253 f3bf
000006c0: a2c6 2d58 7d89 e6bf 5ed6 28a3 571b e5bf
000006d0: 1882 335c 5b41 d8bf 065d c632 cd45 a8bf
000006e0: 6eef 1fd6 9268 f33f bd52 fc9b 0be9 d23f
000006f0: 3302 2ed2 cf0c debf 72ae b09b 261d dcbf
00000700: 82c7 c5e3 7bd3 d4bf 0841 71a6 fe6e d13f
